ckpts/SpliceAI_SSD/Brachypodium_distachyon.pth (torch, 559591 bytes, 223 tensors)

conv1.weight f4 [32, 4, 3]
-0.21835153 0.037816245 -0.26128465 0.121442795 -0.24382277 0.14281207 -0.07091864 -0.055325497
0.27757633 -0.011628466 -0.293764 -0.029557923 -0.17340678 -0.08635422 0.10972503 0.132638
-0.19889408 0.2521981 0.20771955 0.2236168 -0.14771144 -0.03817261 -0.06665576 0.13382068
-0.123577885 0.05781216 -0.15635914 0.009465426 -0.086590394 0.2597081 -0.15655656 0.24517912
-0.28125256 0.19830391 0.24992388 0.1609736 -0.14732763 0.08566942 0.11758592 -0.16009067
0.17226592 0.26786307 -0.013353429 -0.059877306 -0.041703295 0.25854948 0.07794627 0.02232371
0.24170452 0.065083794 -0.27798155 0.22953774 -0.17863251 -0.257194 -0.29261488 0.018701592
-0.08243232 0.0329158 0.100010335 0.17021152 -0.004712578 -0.034888107 -0.0503777 -0.01601634
0.22752748 0.09204972 -0.25345206 0.20565298 -0.2701983 0.16058506 -0.07365029 0.08049695
-0.032360222 -0.24724925 0.18454991 0.06714074 -0.20304759 0.06722588 -0.14093226 -0.20074913
0.19195634 0.068852246 -0.1372467 -0.19492632 0.23568311 -0.04282215 -0.13381748 -0.23062414
0.17742725 0.15036349 0.2649669 0.036597766 -0.29416046 0.23723564 0.0653895 -0.23419215
-0.19266395 0.16055657 0.013055265 -0.21143146 -0.0309155 -0.007549133 -0.10672871 -0.08780746
0.16283983 -0.2448879 0.0066312337 0.14382137 -0.21260095 -0.19741778 0.070229106 -0.06787298
0.10731684 -0.17325485 0.05257218 -0.104124054 0.20912577 0.04296311 0.12787496 -0.26400825
0.098287046 -0.1620084 -0.0810762 0.1165024 0.1901415 -0.04796432 -0.18758243 0.21390739
-0.014208176 0.17190851 0.04720178 -0.22072557 0.24528661 -0.27924713 0.17927429 -0.16590461
-0.010381096 0.14659105 -0.26068363 0.2911788 -0.06037284 -0.20426497 -0.07301929 0.22908223
0.13883176 0.15769923 -0.2599388 -0.16180198 0.22486979 0.1288689 0.14926012 -0.06307018
0.2079312 -0.0307563 0.09329063 0.14939637 -0.20095156 -0.1880902 -0.00056962896 -0.23610389
-0.1829683 0.13552989 -0.23066333 0.28110895 -0.017254025 0.09796753 0.22652668 -0.21550716
0.055344675 0.20366138 -0.22311643 0.011828945 0.10224129 -0.18136115 -0.012535602 0.01586903
0.18425003 -0.2346145 0.12309584 0.11146318 -0.154437 0.031780466 0.11246571 0.26079884
0.05480107 0.16313902 -0.077885695 -0.06663061 0.1815287 -0.20974736 -0.20772205 0.1482979
-0.10971002 -0.034316737 -0.25742337 0.06900739 -0.1600712 -0.25899088 -0.17807394 -0.11561688
-0.21188661 0.0027498144 0.09699081 -0.24529193 -0.26005793 -0.20123181 -0.27364916 0.048845723
-0.233214 0.12903681 0.121802926 0.19088939 -0.18510695 0.20873968 -0.042031802 0.17844076
0.26469412 0.004514552 0.10842531 -0.08565757 -0.0244419 -0.17683282 -0.22840464 0.13161728
0.2445882 -0.027540155 -0.17262506 -0.19918567 -0.21090965 -0.14041303 0.28479594 0.1729426
0.048731316 -0.14563292 -0.05330406 -0.22479573 0.26146707 -0.2430694 -0.22788185 -0.22434703
0.26557174 0.28842074 -0.22672337 0.25488922 -0.12591776 0.11806934 -0.09558861 -0.07857132
-0.13683179 -0.25933045 -0.02699045 0.023937445 -0.22912227 0.011392877 0.110525355 -0.10091882
00000000: 8b97 5fbe 35e5 1a3d 1ac7 85be 00b7 f83d
00000010: adac 79be 543d 123e cb3d 91bd fd9c 62bd
00000020: 7c1e 8e3e 5285 3ebc 3c68 96be 7523 f2bc
00000030: 8c91 31be 7bda b0bd 84b7 e03d 42d2 073e
00000040: e4aa 4bbe 1c20 813e 6fb4 543e cdfb 643e
00000050: ab41 17be e25a 1cbd d182 88bd 4a08 093e
00000060: 6716 fdbd 72cc 6c3d 9c1c 20be e014 1b3c
00000070: 4e56 b1bd 76f8 843e 5d50 20be 3c10 7b3e
00000080: 5600 90be 2e10 4b3e 0cec 7f3e 43d6 243e
00000090: 0edd 16be 7373 af3d e3d0 f03d cfee 23be
000000a0: 7a66 303e 5925 893e 57c8 5abc e841 75bd
000000b0: 13d1 2abd 9960 843e 4ba2 9f3d 37e0 b63c
000000c0: 6481 773e a74a 853d 9953 8ebe f10b 6b3e
000000d0: 71eb 36be efae 83be 9ed1 95be 1534 993c
000000e0: 47d2 a8bd b8d2 063d 38d2 cc3d ee4b 2e3e
000000f0: f86b 9abb d5e6 0ebd d958 4ebd b334 83bc
00000100: f7fc 683e 9084 bc3d 78c4 81be b296 523e
00000110: 6e57 8abe 6970 243e f7d5 96bd 96db a43d
00000120: 278c 04bd e82e 7dbe a7fa 3c3e 1681 893d
00000130: b5eb 4fbe b9ad 893d 8c50 10be 2e91 4dbe
00000140: 3490 443e 6802 8d3d 668a 0cbe c49a 47be
00000150: ea56 713e 4766 2fbd 7307 09be bc28 6cbe
00000160: 7daf 353e e3f8 193e bea9 873e 8ae7 153d
00000170: 339c 96be e6ed 723e eeea 853d 11d0 6fbe
00000180: b349 45be f168 243e c0e5 553c 7d81 58be
00000190: 8142 fdbc b85e f7bb 9594 dabd 66d4 b3bd
000001a0: 7cbf 263e e5c3 7abe d24a d93b e945 133e
000001b0: 10b4 59be e327 4abe 47d4 8f3d fd00 8bbd
000001c0: eec8 db3d b869 31be ed55 573d fe3e d5bd
000001d0: 1125 563e 16fa 2f3d a7f1 023e 172c 87be
000001e0: b84a c93d 88e5 25be 470b a6bd cf98 ee3d
000001f0: 74b4 423e 3c76 44bd 9c15 40be 8a0a 5b3e
00000200: 69c9 68bc c908 303e a756 413d e205 62be
00000210: 6a2c 7b3e 7bf9 8ebe ae93 373e e6e2 29be
00000220: 7915 2abc f71b 163e 5378 85be 6315 953e
00000230: 8349 77bd d62a 51be 238b 95bd 8894 6a3e
00000240: ea29 0e3e e87b 213e b316 85be 6baf 25be
00000250: 4444 663e 35f6 033e a5d7 183e f02a 81bd
00000260: ebeb 543e a3f4 fbbc 280f bf3d 5dfb 183e
00000270: 3fc6 4dbe b89a 40be 2753 15ba 38c5 71be
00000280: 0b5c 3bbe 59c8 0a3e 0233 6cbe 83ed 8f3e
00000290: 5058 8dbc 33a3 c83d 9cf6 673e e9ad 5cbe
000002a0: 19b1 623d 9c8c 503e a278 64be 31ce 413c
000002b0: e263 d13d bdb6 39be 2062 4dbc c5ff 813c
000002c0: 0aac 3c3e c93e 70be ac19 fc3d cf46 e43d
000002d0: bc24 1ebe 3c2c 023d 6c54 e63d 6d87 853e
000002e0: 1677 603d ea0d 273e 8982 9fbd a175 88bd
000002f0: a9e2 393e 03c8 56be 17b5 54be 68db 173e
00000300: a6af e0bd b58f 0cbd ffcc 83be bf53 8d3d
00000310: b4e9 23be 749a 84be 0459 36be 8bc8 ecbd
00000320: cef8 58be 3b36 343b 1ea3 c63d cf2d 7bbe
00000330: 5026 85be b60f 4ebe be1b 8cbe 7412 483d
00000340: a7cf 6ebe 3a22 043e d073 f93d 8278 433e
00000350: ad8c 3dbe dbbf 553e 8a29 2cbd 2db9 363e
00000360: fd85 873e cfee 933b 170e de3d 3c6d afbd
00000370: 613a c8bc aa13 35be e8e2 69be aec6 063e
00000380: 5475 7a3e e49b e1bc a0c4 30be 54f7 4bbe
00000390: b3f8 57be 6fc8 0fbe c6d0 913e dd17 313e
000003a0: 7d9a 473d cc20 15be 5c55 5abd da30 66be
000003b0: 03df 853e 2fe7 78be dc59 69be 3abb 65be
000003c0: 05f9 873e e2ab 933e 2c2a 68be d780 823e
000003d0: 96f0 00be 57ce f13d f6c3 c3bd 00ea a0bd
000003e0: a21d 0cbe f6c6 84be 141b ddbc 7618 c43c
000003f0: 079f 6abe 31a9 3a3c 1e5b e23d 87ae cebd

conv1.bias f4 [32]
0.17640825 0.16767465 -0.17677368 -0.25800076 0.028361078 -0.04020192 0.08819162 0.1271524
-0.20988287 -0.0896395 -0.2733863 0.032972876 -0.13302356 -0.08603174 0.14899246 0.06584373
-0.10257949 -0.28663284 -0.26434657 -0.2437836 0.011946504 0.04444961 0.061167173 -0.18254516
-0.023195555 0.01841014 0.13916726 -0.21215747 0.007778737 -0.071186185 0.16650546 -0.14394175
00000000: 5da4 343e e7b2 2b3e 2904 35be ad18 84be
00000010: 7e55 e83c c5aa 24bd cf9d b43d 3d34 023e
00000020: 89eb 56be ea94 b7bd 4af9 8bbe 910e 073d
00000030: 5437 08be 6931 b0bd 7b91 183e 14d9 863d
00000040: 3215 d2bd 8ac1 92be 6f58 87be 68a2 79be
00000050: 45bb 433c cb10 363d 6e8a 7a3d 1eed 3abe
00000060: 9b04 bebc ddd0 963c dd81 0e3e cf3f 59be
00000070: c7e4 fe3b 10ca 91bd 6880 2a3e 7765 13be

bn.weight f4 [32]
1.0000489 1.002654 0.9865073 0.9852771 0.99180216 0.9907642 0.9932597 1.000571
0.996086 1.0089821 0.9931008 1.0067343 1.0164404 0.99435425 0.9977917 0.9952338
1.0042568 0.99574757 1.0040042 0.99883974 1.0002522 0.9965625 0.9916296 0.9937994
0.9873786 1.0005541 0.99595433 0.9959656 0.998687 1.0021133 0.99055725 0.98389655
00000000: 9a01 803f f756 803f be8b 7c3f 1f3b 7c3f
00000010: bfe6 7d3f b9a2 7d3f 4546 7e3f b612 803f
00000020: 7eff 7e3f 5326 813f db3b 7e3f abdc 803f
00000030: b81a 823f 008e 7e3f 476f 7f3f a4c7 7e3f
00000040: 7d8b 803f 50e9 7e3f 3683 803f f6b3 7f3f
00000050: 4408 803f b81e 7f3f 70db 7d3f a369 7e3f
00000060: d8c4 7c3f 2812 803f ddf6 7e3f 9af7 7e3f
00000070: f4a9 7f3f 4045 803f 2995 7d3f a5e0 7b3f

bn.bias f4 [32]
0.00016869862 -0.002277175 0.015183532 -0.016020669 -0.0044507845 0.007484007 -0.0030363905 -0.0049720765
-0.0102668675 0.004811398 -0.0013618054 -0.0019026314 0.018088885 -0.0007311138 -0.0035411983 0.002262911
0.0032365336 -0.0153431045 -0.001376198 0.00579659 0.0012701498 -0.0070317835 0.007721501 -0.00062771287
-0.011857212 0.015166041 -0.0048117763 0.020918563 0.0026132814 0.0118430015 -0.0070239166 -0.025039563
00000000: b1e4 3039 a83c 15bb 59c4 783c c73d 83bc
00000010: e3d7 91bb 673c f53b 2efe 46bb cdec a2bb
00000020: 5d36 28bc efa8 9d3b 9b7e b2ba b761 f9ba
00000030: 242f 943c 37a8 3fba 7313 68bb 594d 143b
00000040: 061c 543b a561 7bbc 8b61 b4ba 52f1 bd3b
00000050: 287b a63a e06a e6bb a504 fd3b 198d 24ba
00000060: c044 42bc fd7a 783c 1bac 9dbb 685d ab3c
00000070: 9643 2b3b 2609 423c e228 e6bb c51f cdbc

bn.running_mean f4 [32]
0.0012673452 0.2398094 -0.073378816 -0.10719898 -0.0070838286 -0.022579513 -0.05940661 0.18569109
-0.30425096 -0.20349652 -0.252979 0.046452228 0.044515446 -0.21979886 0.18604296 0.104959115
-0.44570917 -0.378498 -0.30075398 -0.4395485 0.015717106 0.025389163 -0.10483423 -0.22285797
-0.041228153 -0.17911747 0.024891838 -0.10114727 -0.021598542 0.05749821 0.46303222 -0.15222546
00000000: 0c1d a63a 9890 753e a247 96bd 248b dbbd
00000010: 761f e8bb acf8 b8bc 5854 73bd ce25 3e3e
00000020: c8c6 9bbe 6461 50be 7786 81be b144 3e3d
00000030: d455 363d f412 61be 0c82 3e3e cef4 d63d
00000040: fe33 e4be 7dca c1be 6dfc 99be 800c e1be
00000050: 29c1 803c effc cf3c 54b3 d6bd e134 64be
00000060: dade 28bd 926a 37be f8e9 cb3c 4d26 cfbd
00000070: 6def b0bc 3e83 6b3d 8f12 ed3e fee0 1bbe

bn.running_var f4 [32]
0.073278144 0.0606071 0.08958056 0.047685333 0.09221901 0.06131581 0.03376918 0.07410178
0.017255394 0.06509071 0.047549915 0.092291124 0.058239523 0.08952749 0.050055627 0.044657845
0.019557407 0.104601234 0.081024766 0.0950838 0.10151535 0.014730241 0.039502192 0.061800785
0.113365166 0.080350116 0.07620564 0.08667711 0.030221552 0.0806651 0.076374054 0.05785464
00000000: da12 963d 273f 783d 0376 b73d b251 433d
00000010: 52dd bc3d 4926 7b3d 8d51 0a3d adc2 973d
00000020: 2f5b 8d3c 474e 853d b3c3 423d 2103 bd3d
00000030: 918c 6e3d 305a b73d 2107 4d3d 25eb 363d
00000040: db36 a03c 2c39 d63d 50f0 a53d 4cbb c23d
00000050: 48e7 cf3d 1c57 713c 0dcd 213d d222 7d3d
00000060: ff2b e83d 9a8e a43d b411 9c3d c583 b13d
00000070: 3093 f73c be33 a53d 006a 9c3d fdf8 6c3d

residual_layers.0.conv1.weight f4 [32, 32, 3]
-0.10614602 0.028896514 -0.09398974 0.053525716 -0.03588763 -0.009300505 -0.04659364 -0.052612536
0.03246266 -0.09704869 0.09298002 0.048732605 0.02886494 0.0051402217 0.0046903784 0.048797604
0.07094232 0.0866274 0.055929184 0.08618787 0.08907456 0.04860549 -0.10377952 -0.024830056
0.08083061 -0.030611489 -0.01227582 0.01551392 -0.024268135 0.084776156 0.041583326 -0.0022680494
-0.03828355 -0.080719076 -0.067564435 0.031507943 -0.007077103 -0.07205884 -0.04495815 0.05835187
0.07264559 0.034812685 0.038301382 0.009767325 0.06519591 -0.07302976 -0.06135297 0.08832254
-0.05335285 0.013928019 -0.03182713 0.09584189 0.010651662 0.092184044 -0.05862494 0.0083219325
-0.02105524 0.08683167 0.06870112 0.038766004 0.06743846 -0.016835634 0.049289994 -0.051881976
0.022222385 -0.03723696 -0.060811516 0.073018365 -0.025601419 -0.027571801 0.034622777 -0.00203867
-0.07731583 0.072116494 -0.010490462 -0.048325203 0.07186216 0.031187423 0.0920019 -0.0431239
-0.0468358 -0.000841799 -0.0024951163 0.031204095 0.052989207 0.0476699 0.0874032 -0.03928639
0.040680554 -0.024594927 0.07422218 -0.08359523 0.009401111 -0.0135494135 -0.022295387 0.09834251
-0.07508208 -0.0013530346 0.0489025 0.088146485 0.05391886 0.020372605 -0.09752762 -0.02011474
-0.08934572 0.09855447 -0.03256636 -0.06879988 -0.10387199 -0.0954531 0.071903884 0.05535328
-0.030322859 0.038845062 0.016251415 -0.013343388 -0.04763283 -0.07903534 0.015856946 -0.027930383
-0.06874488 0.03590326 0.093334846 0.106643245 0.03266506 -0.03852299 0.025198974 -0.0061663394
0.082650505 -0.059637416 -0.074686155 0.061062217 -0.0846697 -0.057731006 -0.0106964735 -0.040125746
0.019286107 0.027039532 -0.052849203 -0.074345194 0.07426536 -0.044290595 -0.08296337 -0.048492197
-0.08811781 0.0521641 0.043244787 0.08750878 -0.08323476 0.02137011 0.044580765 0.018877763
-0.050979637 -0.05185751 -0.012579909 -0.072217226 0.07445552 0.09208697 0.08634927 -0.06414067
0.101085916 0.010086127 -0.05651072 0.009297064 0.013742532 -0.059361532 -0.03997586 -0.045559417
0.04691925 -0.023420531 0.1125264 -0.031053405 -0.0012503406 0.05721987 -0.03255426 -0.06420399
-0.07584067 -0.005048764 -0.10202507 -0.096441016 -0.08494947 -0.07485688 0.04522781 -0.0032213272
-0.06105937 -0.088275515 0.10928298 0.07574955 -0.061043337 -0.022040972 0.05898137 0.04908099
-0.08827288 -0.02434199 0.08137198 -0.0021229982 -0.09673225 0.04806712 0.0038049847 -0.078236714
0.063783616 -0.06679969 0.07272628 -0.0036714224 0.056631602 0.08362555 -0.04803973 0.0993944
0.095814645 0.0636097 0.07177988 0.09510826 -0.055870533 -0.009867661 0.070928134 -0.10370704
-0.11248088 -0.09042654 -0.04956554 -0.06073293 -0.09184264 -0.008248384 0.009074764 0.06369829
0.024040634 -0.039132874 0.029733643 0.030962318 -0.05238045 0.07293081 -0.05809619 0.0026455768
0.01712711 0.10224524 0.061279997 0.011023439 0.008525698 -0.083043315 0.10036279 0.010576627
0.003678162 -0.063142836 0.09984776 -0.029910348 -0.043113016 -0.026449129 -0.031154227 0.05208403
-0.008472109 -0.09412423 -0.06277241 0.053116113 0.021579968 0.0011592146 0.044292036 0.08623535
00000000: 1663 d9bd 62b8 ec3c b17d c0bd c83d 5b3d
00000010: e8fe 12bd 2561 18bc f9d8 3ebd 3e80 57bd
00000020: 91f7 043d 77c1 c6bd 4f6c be3d d79b 473d
00000030: 2b76 ec3c 4e6f a83b bfb1 993b ffdf 473d
00000040: 354a 913d b569 b13d 0016 653d 4483 b03d
00000050: b96c b63d 8d16 473d 5b8a d4bd 6768 cbbc
00000060: 858a a53d f2c4 fabc 8520 49bc 192e 7e3c
00000070: f8cd c6bc 1f9f ad3d 4753 2a3d 8ea3 14bb
00000080: 36cf 1cbd 0b50 a5bd 395f 8abd 790e 013d
00000090: 0be7 e7bb 9693 93bd 0926 38bd 5f02 6f3d
000000a0: 36c7 943d bf97 0e3d e9e1 1c3d 2107 203c
000000b0: 6f85 853d a090 95bd 404d 7bbd 73e2 b43d
000000c0: 8588 5abd 5932 643c 2a5d 02bd c148 c43d
000000d0: 4f84 2e3c fdca bc3d b520 70bd b758 083c
000000e0: 0a7c acbc cdd4 b13d 2cb3 8c3d 1ac9 1e3d
000000f0: 2d1d 8a3d e2ea 89bc 4ee4 493d 3282 54bd
00000100: b80b b63c c885 18bd 7f15 79bd a78a 953d
00000110: 11ba d1bc 42de e1bc 9dd0 0d3d 359b 05bb
00000120: c357 9ebd d0b1 933d 30e0 2bbc a6f0 45bd
00000130: 782c 933d c47c ff3c 7e6b bc3d b0a2 30bd
00000140: e5d6 3fbd 2dac 5cba 1b85 23bb bb9f ff3c
00000150: 360b 593d 8341 433d 7300 b33d c4ea 20bd
00000160: a7a0 263d 4d7b c9bc cc01 983d fa33 abbd
00000170: 1e07 1a3c 5cfe 5dbc d1a4 b6bc cc67 c93d
00000180: a2c4 99bd 4f58 b1ba fd4d 483d 2586 b43d
00000190: 06da 5c3d 73e4 a63c 90bc c7bd abc7 a4bc
000001a0: e4fa b6bd edd6 c93d 4e64 05bd f4e6 8cbd
000001b0: d7ba d4bd ea7c c3bd 5842 933d 1fba 623d
000001c0: a567 f8bc 001c 1f3d b021 853c 3a9e 5abc
000001d0: a41a 43bd 48dd a1bd 6de6 813c 42ce e4bc
000001e0: 1eca 8cbd 4c0f 133d 5726 bf3d c667 da3d
000001f0: cccb 053d 48ca 1dbd 146e ce3c 010f cabb
00000200: ab44 a93d 5d46 74bd 0ef5 98bd 601c 7a3d
00000210: 4f67 adbd 5977 6cbd 4340 2fbc e55a 24bd
00000220: e6fd 9d3c 0282 dd3c 6878 58bd 4b42 98bd
00000230: 7018 983d 0e6a 35bd b3e8 a9bd c19f 46bd
00000240: 1c77 b4bd 06aa 553d 7221 313d ce37 b33d
00000250: fc76 aabd 5e10 af3c 529a 363d 8aa5 9a3c
00000260: 06d0 50bd 8a68 54bd f61b 4ebc a0e6 93bd
00000270: 237c 983d 1898 bc3d e3d7 b03d 2f5c 83bd
00000280: 2206 cf3d 4840 253c c977 67bd b652 183c
00000290: 5b28 613c 1425 73bd babd 23bd 839c 3abd
000002a0: 662e 403d 6adc bfbc 3e74 e63d b663 febc
000002b0: 78e2 a3ba 625f 6a3d 9e57 05bd 627d 83bd
000002c0: 5a52 9bbd 1a70 a5bb 85f2 d0bd de82 c5bd
000002d0: fdf9 adbd 904e 99bd cc40 393d e71c 53bb
000002e0: 6419 7abd cbc9 b4bd c1cf df3d 9422 9b3d
000002f0: 9408 7abd 458f b4bc 7396 713d 2609 493d
00000300: 69c8 b4bd da68 c7bc 5aa6 a63d 0022 0bbb
00000310: 8f1b c6bd 07e2 443d 0d5d 793b 923a a0bd
00000320: fca0 823d 47ce 88bd 84f1 943d 3f9c 70bb
00000330: 8af6 673d df43 ab3d 4fc5 44bd 4b8f cb3d
00000340: 783a c43d cd45 823d 5401 933d 1fc8 c23d
00000350: 80d8 64bd f8ab 21bc c542 913d 5b64 d4bd
00000360: 605c e6bd 8d31 b9bd 3c05 4bbd 18c3 78bd
00000370: fe17 bcbd 3b24 07bc 52ae 143c 4074 823d
00000380: ddf0 c43c cb49 20bd f893 f33c b0a4 fd3c
00000390: e28c 56bd c05c 953d 45f6 6dbd 6a61 2d3b
000003a0: 274e 8c3c f465 d13d bc00 7b3d a79b 343c
000003b0: 5faf 0b3c 9d12 aabd 028b cd3d 9749 2d3c
000003c0: 510d 713b 0851 81bd fb7c cc3d 8c06 f5bc
000003d0: 4697 30bd d8ab d8bc 2637 ffbc 1056 553d
000003e0: 9ace 0abc 34c4 c0bd d28e 80bd 4890 593d
000003f0: 79c8 b03c caf0 973a 916b 353d 299c b03d

residual_layers.0.conv1.bias f4 [32]
-0.09535248 -0.056830447 0.059297062 -0.072875075 0.07713683 -0.05830735 -0.017347978 -0.042430095
-0.062725455 0.039653473 0.06637688 -0.076076575 0.04559402 -0.063921705 0.0029715074 -0.01811714
0.061343044 0.022138368 0.009112542 -0.04663883 0.0097265765 0.07693071 0.082312904 0.100236036
0.019062426 0.021612192 0.009325521 0.010431834 -0.060169257 -0.06303793 0.09887018 0.004526402
00000000: 2948 c3bd 0bc7 68bd 7ae1 723d 873f 95bd
00000010: eaf9 9d3d b0d3 6ebd 591d 8ebc 2ecb 2dbd
00000020: 3476 80bd ae6b 223d 9af0 873d 09ce 9bbd
00000030: ccc0 3a3d 62e9 82bd 9fbd 423b 656a 94bc
00000040: d842 7b3d 865b b53c c54c 153c 5c08 3fbd
00000050: 385c 1f3c d98d 9d3d ab93 a83d 8d48 cd3d
00000060: ce28 9c3c 0d0c b13c 12ca 183c 48ea 2a3c
00000070: 0a74 76bd 081a 81bd 737c ca3d 3652 943b

residual_layers.0.bn1.weight f4 [32]
0.9943839 1.0037909 1.0044719 1.0141191 0.9899418 1.0141712 1.0036783 0.9893886
0.98995936 0.9972781 0.9912945 1.0006087 1.0021288 1.0000197 1.0019752 1.0010206
1.0010567 1.0012523 1.012298 0.9912069 0.99769765 1.0099157 1.0006797 0.9913631
1.0021886 1.0053812 1.0108811 1.0006225 0.99924105 1.002746 0.9834436 0.9940209
00000000: f18f 7e3f 387c 803f 8992 803f a8ce 813f
00000010: d36c 7d3f 5dd0 813f 8878 803f 9248 7d3f
00000020: fa6d 7d3f 9e4d 7f3f 7ac5 7d3f f213 803f
00000030: c245 803f a500 803f b940 803f 7121 803f
00000040: a022 803f 0929 803f fb92 813f bcbf 7d3f
00000050: 1d69 7f3f eb44 813f 4616 803f f9c9 7d3f
00000060: b747 803f 55b0 803f 8d64 813f 6614 803f
00000070: 43ce 7f3f fb59 803f f6c2 7b3f 2778 7e3f

residual_layers.0.bn1.bias f4 [32]
0.0057525346 0.0035915219 0.007346835 0.020716451 -0.005682183 0.020176275 0.01170043 -0.00993331
0.010399972 0.00910908 0.018558837 0.018723277 0.0022554563 0.0022998166 0.03567279 0.003291368
0.011012477 -0.037257798 -0.0044044256 -0.0078571355 -0.01661201 0.016322514 -0.0032519833 0.005248231
-0.00594507 -0.02898787 0.021038666 0.013844022 0.013930702 0.015650826 -0.029096317 0.0024647228
00000000: c27f bc3b bd5f 6b3b b8bd f03b 8cb5 a93c
00000010: 9b31 babb b748 a53c 29b3 3f3c 52bf 22bc
00000020: a564 2a3c 403e 153c b408 983c 8f61 993c
00000030: 47d0 133b 85b8 163b a21d 123d feb3 573b
00000040: ad6d 343c a29b 18bd 0053 90bb 37bb 00bc
00000050: e915 88bc cbb6 853c 3a1f 55bb 5af9 ab3b
00000060: ddce c2bb f877 edbc 4859 ac3c 09d2 623c
00000070: 993d 643c 2936 803c 665b eebc 3087 213b

residual_layers.0.bn1.running_mean f4 [32]
0.27089864 -0.34800363 0.22587141 0.04174545 -0.01386863 -0.10906117 -0.46059704 -0.45564172
-0.11033447 0.058567952 -0.0057483236 -0.382129 -0.3157453 0.10270729 0.20321053 -0.17782176
0.19271824 -0.21535674 0.15986204 0.027051864 -0.26018283 0.14263509 0.14140393 0.23222864
-0.18342382 -0.1377397 -0.113163 0.20645723 -0.14109515 0.16562839 0.098153286 -0.08622235
00000000: 3ab3 8a3e 882d b2be d64a 673e 47fd 2a3d
00000010: 4039 63bc 765b dfbd 60d3 ebbe df49 e9be
00000020: 0af7 e1bd f3e4 6f3d 6f5c bcbb 6aa6 c3be
00000030: 5ea9 a1be 3358 d23d 6c16 503e e816 36be
00000040: ee57 453e 7a86 5cbe e0b2 233e df9b dd3c
00000050: af36 85be ef0e 123e 31cc 103e 58cd 6d3e
00000060: 74d3 3bbe a30b 0dbe 01c2 e7bd 8669 533e
00000070: 3f7b 10be 7d9a 293e 9704 c93d 5895 b0bd

residual_layers.0.bn1.running_var f4 [32]
0.078421794 0.1808227 0.15091424 0.14533207 0.07875893 0.28705156 0.09813487 0.17719196
0.14738125 0.09522939 0.093555406 0.101413555 0.06668814 0.046441007 0.13364771 0.075294696
0.13984853 0.13165216 0.09679387 0.1249247 0.10378321 0.106270194 0.103822045 0.12656121
0.14808728 0.10310544 0.11401616 0.10012469 0.27327132 0.14868997 0.10518604 0.08722554
00000000: 9b9b a03d 9629 393e 4389 1a3e eed1 143e
00000010: 5d4c a13d 6cf8 923e effa c83d cf71 353e
00000020: 1ceb 163e a007 c33d fa99 bf3d e9b1 cf3d
00000030: cb93 883d ed38 3e3d f2da 083e 1b34 9a3d
00000040: 7434 0f3e d3cf 063e dd3b c63d 85d8 ff3d
00000050: 4b8c d43d 30a4 d93d a7a0 d43d 4399 013e
00000060: 31a4 173e f228 d33d 4e81 e93d 2c0e cd3d
00000070: 38ea 8b3e 2f42 183e c76b d73d 4ea3 b23d

residual_layers.0.conv2.weight f4 [32, 32, 3]
-0.04894316 -0.029543975 -0.10161165 0.06170822 0.073687434 -0.026902808 0.06670196 0.0985845
0.06378318 -0.03921631 -0.07389196 0.012349818 0.060950648 0.058879808 0.059450984 0.057134356
-0.09930329 -0.0851697 -0.030790396 0.09970247 0.088820465 -0.056184657 -0.0052927276 -0.004015865
0.047104508 -0.036494248 -0.00015503303 -0.025864879 -0.07502657 -0.07485421 0.0064837793 -0.08076018
-0.048025165 -0.0038583446 0.012919608 0.05388323 0.025186203 0.026269702 0.00181673 0.013820349
0.03647325 0.09184778 -0.09653647 0.017855475 0.054077484 -0.04602277 0.07556993 -0.08250814
-0.012198136 0.014397874 -0.088546336 -0.09772092 0.04523356 -0.10289885 -0.08942854 0.025463762
0.0340891 -0.09458737 0.0027531974 0.07751793 0.0018741508 -0.06594623 0.033409737 0.107575
-0.063337214 0.09682715 -0.05294319 0.01128508 0.058290746 0.043096475 0.10408808 -0.031997465
0.10779738 0.030796567 -0.039682753 0.0015513257 0.026025191 -0.047017742 0.02656814 -0.02688672
0.08818453 -0.035019733 0.015316918 -0.07663457 0.09605003 0.024128579 0.07557229 0.050422262
0.009349822 0.035724096 -0.028029822 -0.0030919672 0.034998287 0.060285244 0.029360315 -0.007897361
0.05184035 -0.084702715 0.021753175 0.07892543 -0.048082925 0.08551696 -0.03458461 -0.024480002
0.074859485 -0.063726164 -0.005042658 -0.035887673 0.057575613 -0.08860162 0.025547681 -0.02617957
0.083120026 -0.072189204 0.114151455 0.07860868 0.08804972 0.009805657 -0.05942595 0.021582428
-0.068136275 0.046310317 0.0019369408 -0.0356954 0.04222015 -0.0120001575 -0.012303322 -0.059991725
0.010974287 -0.020444052 0.05710632 0.019830238 0.06826331 -0.0049595777 0.03213866 0.031056777
0.053593576 -0.04742263 -0.029766232 -0.055298556 0.003994896 -0.04232216 0.06417342 -0.015280864
0.011903913 -0.07802993 0.046082232 -0.004963954 -0.014578465 0.04329231 0.0026198323 -0.021036435
0.046489492 -0.068122424 0.016246306 0.087597266 0.064205684 -0.05055211 -0.09028712 0.06954581
-0.04303142 0.11817595 0.036238655 0.0006214427 0.002954532 -0.00095621444 9.956279e-05 -0.08116445
0.06636233 0.079189144 -0.09567456 -0.06442706 0.097476326 0.040131524 0.08426594 -0.1254917
0.093916506 0.040077556 0.05915125 -0.06886704 0.0010551651 -0.0056166323 -0.0072454526 -0.0006729012
-0.07828087 0.04240624 -0.00029413786 0.023505073 -0.071772344 -0.022275789 -0.078310706 -0.10165523
-0.031365905 -0.08337352 -0.03642118 0.025124075 -0.08265781 -0.03338181 0.034903158 0.05218976
0.03330572 0.039368067 -0.05897282 0.04250987 0.055535402 0.0050244527 -0.0633944 0.012367897
-0.02615621 -0.010775623 0.006600728 0.06770025 0.04952822 -0.03078899 -0.009021632 0.002377283
-0.012422641 0.07519097 0.015922211 -0.07541992 -0.04842635 0.09004338 0.037741866 -0.068158045
0.024813106 -0.06291816 -0.043992177 0.08506263 0.026361179 -0.040789478 -0.08039996 -0.062071383
-0.095220976 0.08148882 0.09118414 -0.08128349 0.09461975 0.035763055 -0.04252618 0.063419536
0.008941586 -0.040315416 0.09107024 -0.025373477 -0.030988848 0.085165456 0.0697836 0.0273918
0.09240917 -0.008020954 -0.065909 -0.029619306 0.07296532 0.059922058 -0.09309951 -0.0071642096
00000000: 9f78 48bd 3506 f2bc c519 d0bd c2c1 7c3d
00000010: 70e9 963d 4763 dcbc 0a9b 883d ace6 c93d
00000020: c2a0 823d 48a1 20bd ab54 97bd e456 4a3c
00000030: 63a7 793d f42b 713d e082 733d b705 6a3d
00000040: 865f cbbd 746d aebd 243c fcbc cf30 cc3d
00000050: 81e7 b53d e221 66bd 9e6e adbb 8497 83bb
00000060: a8f0 403d fe7a 15bd 5d90 22b9 95e2 d3bc
00000070: 88a7 99bd 2a4d 99bd e275 d43b 9865 a5bd
00000080: 09b6 44bd 48dc 7cbb c3ac 533c a9b4 5c3d
00000090: 4c53 ce3c 8f33 d73c 581f ee3a bf6e 623c
000000a0: f964 153d b01a bc3d eab4 c5bd a545 923c
000000b0: 5a80 5d3d 5f82 3cbd 68c4 9a3d 07fa a8bd
000000c0: b1da 47bc 0fe5 6b3c c857 b5bd e821 c8bd
000000d0: d346 393d a2bc d2bd 4f26 b7bd 6199 d03c
000000e0: 03a1 0b3d 06b7 c1bd fd6e 343b b8c1 9e3d
000000f0: 11a6 f53a d10e 87bd a6d8 083d 4850 dc3d
00000100: f1b6 81bd 504d c63d f5da 58bd 0ee5 383c
00000110: 47c2 6e3d ee85 303d 222c d53d c60f 03bd
00000120: dfc4 dc3d 1549 fc3c 628a 22bd da55 cb3a
00000130: c832 d53c ad95 40bd 6ea5 d93c 8a41 dcbc
00000140: 179a b43d da70 0fbd cff3 7a3c 96f2 9cbd
00000150: e1b5 c43d 4ca9 c53c a5c5 9a3d 9387 4e3d
00000160: ff2f 193c 6e53 123d cc9e e5bc 9aa2 4abb
00000170: 5d5a 0f3d a9ed 763d 0b85 f03c ef63 01bc
00000180: 8c56 543d 9e78 adbd b733 b23c a8a3 a13d
00000190: 9af2 44bd 8423 af3d 98a8 0dbd 498a c8bc
000001a0: ee4f 993d dd82 82bd e23c a5bb f4fe 12bd
000001b0: 68d4 6b3d c474 b5bd 5f49 d13c 8a76 d6bc
000001c0: d53a aa3d efd7 93bd 3dc8 e93d 96fd a03d
000001d0: 6953 b43d e8a7 203c a068 73bd a2cd b03c
000001e0: 088b 8bbd e3af 3d3d f3e0 fd3a 5735 12bd
000001f0: 09ef 2c3d 4f9c 44bc df93 49bc e2b9 75bd
00000200: 7fcd 333c 497a a7bc 51e8 693d 0673 a23c
00000210: a2cd 8b3d f483 a2bb d4a3 033d c86a fe3c
00000220: f084 5b3d 3b3e 42bd 50d8 f3bc bd80 62bd
00000230: 9ee7 823b 005a 2dbd 5b6d 833d 975c 7abc
00000240: a108 433c 28ce 9fbd b9c0 3c3d aaa8 a2bb
00000250: 84da 6ebc 4753 313d 7eb1 2b3b 9a54 acbc
00000260: c46b 3e3d c583 8bbd f916 853c 3266 b33d
00000270: 457e 833d bb0f 4fbd 74e8 b8bd 096e 8e3d
00000280: b741 30bd 3c06 f23d fc6e 143d 50e8 223a
00000290: d2a0 413b 77aa 7aba 5ecc d038 8c39 a6bd
000002a0: f9e8 873d eb2d a23d 06f1 c3bd 56f2 83bd
000002b0: aba1 c73d f460 243d 9f93 ac3d e580 00be
000002c0: 4c57 c03d 5d28 243d 9548 723d 2a0a 8dbd
000002d0: 774d 8a3a ba0b b8bb 436b edbb a365 30ba
000002e0: b951 a0bd 2ab2 2d3d 8436 9ab9 b68d c03c
000002f0: 61fd 92bd b77b b6bc 5d61 a0bd 9e30 d0bd
00000300: 8979 00bd bcbf aabd 602e 15bd 01d1 cd3c
00000310: 7f48 a9bd 5dbb 08bd 9df6 0e3d eec4 553d
00000320: 946b 083d 6940 213d 7c8d 71bd d41e 2e3d
00000330: 1779 633d 2aa4 a43b ecd4 81bd b8a2 4a3c
00000340: 8c45 d6bc 3d8c 30bc eb4a d83b 6ea6 8a3d
00000350: 1ade 4a3d 3139 fcbc 78cf 13bc 31cc 1b3b
00000360: 5588 4bbc b9fd 993d 4c6f 823c c275 9abd
00000370: b55a 46bd aa68 b83d 3797 1a3d 7296 8bbd
00000380: db44 cb3c 3cdb 80bd 2431 34bd 5135 ae3d
00000390: 66f3 d73c de12 27bd bca8 a4bd 903e 7ebd
000003a0: 3703 c3bd 9ce3 a63d c0be ba3d f577 a6bd
000003b0: 00c8 c13d 487c 123d ef2f 2ebd 1ae2 813d
000003c0: bb7f 123c c721 25bd 0983 ba3d 0adc cfbc
000003d0: 53dc fdbc 3a6b ae3d b4ea 8e3d c564 e03c
000003e0: 0541 bd3d 526a 03bc 4cfb 86bd 30a4 f2bc
000003f0: d76e 953d d570 753d f5aa bebd bfc1 eabb

residual_layers.0.conv2.bias f4 [32]
0.0052645095 0.021650866 -0.053601187 -0.06596084 0.03984942 -0.083692506 0.085682124 0.07394985
-0.09837923 -0.037208118 0.06961976 -0.02081072 -0.014467491 0.058289457 -0.038411323 0.018268077
-0.050778955 -0.016631171 0.027733782 -0.07427529 -0.002449801 -0.009947626 0.04162501 0.022445276
-0.009118091 -0.07380056 -0.09717911 -0.07282982 -0.014660311 0.022169914 -0.07665985 -0.04006528
00000000: e881 ac3b 285d b13c eb8c 5bbd 7a16 87bd
00000010: 2539 233d fa66 abbd 1c7a af3d 0573 973d
00000020: 0d7b c9bd 8a67 18bd ce94 8e3d 3e7b aabc
00000030: 0e09 6dbc edc0 6e3d 3155 1dbd efa6 953c
00000040: 98fd 4fbd 183e 88bc f531 e33c a51d 98bd
00000050: d78c 20bb 5efb 22bc fd7e 2a3d 28df b73c
00000060: 0c64 15bc bf24 97bd d705 c7bd cd27 95bd
00000070: cd31 70bc ae9d b53c d7ff 9cbd 7e1b 24bd

residual_layers.0.bn2.weight f4 [32]
0.9853747 0.97470576 0.9783339 0.99977875 0.97108966 1.0031222 0.9963683 1.0092413
1.00278 0.97576755 0.989638 0.9627095 1.0002142 0.9544902 0.9612547 0.97905666
0.98219806 0.9695475 0.9829857 0.98932904 0.992742 0.9736174 1.0163317 0.988456
0.9829717 0.99154764 0.97594166 0.99826145 0.99888796 0.9959279 0.978991 0.99930865
00000000: 8441 7c3f 5186 793f 1774 7a3f 80f1 7f3f
00000010: 5599 783f 4f66 803f fe11 7f3f d22e 813f
00000020: 185b 803f e7cb 793f ea58 7d3f 2174 763f
00000030: 0507 803f 7859 743f ca14 763f 75a3 7a3f
00000040: 5571 7b3f 4434 783f f3a4 7b3f ab44 7d3f
00000050: 5724 7e3f fd3e 793f 2817 823f 740b 7d3f
00000060: 09a4 7b3f 11d6 7d3f 50d7 793f 108e 7f3f
00000070: 1fb7 7f3f 21f5 7e3f 279f 7a3f b1d2 7f3f

residual_layers.0.bn2.bias f4 [32]
0.0057089212 -0.004829741 -0.015924131 -0.02517994 0.00039374366 -0.020482956 -0.0037831718 0.015528999
-0.0036964356 0.006244587 -0.012408094 0.009219362 0.0036524143 -0.00061626284 -0.017533645 -0.0034690802
0.031371906 0.007011571 0.034465075 -0.0066276444 0.0028451888 -0.0024299775 -0.03899075 -0.029209012
-0.047992527 0.0069288085 -0.022289166 0.0118366005 -0.008893238 0.005898994 -0.012807051 -0.026260851
00000000: e711 bb3b ce42 9ebb 5373 82bc 2946 cebc
00000010: 616f ce39 dfcb a7bc 17ef 77bb 586d 7e3c
00000020: e63f 72bb 649f cc3b 514b 4bbc cf0c 173c
00000030: 585d 6f3b b38c 21ba b8a2 8fbc 8259 63bb
00000040: d47f 003d 52c1 e53b 402b 0d3d b62c d9bb
00000050: 5976 3a3b 4240 1fbb c4b4 1fbd bd47 efbc
00000060: d093 44bd 0f0b e33b c597 b6bc 4dee 413c
00000070: f2b4 11bc 594c c13b aad4 51bc ff20 d7bc

residual_layers.0.bn2.running_mean f4 [32]
0.2065768 0.13722582 -0.09217746 -0.086053625 -0.31032422 -0.49483332 0.033664636 0.19200711
-0.23928495 -0.22144763 0.26108736 -0.3491599 0.021898832 0.26971132 -0.019870296 -0.36530355
-0.42955545 0.047031756 0.007235554 0.13159049 0.46941364 0.6283231 -0.03610004 0.23387538
0.29096267 -0.22630988 -0.39992085 -0.018566595 -0.097839065 0.4630464 0.7015475 -0.29940578
00000000: de88 533e ed84 0c3e 89c7 bcbd e23c b0bd
00000010: d1e2 9ebe cb5a fdbe eee3 093d 839d 443e
00000020: 1d07 75be 2bc3 62be 3ead 853e 16c5 b2be
00000030: 2e65 b33c 9a17 8a3e 08c7 a2bc 1109 bbbe
00000040: b1ee dbbe 5fa4 403d 3a18 ed3b a8bf 063e
00000050: fc56 f03e c8d9 203f a3dd 13bd 077d 6f3e
00000060: 0ff9 943e c7bd 67be 6dc2 ccbe f918 98bc
00000070: d95f c8bd 6b14 ed3e 9e98 333f b74b 99be

residual_layers.0.bn2.running_var f4 [32]
0.10608857 0.11949091 0.08764345 0.16650668 0.11855656 0.17503583 0.097068414 0.15942203
0.07306314 0.18055591 0.15534231 0.12258379 0.10575522 0.10455181 0.11123536 0.10447654
0.12239321 0.1223332 0.08086389 0.1645791 0.15828338 0.10210442 0.11760302 0.092721954
0.112583585 0.1522756 0.16166559 0.09464625 0.121547215 0.099885896 0.2448008 0.12007748
00000000: f744 d93d a6b7 f43d 697e b33d ba80 2a3e
00000010: c8cd f23d 983c 333e cecb c63d 873f 233e
00000020: 21a2 953d a6e3 383e 0e12 1f3e 360d fb3d
00000030: 3196 d83d 421f d63d 5dcf e33d ccf7 d53d
00000040: 4ba9 fa3d d489 fa3d f89b a53d 6c87 283e
00000050: 0a15 223e 1f1c d13d dad9 f03d 02e5 bd3d
00000060: 3992 e63d 23ee 1b3e aa8b 253e e5d5 c13d
00000070: bfed f83d fa90 cc3d 10ad 7a3e 2feb f53d

residual_layers.1.conv1.weight f4 [32, 32, 3]
-0.04129945 0.016587587 0.060390726 -0.10023143 -0.10143247 0.038794134 -0.021551888 -0.09717858
-0.073190704 -0.028273884 0.037112325 0.08063981 0.032183822 0.10461418 0.091295004 0.09833292
0.10290266 -0.08582921 -0.07824078 0.012115521 -0.015975384 0.09441926 -0.01951041 -0.09675283
0.09594183 0.11658442 0.042745613 0.075828604 0.09411769 -0.046591494 -0.08931463 0.010499114
-0.02321211 -0.027928866 0.077115215 -0.028063888 0.07537777 -0.012528688 -0.0071476977 -0.008692978
0.0055018035 -0.06490358 -0.07029206 0.014891941 -0.073365465 -0.055561744 0.024450429 0.028359542
0.014677437 0.012097618 -0.041753955 0.027428214 -0.063967004 -0.008268386 -0.09932955 0.03416188
-0.04349995 0.005281411 -0.055477243 -0.03158182 -0.04007393 0.007012889 0.018867362 -0.029006239
-0.009902959 0.0015248578 0.030483942 -0.027307833 0.03504602 0.026216539 -0.047794282 0.060802963
0.07852565 0.077436425 -0.090579286 0.034658846 0.0899195 0.06937815 0.07543003 -0.04806528
0.097920574 -0.016521228 0.027552683 -0.070630856 -0.030875694 0.04985666 0.07494527 -0.09275366
0.009785867 0.077398375 -0.06402157 0.026075076 -0.06969022 -0.020217074 -0.060959943 -0.061555214
0.051353708 -0.031976257 -0.059830096 -0.09436656 -0.05416247 0.005363347 0.04280581 -0.07705383
0.018808218 -0.047935523 0.056363083 0.037386205 -0.09251971 -0.09145531 0.10868608 -0.083752304
-0.049800854 -0.11468119 0.030196495 0.05283725 0.022432776 0.084506676 -0.10107744 -0.090589024
-0.08078003 0.0061221193 0.08626729 0.030640407 0.035575822 -0.0130148865 0.0034783476 0.07850099
-0.082413405 0.047543403 -0.05741074 0.034237362 -0.07262191 0.052282818 0.043974195 -0.027450612
0.008141839 0.019705223 -0.090501465 0.105323 -0.02183372 0.05681342 -0.04800842 -0.00802975
0.039187327 0.057410616 -0.09728436 -0.009231967 -0.06152058 -0.049831126 -0.056556825 0.021968015
0.016544815 0.07583656 -0.096483625 0.060719583 -0.083196804 0.052171923 -0.096370295 0.01248807
0.023922063 0.033799432 -0.099041596 -0.08365577 0.06530913 -0.09707644 0.008139153 0.101132825
-0.051939152 0.065130495 -0.051833868 0.036982343 -0.057433136 -0.048656832 0.0072133723 -0.021059196
0.08746943 0.079672076 -0.07982416 0.09694365 -0.0756013 0.071528964 0.042774852 -0.05566319
-0.024833115 -0.055857927 -0.056335993 -0.048092954 0.027607435 -0.038282286 -0.09191757 -0.0056164167
-0.060802758 0.074346475 0.04235618 0.12488906 0.06802335 -0.06578162 0.048683807 0.0522383
0.07201158 0.014061204 -0.0641945 0.06771241 0.09641778 -0.035401184 0.012431392 0.06920955
-0.027299188 -0.0014826444 0.024875432 0.08819776 0.070405945 -0.1099729 0.03564011 0.07872254
0.0690376 0.0022320778 -0.030659655 0.09676951 0.09071129 -0.09112985 -0.076075435 -0.08511127
-0.053038437 0.035531636 -0.03409119 -0.0027114064 0.05330629 -0.080116466 -0.037197173 0.022998797
-0.017008526 0.09568366 -0.08997677 -0.07599181 0.071661286 -0.07575683 0.057692457 0.013690887
0.06830163 0.091510735 0.032844074 -0.046989802 -0.08665158 0.009718102 -0.03396633 0.032532346
0.078436226 -0.0035910364 -0.0776969 -0.07623983 0.06423656 0.025942948 0.063310966 -0.103631884
00000000: 9d29 29bd b1e2 873c 445c 773d 2346 cdbd
00000010: d4bb cfbd 99e6 1e3d 968d b0bc 9005 c7bd
00000020: 02e5 95bd a29e e7bc 1803 183d 7c26 a53d
00000030: 2fd3 033d f63f d63d e0f8 ba3d c562 c93d
00000040: a1be d23d 3ac7 afbd b43c a0bd 2e80 463c
00000050: cfde 82bc e35e c13d 4cd4 9fbc 5926 c6bd
00000060: 267d c43d d0c3 ee3d 0616 2f3d 074c 9b3d
00000070: c7c0 c03d b9d6 3ebd 97ea b6bd 7a04 2c3c
00000080: 5327 bebc 14cb e4bc 95ee 9d3d 3de6 e5bc
00000090: a95f 9a3d 2045 4dbc 3c37 eabb fe6c 0ebc
000000a0: 7948 b43b 2bec 84bd 49f5 8fbd 54fd 733c
000000b0: a240 96bd b694 63bd 444c c83c 4552 e83c
000000c0: a279 703c 1635 463c 3206 2bbd 22b1 e03c
000000d0: 2201 83bd 2078 07bc 4b6d cbbd 54ed 0b3d
000000e0: 012d 32bd b00f ad3b 1b3c 63bd f05b 01bd
000000f0: 9024 24bd 60cc e53b ba8f 9a3c 7e9e edbc
00000100: 0540 22bc bddd c73a 76b9 f93c adb4 dfbc
00000110: 6a8c 0f3d 11c4 d63c f0c3 43bd 870c 793d
00000120: 0ed2 a03d fd96 9e3d a281 b9bd 6ff6 0d3d
00000130: b727 b83d 2216 8e3d 0f7b 9a3d 19e0 44bd
00000140: 958a c83d 8757 87bc 2ab6 e13c e9a6 90bd
00000150: 06ef fcbc 7f36 4c3d e87c 993d a2f5 bdbd
00000160: e754 203c 0a83 9e3d be1d 83bd 669b d53c
00000170: bfb9 8ebd 479e a5bc 22b1 79bd 5221 7cbd
00000180: 4458 523d 89f9 02bd 6710 75bd 4143 c1bd
00000190: 77d9 5dbd 04bf af3b 2555 2f3d 66ce 9dbd
000001a0: b113 9a3c 0a58 44bd fadc 663d 4722 193d
000001b0: f97a bdbd ec4c bbbd cf96 de3d 5486 abbd
000001c0: fbfb 4bbd f9dd eabd a45e f73c df6b 583d
000001d0: f1c4 b73c d611 ad3d b001 cfbd bd86 b9bd
000001e0: 0070 a5bd 0f9c c83b e8ac b03d 9701 fb3c
000001f0: f4b7 113d 643c 55bc fdf4 633b 21c5 a03d
00000200: 5cc8 a8bd dfbc 423d 8627 6bbd 7a3c 0c3d
00000210: ccba 94bd 8226 563d 491e 343d 1be0 e0bc
00000220: 5965 053c d96c a13c d558 b9bd 96b3 d73d
00000230: a1dc b2bc 30b5 683d 7aa4 44bd 368f 03bc
00000240: e482 203d 6527 6b3d 063d c7bd ad41 17bc
00000250: 01fd 7bbd b91b 4cbd 21a8 67bd 44f6 b33c
00000260: fe88 873c 3350 9b3d 3599 c5bd 19b5 783d
00000270: 1663 aabd 3ab2 553d ca5d c5bd c39a 4c3c
00000280: 34f8 c33c 4671 0a3d 52d6 cabd b753 abbd
00000290: cbc0 853d 03d0 c6bd 155a 053c ba1e cf3d
000002a0: 26be 54bd 2363 853d c04f 54bd cc7a 173d
000002b0: 023f 6bbd 634c 47bd 275e ec3b 5684 acbc
000002c0: 2c23 b33d 1d2b a33d d97a a3bd 648a c63d
000002d0: dbd4 9abd c77d 923d af34 2f3d 16ff 63bd
000002e0: d16e cbbc 48cb 64bd 92c0 66bd 1efd 44bd
000002f0: fd28 e23c e3cd 1cbd 473f bcbd eb09 b8bb
00000300: 500c 79bd f742 983d ac7d 2d3d d6c5 ff3d
00000310: d34f 8b3d 84b8 86bd ac68 473d d4f7 553d
00000320: cf7a 933d f760 663c 6878 83bd ceac 8a3d
00000330: af76 c53d d500 11bd 0aad 4b3c bdbd 8d3d
00000340: 8ca2 dfbc 4a55 c2ba 90c7 cb3c 07a1 b43d
00000350: fe30 903d 7939 e1bd 5dfb 113d 4839 a13d
00000360: 9663 8d3d 0d48 123b f529 fbbc 182f c63d
00000370: d7c6 b93d 49a2 babd 70cd 9bbd d14e aebd
00000380: d53e 59bd 9f89 113d 34a3 0bbd dab1 31bb
00000390: b257 5a3d 1a14 a4bd 105c 18bd f967 bc3c
000003a0: 7755 8bbc cbf5 c33d be45 b8bd 98a1 9bbd
000003b0: 27c3 923d 6626 9bbd ed4e 6c3d be4f 603c
000003c0: bae1 8b3d fb69 bb3d 8287 063d 6178 40bd
000003d0: 6276 b1bd ad38 1f3c 4720 0bbd a340 053d
000003e0: 2ca3 a03d 9857 6bbb 8d1f 9fbd a123 9cbd
000003f0: 758e 833d 4e86 d43c 2ea9 813d f43c d4bd

residual_layers.1.conv1.bias f4 [32]
0.091529936 0.03646961 0.016698575 0.04128446 0.07649727 0.0094351955 -0.023969365 -0.09789564
-0.05579619 -0.034994908 0.030199043 0.025453495 -0.06953418 -0.026923416 -0.06399215 0.041560985
-0.058755696 -0.005284824 0.101369575 -0.05363136 0.06938977 0.07724712 0.052471817 -0.081928365
-0.00013845858 0.092076056 0.034881234 -0.014321709 0.053637695 0.07863689 0.054207657 -0.09433961
00000000: 0c74 bb3d 2861 153d 73cb 883c e519 293d
00000010: 9aaa 9c3d 1496 1a3c 675b c4bc 827d c8bd
00000020: 8c8a 64bd d256 0fbd fc63 f73c d983 d03c
00000030: f067 8ebd 7f8e dcbc 510e 83bd da3b 2a3d
00000040: d0a9 70bd 512c adbb da9a cf3d 8fac 5bbd
00000050: 391c 8e3d bd33 9e3d b0ec 563d 0fca a7bd
00000060: 312f 11b9 5f92 bc3d a0df 0e3d 9aa5 6abc
00000070: 33b3 5b3d 610c a13d d908 5e3d 2035 c1bd

residual_layers.1.bn1.weight f4 [32]
1.009114 0.99524385 1.0016261 1.0183471 0.9934079 1.0079421 0.9975977 0.9923397
0.99662393 0.990972 0.9948857 1.0110513 1.0024672 1.0112178 1.0055742 0.999947
1.0048765 1.006903 1.0094428 1.0014012 0.98205423 1.0034189 0.98361033 0.98078346
0.994976 1.0003266 1.0053346 0.9922623 1.0063962 0.9989366 0.9991916 1.0088459
00000000: a62a 813f 4dc8 7e3f 4935 803f 3359 823f
00000010: fb4f 7e3f 3f04 813f 9062 7f3f f909 7e3f
00000020: bf22 7f3f 57b0 7d3f d4b0 7e3f 216a 813f
00000030: d850 803f 966f 813f a8b6 803f 87fc 7f3f
00000040: cb9f 803f 33e2 803f 6c35 813f ea2d 803f
00000050: e867 7b3f 0870 803f e3cd 7b3f a014 7b3f
00000060: bfb6 7e3f b40a 803f ceae 803f e704 7e3f
00000070: 97d1 803f 4fba 7f3f 05cb 7f3f dd21 813f

residual_layers.1.bn1.bias f4 [32]
-0.00024894337 0.021499382 -0.020901643 0.011429253 -0.0035832503 -0.0011171364 0.008348599 -0.0027535215
-0.0010900839 0.0063677602 0.023496144 -0.006342834 -0.0010660974 -0.017943524 -0.017231138 -0.017584447
-0.003521662 -0.007984663 -0.00868043 0.024117837 -0.016544662 -0.026134282 -0.04767657 -0.002842182
-0.0029486797 -0.010125191 -0.0018205817 0.0124833975 -0.0038037538 0.003629947 0.014002173 0.009700709
00000000: 9d84 82b9 791f b03c ec39 abbc c341 3b3c
00000010: f7d4 6abb e16c 92ba 90c8 083c 6d74 34bb
00000020: 25e1 8eba a5a8 d03b fc7a c03c 8cd7 cfbb
00000030: 4bbc 8bba 4cfe 92bc 5128 8dbc 420d 90bc
00000040: afcb 66bb 1bd2 02bc 5d38 0ebc c592 c53c
00000050: ac88 87bc 9017 d6bc 8248 43bd e743 3abb
00000060: a33e 41bb 21e4 25bc 96a0 eeba 2a87 4c3c
00000070: 6648 79bb 68e4 6d3b 5f69 653c b9ef 1e3c

residual_layers.1.bn1.running_mean f4 [32]
0.13474266 -0.5625571 0.6706885 0.004199698 0.04034716 0.33482146 -0.38750604 0.23141362
-0.05718824 0.5126317 0.48192888 0.27997157 -0.38558036 0.37607887 -0.11362291 -0.26106086
0.4737369 0.36744252 -0.5081964 -0.0264271 0.7519014 0.4448019 0.13509303 0.13981234
-0.08375546 -0.19149576 0.61797684 0.21468592 -0.078226686 -1.2121974 0.15913212 0.017429674
00000000: fbf9 093e be03 10bf 3eb2 2b3f 9f9d 893b
00000010: 1043 253d b86d ab3e 3167 c6be b1f7 6c3e
00000020: 373e 6abd d53b 033f 62bf f63e 6f58 8f3e
00000030: ca6a c5be 698d c03e 21b3 e8bd c5a9 85be
00000040: a58d f23e 6d21 bc3e 2919 02bf a57d d8bc
00000050: 9c7c 403f 13bd e33e d455 0a3e f72a 0f3e
00000060: fc87 abbd 7717 44be bb33 1e3f a0d6 5b3e
00000070: 5035 a0bd 4929 9bbf 88f3 223e adc8 8e3c

residual_layers.1.bn1.running_var f4 [32]
0.15830868 0.2864403 0.27345031 0.34945098 0.30861443 0.33756593 0.26910216 0.22536738
0.22403252 0.29102445 0.28676742 0.2382124 0.40236896 0.21345088 0.2787521 0.31238183
0.2535646 0.21224394 0.23708433 0.20733632 0.2698087 0.29430953 0.19205628 0.27314472
0.23185079 0.19931918 0.2016201 0.19445863 0.41999716 0.29720908 0.2375499 0.18873513
00000000: ac1b 223e 4ea8 923e ae01 8c3e 3deb b23e
00000010: b602 9e3e 71d5 ac3e c2c7 893e b5c6 663e
00000020: c868 653e 2801 953e 2ed3 923e f4ed 733e
00000030: 4e03 ce3e de92 5a3e 98b8 8e3e 83f0 9f3e
00000040: 38d3 813e 7a56 593e 3cc6 723e f94f 543e
00000050: 5e24 8a3e bdaf 963e 67aa 443e a0d9 8b3e
00000060: 4b6a 6d3e 541a 4c3e 8075 4e3e 2a20 473e
00000070: de09 d73e ca2b 983e 4840 733e c843 413e

residual_layers.1.conv2.weight f4 [32, 32, 3]
0.10115602 -0.07109847 0.013468747 -0.06780762 0.05466245 -0.05198484 -0.031579353 -0.022683747
0.037254106 0.0051198327 0.01724881 0.04420173 0.07050398 0.02678713 0.016280917 0.025928926
-0.08234778 -0.038356286 -0.03213363 0.060914695 -0.009305945 -0.03544285 -0.06508749 -0.040980007
-0.0030593264 -0.038265184 -0.018282058 -0.0795596 -0.06104848 0.042945325 -0.096117735 -0.066033125
0.11197935 0.03959619 0.009366119 0.10985221 -0.040344235 0.017016565 -0.10599947 -0.037903972
0.004883536 0.06254234 -0.025178563 0.042311173 -0.07943821 -0.07841893 -0.062188324 -0.0009162052
-0.00056745374 -0.0170915 -0.03859472 0.00020988693 0.06222446 0.06494958 0.021498293 -0.07566847
0.0516086 0.033789124 0.10614787 0.030397674 0.07559396 -0.07494447 0.019206323 -0.010242999
0.007988764 -0.014285491 -0.05724691 -0.055640075 0.01355223 -0.05832179 -0.045967273 0.035421334
0.060792983 -0.016870145 0.08463763 0.095962286 -0.086857565 -0.04844347 0.0056033027 0.07538626
-0.07732652 0.01643078 -0.02934573 -0.03922793 0.0296175 0.026581746 -0.062405948 0.09235172
-0.078521445 0.04645284 0.08144396 -0.024876326 -0.06320018 0.032555144 0.010552394 0.044683214
-0.007663562 -0.025560535 -0.08497935 -0.02903445 -0.046399422 -0.024289899 -0.013445011 0.039747402
-0.06472184 -0.019672982 -0.06728149 0.09349794 -0.05394703 -0.09033772 -0.08071604 0.0030776092
0.010040449 0.09895554 0.02774143 0.042380232 0.030427752 -0.09272004 0.077676944 0.014556782
-0.028696544 0.019916378 0.09508811 0.013976691 -0.11313665 -0.095485814 0.035149306 0.03269394
-0.0217736 0.09811931 0.057428483 0.03159955 0.03303616 0.11865382 0.03203794 0.019608056
-0.0007868996 0.055174597 -0.043155245 -0.08240771 -0.03082267 0.10234144 -0.07658644 -0.062651575
-0.013979875 -0.007950955 0.052303728 -0.012573142 -0.068920605 -0.0025586167 -0.05050366 0.020567464
-0.025804767 0.06562252 0.025836488 -0.02945519 -0.08033921 0.020663109 0.08520029 0.067941114
0.09266207 0.020603038 -0.103060946 -0.058092576 0.026545862 -0.028860852 0.007959251 0.0710756
-0.07064314 0.05205076 -0.0032827053 0.0815333 -0.015123891 -0.10588066 0.017983152 -0.06557227
0.07072713 0.092792004 -0.035613164 0.041523594 0.083307005 -0.10101463 -0.088309534 0.020525651
-0.0011828484 0.01520247 -0.0603744 0.09250094 -0.009507057 -0.016121708 -0.02816337 0.0042841523
-0.09629635 -0.024473196 0.02653527 -0.017918129 0.0758498 -0.036699954 -0.10177763 -0.11106379
-0.04678643 -0.029959543 -0.029364103 0.068400346 -0.100168146 -0.0011186422 0.07847796 -0.020449562
0.035425197 0.098259404 -0.05633664 0.0824893 0.08303946 0.083826326 0.08459409 -0.015112266
-0.06227435 0.07713856 0.0760671 0.08225514 0.043365162 -0.046511997 -0.0031476517 -0.0886228
0.06009328 0.030755319 0.05008692 -0.005474359 -0.077980585 -0.05604149 0.05052787 -0.045548156
0.07575334 -0.045075748 0.055763323 0.09384662 -0.038846344 -0.0452806 -0.08224985 -0.030005144
-0.09473039 -0.027350653 -0.092206255 -0.00816007 -0.029369839 -0.08377666 -0.019672213 -0.011433584
-0.004627794 -0.10227718 -0.061222713 0.042609256 -0.064626046 -0.058331385 0.016078504 -0.010208955
00000000: e32a cf3d 139c 91bd 05ac 5c3c b9de 8abd
00000010: bce5 5f3d 0eee 54bd 5a59 01bd 44d3 b9bc
00000020: c397 183d 45c4 a73b 604d 8d3c e00c 353d
00000030: 6464 903d af70 db3c 8f5f 853c e668 d43c
00000040: f4a5 a8bd 7b1b 1dbd 8e9e 03bd b081 793d
00000050: f677 18bc 862c 11bd 974c 85bd a7da 27bd
00000060: fb7e 48bb f4bb 1cbd 41c4 95bc 25f0 a2bd
00000070: f90d 7abd 70e7 2f3d 60d9 c4bd 603c 87bd
00000080: 6e55 e53d 9d2f 223d 5a74 193c 32fa e03d
00000090: ff3f 25bd 5366 8b3c 4016 d9bd 3241 1bbd
000000a0: 1206 a03b 3316 803d 4643 cebc 7b4e 2d3d
000000b0: 80b0 a2bd 1b9a a0bd 2fb9 7ebd 7d2d 70ba
000000c0: 2dc1 14ba 7903 8cbc 7f15 1ebd 1815 5c39
000000d0: 13df 7e3d 4904 853d 301d b03c 12f8 9abd
000000e0: 8a63 533d 7766 0a3d 0e64 d93d 8b04 f93c
000000f0: 02d1 9a3d 7c7c 99bd 9456 9d3c 40d2 27bc
00000100: 4ee3 023c b10d 6abc bc7b 6abd d9e6 63bd
00000110: 2c0a 5e3c d4e2 6ebd 2e48 3cbd f615 113d
00000120: 1002 793d 4233 8abc 7e56 ad3d e087 c43d
00000130: 61e2 b1bd a96c 46bd e99b b73b 1d64 9a3d
00000140: 5e5d 9ebd d899 863c 7566 f0bc 77ad 20bd
00000150: 66a0 f23c f6c1 d93c 619d 7fbd e622 bd3d
00000160: dacf a0bd 5545 3e3d 17cc a63d 70c9 cbbc
00000170: 196f 81bd 8b58 053d f3e3 2c3c bf05 373d
00000180: 9e1e fbbb 5464 d1bc a709 aebd a8d9 edbc
00000190: 520d 3ebd 9cfb c6bc 7748 5cbc 2cce 223d
000001a0: e28c 84bd 3c29 a1bc e1ca 89bd d97b bf3d
000001b0: 90f7 5cbd fc02 b9bd 744e a5bd b7b1 493b
000001c0: b280 243c 34a9 ca3d ff41 e33c e596 2d3d
000001d0: 9f43 f93c 01e4 bdbd 1715 9f3d 927f 6e3c
000001e0: 0415 ebbc ac27 a33c 8ebd c23d 7efe 643c
000001f0: 30b4 e7bd 118e c3bd b8f8 0f3d 15ea 053d
00000200: 8c5e b2bc c7f2 c83d 213a 6b3d 886e 013d
00000210: ed50 073d c600 f33d 373a 033d 13a1 a03c
00000220: f047 4eba c2fe 613d 8ec3 30bd 60c5 a8bd
00000230: d37f fcbc 6498 d13d 5ad9 9cbd 784f 80bd
00000240: d80b 65bc b944 02bc 6f3c 563d 94ff 4dbc
00000250: 3f26 8dbd 77ae 27bb eddc 4ebd 197d a83c
00000260: 8564 d3bc 1a65 863d 0ba7 d33c 034c f1bc
00000270: e288 a4bd ae45 a93c 7d7d ae3d b624 8b3d
00000280: 9dc5 bd3d b4c7 a83c 9e11 d3bd 7bf2 6dbd
00000290: b576 d93c 986d ecbc 8567 023c 1690 913d
000002a0: 5aad 90bd 2d33 553d a822 57bb eefa a63d
000002b0: 32ca 77bc f6d7 d8bd 6751 933c c14a 86bd
000002c0: 63d9 903d bc09 be3d 1cdf 11bd a514 2a3d
000002d0: dd9c aa3d c2e0 cebd a1db b4bd 6925 a83c
000002e0: ce09 9bba c813 793c 264b 77bd 2271 bd3d
000002f0: 7dc3 1bbc ac11 84bc deb6 e6bc 1362 8c3b
00000300: 0537 c5bd 037c c8bc 7f60 d93c 0ac9 92bc
00000310: 2457 9b3d b152 16bd ca70 d0bd 6a75 e3bd
00000320: 21a3 3fbd b76d f5bc fd8c f0bc 7b15 8c3d
00000330: f524 cdbd 679f 92ba 0db9 a03d d785 a7bc
00000340: 031a 113d 3a3c c93d 40c1 66bd 26f0 a83d
00000350: 9810 aa3d 23ad ab3d ab3f ad3d 7099 77bc
00000360: 6413 7fbd d2fa 9d3d 11c9 9b3d 6275 a83d
00000370: ab9f 313d 5d83 3ebd d548 4ebb df7f b5bd
00000380: 5f24 763d 94f2 fb3c f127 4d3d 4062 b3bb
00000390: 49b4 9fbd c38b 65bd 50f6 4e3d b490 3abd
000003a0: 9124 9b3d 59a1 38bd 1568 643d a832 c03d
000003b0: 581d 1fbd 2778 39bd 9c72 a8bd 59cd f5bc
000003c0: 0202 c2bd 7a0e e0bc a2d6 bcbd d0b1 05bc
000003d0: 0499 f0bc 1993 abbd 9f27 a1bc ed53 3bbc
000003e0: c0a4 97bb b376 d1bd abc4 7abd 0b87 2e3d
000003f0: a95a 84bd e4ec 6ebd 11b7 833c 7643 27bc

residual_layers.1.conv2.bias f4 [32]
-0.03181919 0.08085722 0.004524468 -0.036856666 0.0031929205 -0.0116069075 0.095526956 -0.06528551
0.09266687 0.068809316 0.09984761 0.07649591 0.049691807 -0.09293285 0.087199666 -0.01934018
0.09975979 -0.007585195 0.046674863 -0.08733888 0.06940203 -0.064279616 0.019483367 -0.034434184
0.08182619 -0.0049734735 -0.025392272 -0.011781673 -0.07006125 0.020367054 -0.013248063 -0.09304897
00000000: d754 02bd 7898 a53d fd41 943b 04f7 16bd
00000010: 5140 513b e62a 3ebc a3a3 c33d 69b4 85bd
00000020: 21c8 bd3d e6eb 8c3d e77c cc3d e3a9 9c3d
00000030: a389 4b3d 9453 bebd bd95 b23d 4c6f 9ebc
00000040: dc4e cc3d 3a8d f8bb 242e 3f3d bade b2bd
00000050: a722 8e3d 08a5 83bd 959b 9f3c dc0a 0dbd
00000060: 7d94 a73d 85f8 a2bb 7403 d0bc eb07 41bc
00000070: 467c 8fbd cfd8 a63c 670e 59bc 7590 bebd

residual_layers.1.bn2.weight f4 [32]
0.9875014 0.9572639 1.0049838 0.98665166 0.9920617 1.001969 1.0056115 1.0018814
1.002861 0.98612136 0.9633423 0.99012065 0.99150527 0.98854136 0.98744047 1.0077208
0.977916 0.98815316 0.9918865 0.98814565 1.0059055 0.9714577 0.9661983 0.96570843
1.0014358 0.9865769 1.0040278 0.9768364 0.9718232 0.9909988 0.9728685 0.9789849
00000000: e4cc 7c3f 3f0f 753f 4fa3 803f 3495 7c3f
00000010: c1f7 7d3f 8540 803f e1b7 803f a63d 803f
00000020: c05d 803f 7372 7c3f 9a9d 763f 8c78 7d3f
00000030: 4ad3 7d3f 0c11 7d3f e6c8 7c3f fffc 803f
00000040: b458 7a3f 9bf7 7c3f 46ec 7d3f 1df7 7c3f
00000050: 83c1 803f 74b1 783f c658 773f ab38 773f
00000060: 0c2f 803f 4e90 7c3f fc83 803f f311 7a3f
00000070: 68c9 783f 19b2 7d3f e90d 793f c19e 7a3f

residual_layers.1.bn2.bias f4 [32]
-0.013870832 -0.028894322 0.008470605 -0.017372789 -0.04133859 0.010368542 -0.010262119 0.007867258
-0.017723694 -0.022125265 -0.024735661 -0.036419563 0.008728097 -0.01717911 -0.0047863717 -0.005413917
-0.04462789 -0.004390885 -0.024787804 0.009398796 -0.014573834 -0.023954455 -0.013272335 -0.052935455
-0.040132284 -0.0049339775 -0.030151187 -0.004784158 -0.0041069454 -0.0134951295 -0.03744044 -0.011720251
00000000: 7c42 63bc c9b3 ecbc 4bc8 0a3c 6151 8ebc
00000010: a752 29bd d1e0 293c 7222 28bc ace5 003c
00000020: 4831 91bc 0b40 b5bc 71a2 cabc ae2c 15bd
00000030: 4b00 0f3c 34bb 8cbc ffd6 9cbb 3a67 b1bb
00000040: bccb 36bd 6ae1 8fbb cb0f cbbc 68fd 193c
00000050: 17c7 6ebc 223c c4bc 3574 59bc d9d2 58bd
00000060: c061 24bd 34ad a1bb 9fff f6bc 6dc4 9cbb
00000070: 8e93 86bb ad1a 5dbc 265b 19bd 4c06 40bc

residual_layers.1.bn2.running_mean f4 [32]
-0.095889494 0.074967735 -0.03442348 -0.081636645 0.43709484 -0.22338253 0.13793707 -0.028197506
0.009188769 0.12281059 0.26677176 0.13480866 0.055463776 -0.16913764 0.05531197 0.102971144
0.5113787 -0.20651853 0.105402306 -0.16351593 -0.018122457 -0.030684117 -0.0868345 -0.34427744
0.05151393 0.48062617 -0.27229026 0.06710041 -0.27877474 0.267105 0.008057763 0.17483771
00000000: b661 c4bd af88 993d a3ff 0cbd 1d31 a7bd
00000010: e5ca df3e 64be 64be 603f 0d3e 75fe e6bc
00000020: 7e8c 163c 1e84 fb3d 4f96 883e 480b 0a3e
00000030: fc2d 633d 6b32 2dbe ce8e 623d 89e2 d23d
00000040: b7e9 023f 9879 53be 2add d73d b870 27be
00000050: 8c75 94bc 425d fbbc 49d6 b1bd 2245 b0be
00000060: 4500 533d a214 f63e a169 8bbe f16b 893d
00000070: 90bb 8ebe fdc1 883e b504 043c a808 333e
