ckpts/SpliceAI_SSD/Brassica_juncea.pth (torch, 557423 bytes, 223 tensors)

conv1.weight f4 [32, 4, 3]
00000000: 278c 683d 6f4e 813e fe7a 303d 0952 7cbe
00000010: 6471 a23d 957a 36be c04a 413e d868 8cbe
00000020: c47f 0fbe 2c9f 3e3d 2b07 4abe 3dcb 693e
00000030: d6e1 203b 2d51 bbbd 156a 093e 78bf 3dbe
00000040: ebbf 9c3c d289 c93d 66bf b33d 8b8b 6fbe
00000050: c46b 10be 4036 0d3d ced6 d5bd 7ea1 283e
00000060: d111 283e 6b7e 823e cfb7 5abe 627e b83d
00000070: c57e 943e bc8e 8fbe 7cb0 1f3d 76f7 913c
00000080: ca60 74be b28a e73d 281f 25be e37b 823e
00000090: 6a59 0b3e bc6e 86be 1cac 84be 4740 7bbe
000000a0: 6a00 063d 2c4e 723e a583 523e 906e 8f3e
000000b0: 5feb 833e 5a9d 523e c21b 763e 865d 7dbe
000000c0: 4bb8 3e3e 7583 8d3e dc6e 5e3d 82d0 413e
000000d0: a7a3 44be c2bf 2c3d b1ed 12be 4ef8 2d3e
000000e0: 6d8e 493e 32e4 773d ad44 753e 32a6 523e
000000f0: 6a40 7b3c 10b8 ef3d 5cfe 48bc 14ef 873e
00000100: 9a74 8abe 52bc 0dbe 39a4 9e3d bcca 8ebd
00000110: b352 0bbe 1177 3fbe 4656 493e 76b2 c7bd
00000120: ac17 483e 6670 c73d f0a7 0f3e 1662 17be
00000130: 3efd 153e 78ac fbbd 451d 88be f7dc 8b3e
00000140: 5396 3dbd 542e f6bb 1fb3 a53d 1bf8 dbbd
00000150: 430f ec3d 2632 36be 5b87 2e3e b422 f83d
00000160: 36d4 1b3e 5462 26be f574 233c 4c67 16be
00000170: 1f65 7a3e 9ef4 d2ba 9e52 bfbd d4c1 d3bc
00000180: 61ac 99bb c3c0 7cbe c249 683e c8b2 b2bd
00000190: 8b6c ddbc a738 1e3e bf24 0cbe fcc5 7f3e
000001a0: b93b 093e 8087 90be 7e55 693e 1d30 493e
000001b0: 5e19 643e ca65 e93d 7e43 f7bd 7d92 bf3d
000001c0: deba 9bbc 78ff 77be 18db b2bd c4ec d53d
000001d0: a126 8f3e cc4b 273e d519 a6bd 046d 0d3e
000001e0: eceb 883d 568f a7bd f6a0 533e 1230 88be
000001f0: d732 91be dfb3 81be 9bf9 d73d 64bf 9cbd
00000200: ed05 2e3e 3da8 363e 6f11 86bd d56d 67be
00000210: 567c 0c3e 08a3 89be 9d35 9f3d 54e3 083d
00000220: f443 21bd f072 42bd d1be 19bd a706 4abe
00000230: 794f 243e e887 413e 7062 e13b c76b 8b3e
00000240: 32e9 6ebe 1c16 01be 83d7 2abe f300 92be
00000250: a803 913e e42e d2bd c706 c7bd 679e 693e
00000260: 4a68 e6bc fe0d 67be e727 f33d b510 27be
00000270: fe8d 793b a7d2 bcbd d441 453e f398 4dbe
00000280: 9894 663d b952 3fbe 6843 14be 3990 01bb
00000290: 05b5 9d3c 7cf4 b7bd d73e 3e3e a84c 85be
000002a0: e4b8 42be 2c17 593d 9290 943e 3684 5e3e
000002b0: 3d89 92bd 5b30 49be dfe1 753d d06f e7bd
000002c0: e2d5 623e 5bb9 803e 192d fa3d 4c37 edbd
000002d0: 8c50 91be 0c84 d6bd fabf 8ebe fc26 6abe
000002e0: 2b08 66bb 9818 f83d 8479 a33d 8fed 3dbe
000002f0: 072e 86be 2489 18be 50e0 ab3d f8fc aabd
00000300: 5b82 0c3d 8d3b 2e3e 8c5d 7b3e 87bb 0d3e
00000310: ef8b 8cbe 5df4 f2bd 71d5 d53c 1203 17be
00000320: 829d d93d 3da6 2bbe fd0c 90be 04f2 8ebd
00000330: 0ae3 67be 7215 89be 8757 993d 212e 42bd
00000340: 7298 363e dbb1 073e b479 b9bd 55b3 c33d
00000350: fe29 82be fdab 3dbd b102 0bbe 0c32 b1bd
00000360: dd78 02be 94fd 87bd 8832 643e 56b7 443e
00000370: da70 29be 0379 79be a111 8a3e 5016 083e
00000380: d3e6 87bd cb89 333e 7685 8a3e 0c3f 333d
00000390: bd4e dfbd e656 8dbe 0e3f 24be c4dd a33c
000003a0: c4ab 3f3e 074d 9a3b 6378 93bd 783b 3c3e
000003b0: e623 923d ce64 513e 12c9 91be 9998 7a3d
000003c0: 0b44 6dbe b3da e5bd 7ea9 423d 4ea2 363e
000003d0: fe7d 8a3e 3dea 843e ae3a e7bd 370f 133e
000003e0: 4b49 503d 37c9 223e 872e 95be e557 3ebd
000003f0: 4624 7fbe 5e69 7ebe 7a53 a7bd 6276 da3d
0.056774285 0.25255153 0.043086044 -0.24640669 0.07931784 -0.17820199 0.18876171 -0.2742374
-0.14013582 0.046538517 -0.19729297 0.22831436 0.0024548671 -0.091463424 0.13419373 -0.18530071
0.019134482 0.0984074 0.08776741 -0.23393075 -0.1410361 0.034475565 -0.10441361 0.16467854
0.16413046 0.25487074 -0.2135918 0.090084806 0.29002967 -0.28038585 0.038986668 0.017818194
-0.23865047 0.11305751 -0.16125166 0.25485143 0.13608328 -0.2625636 -0.2591256 -0.24536239
0.03271524 0.23662633 0.20558031 0.2801404 0.2576551 0.20567837 0.24034026 -0.24742708
0.1862499 0.27639356 0.054304942 0.18927196 -0.19203053 0.042175062 -0.14348485 0.16989252
0.19683237 0.06052036 0.23951979 0.20571211 0.015335182 0.11705029 -0.012267675 0.2654959
-0.27042085 -0.1384137 0.07746167 -0.06972262 -0.13605766 -0.18697764 0.19661817 -0.097508356
0.1954028 0.09738235 0.14028907 -0.1478351 0.14647385 -0.12288755 -0.2658483 0.2731702
-0.04628594 -0.007512847 0.08090805 -0.10740682 0.115263484 -0.17792568 0.17043822 0.12115994
0.15217671 -0.16248447 0.009976615 -0.14687842 0.24452637 -0.001609463 -0.0934193 -0.02584926
-0.0046897386 -0.24682908 0.22684386 -0.08725506 -0.027029296 0.15451299 -0.13685893 0.24977869
0.13401689 -0.28228378 0.22786519 0.1964726 0.22275302 0.11396368 -0.1207342 0.09354112
-0.019010004 -0.24218547 -0.08733195 0.1044555 0.2795916 0.16337508 -0.08110396 0.13811117
0.066856235 -0.08181636 0.2066687 -0.26599175 -0.283591 -0.25332543 0.10545655 -0.07653692
0.16994448 0.17837615 -0.06546294 -0.22600491 0.13719305 -0.26882195 0.07773898 0.033419922
-0.039371446 -0.047472894 -0.037535492 -0.197291 0.16045941 0.188995 0.0068781897 0.27230665
-0.23331144 -0.1260609 -0.16683774 -0.2851635 0.28323102 -0.1026285 -0.097180896 0.22814332
-0.0281259 -0.22563931 0.11872845 -0.16314967 0.0038079019 -0.09219866 0.19263393 -0.20077877
0.056294054 -0.186839 -0.14478838 -0.0019769801 0.019251356 -0.089821786 0.18578659 -0.26035047
-0.19015843 0.053000614 0.29016548 0.21730122 -0.071550824 -0.19647352 0.06002986 -0.113006234
0.22151902 0.25141415 0.12215633 -0.11582813 -0.28381765 -0.10474405 -0.27880841 -0.22866434
-0.0035100083 0.12114066 0.07982162 -0.18547653 -0.2620699 -0.14896065 0.083923936 -0.08349031
0.034304004 0.17014904 0.24547404 0.13841067 -0.2745051 -0.11863015 0.026102753 -0.14747265
0.10625745 -0.16762634 -0.2813491 -0.069797546 -0.22645202 -0.26774174 0.07487398 -0.047407273
0.17831591 0.1325144 -0.09056416 0.09555689 -0.25422662 -0.0463066 -0.13575245 -0.08652124
-0.12741418 -0.06640163 0.22284901 0.19210562 -0.16546956 -0.24362569 0.26966575 0.13289762
-0.06635823 0.17533033 0.27054948 0.043761298 -0.1090369 -0.2760536 -0.16039678 0.020003207
0.18717867 0.0047088894 -0.07200696 0.1838206 0.07135753 0.2044861 -0.28473717 0.061180685
-0.23170488 -0.11223354 0.04752492 0.17835352 0.2704925 0.2595996 -0.11290489 0.14361273
0.050851148 0.1589707 -0.2913706 -0.04647054 -0.24916181 -0.24844882 -0.08170219 0.10667111

conv1.bias f4 [32]
00000000: 721b 40be c14b 8abc 4a8d 613e 8eb7 8abe
00000010: 27a6 653e b90d 163e 78da 62be d99e 3ebe
00000020: 6e28 5a3e 3cb6 5f3e ec5a 843c fc0d 1cbb
00000030: aa87 32be 513a 5dbe 038a 213e 13a6 5e3e
00000040: 03cd 8d3e 522c b4bc fdbd 27be a570 a0bc
00000050: 62da 06bc 1906 7abd bf71 a33c 7a80 6fbd
00000060: e12a 3c3e f063 a4bd fe6b f03b faee 203d
00000070: f53a 54bd b82e 0b3c 1483 ccbd b6eb 99be
-0.1876047 -0.016881825 0.22026554 -0.27093166 0.22426663 0.14653672 -0.22153652 -0.18615283
0.21304485 0.2184686 0.016156636 -0.0023812046 -0.17434564 -0.21604277 0.15775304 0.2174304
0.27695474 -0.02199379 -0.16381069 -0.019584963 -0.008230777 -0.06104097 0.0199517 -0.058472134
0.18375732 -0.08026874 0.0073370924 0.039290406 -0.05181404 0.008495025 -0.09985939 -0.30062646

bn.weight f4 [32]
00000000: 5d76 7f3f be06 803f ffa9 803f d1dd 803f
00000010: 47fd 7e3f 4216 803f b9bf 803f 54be 7d3f
00000020: 313f 803f 6e17 803f 6cd5 7e3f 3544 803f
00000030: bda2 7e3f c2e3 7e3f f6d1 803f 289a 803f
00000040: 8c2d 7f3f 210f 7e3f 79a1 7f3f e710 803f
00000050: f478 7f3f cb20 7f3f cf7d 7f3f 306d 803f
00000060: abe1 7d3f 2ec0 7f3f 0ae9 803f d742 7f3f
00000070: 48d3 803f c430 803f 0f32 7f3f ad82 7e3f
0.99789983 1.0002058 1.0051879 1.0067693 0.9960522 1.0006793 1.0058509 0.9911854
1.0019284 1.000715 0.99544406 1.0020815 0.9946707 0.9956628 1.0064075 1.0047045
0.99678874 0.99241835 0.9985576 1.0005158 0.99793935 0.99659413 0.99801344 1.0033321
0.99172467 0.9990262 1.0071118 0.99711365 1.0064478 1.0014882 0.9968576 0.99418145

bn.bias f4 [32]
00000000: 7b0b d6ba f9d9 053a d9ac 23bc 03e8 15bb
00000010: 623a 8039 74c5 ecbb 7790 383c bb62 89ba
00000020: 1225 8f39 bc46 3c3b ada8 653b 4419 9b3b
00000030: d5a9 93bb cdf6 12bc ae19 1839 527c 8fbc
00000040: 32af 5d3c 1335 68ba 5a1d 7ebc 3e50 4dbb
00000050: dce0 0ebc ce13 39bc 7a77 fcbb a864 143b
00000060: 077c 2fbc 0199 d03a ce60 a7bb a1fc d6bb
00000070: 350d 5cbb 0395 5bbc a3fa 52bc 4166 71bc
-0.0016330326 0.0005106028 -0.009989941 -0.0022873885 0.0002445756 -0.0072256867 0.011264912 -0.0010481694
0.00027302705 0.0028728684 0.0035043166 0.0047332365 -0.0045063295 -0.008969975 0.00014505416 -0.017515335
0.013530539 -0.00088580063 -0.015509928 -0.0031328346 -0.008720603 -0.011296226 -0.0077046724 0.0022643004
-0.010710723 0.0015914739 -0.0051079756 -0.0065608774 -0.0033577208 -0.013402226 -0.012877139 -0.014733852

bn.running_mean f4 [32]
00000000: c50d 21be 2f28 1bbd 5dd2 ab3e 7d52 42be
00000010: b15a 183f a582 da3d 77a9 00be 5087 19be
00000020: 8ff5 9a3e 0d2c c23e 1927 93bd e52f d63d
00000030: 9744 dabe fcbe a3be 190f 9e3e 0c29 03be
00000040: ab65 523e 1260 71be ff89 aa3c d20d 00be
00000050: 28b7 3ebc a60b e7be 87e3 8bbe 3a95 213e
00000060: 769d 963e c44d ccbd f1ce 083c 6da8 793d
00000070: aa9d 45be 6c54 31bd e546 b7bd 48b5 eabe
-0.15727909 -0.03788012 0.33558932 -0.1897678 0.59513384 0.1066945 -0.12564646 -0.14993024
0.3026547 0.37924233 -0.07185192 0.10458354 -0.42630455 -0.31981647 0.30870894 -0.12808627
0.20546596 -0.23571804 0.020817755 -0.12505272 -0.011640348 -0.45126075 -0.27322027 0.15779582
0.29417008 -0.0997577 0.00835012 0.06095164 -0.19298425 -0.0432934 -0.08949069 -0.45841432

bn.running_var f4 [32]
00000000: 3dcd b83d 7099 d63c 48e9 b23d 4dbd 133e
00000010: 2a18 4e3d f96c 6d3d 2149 483d a35b 163d
00000020: 263c 5f3d 26f1 573d 5173 9f3d ae92 163d
00000030: 5b76 003d 3361 513d d289 a83d e954 523d
00000040: c90b ae3d b580 6a3d 7f97 a03d 5728 a23d
00000050: 33b3 b43d 4dc4 743d 9881 673c fa38 ef3d
00000060: e73d 9e3d fb0f ed3c 8283 083d af03 f83c
00000070: f6fc 813d 8bb9 db3c 8805 293d 759f 743d
0.09023521 0.026196212 0.08735901 0.14427681 0.050316013 0.057965253 0.048897866 0.036708485
0.05450072 0.05272021 0.07785667 0.03676098 0.031362873 0.051118087 0.08229412 0.051350508
0.084983416 0.05725165 0.078413956 0.079178505 0.08823242 0.05975752 0.014130019 0.11680789
0.07726651 0.028938284 0.03332854 0.030275194 0.063470766 0.026821872 0.04126504 0.059722383

residual_layers.0.conv1.weight f4 [32, 32, 3]
00000000: b73b 19bd 169e 453d 11fa 853d 3cc0 8a3d
00000010: d25c b8bd 60b3 ac3d 4fdf 3b3d 9642 7bbd
00000020: bb3c b83d c639 7fbd 30c4 18bd 9048 62bd
00000030: 9a6f bebd ee65 d0bd 9726 af3d 1169 7e3d
00000040: 8db9 343d 7eb0 4abd 1d4c 88bd d574 9b3c
00000050: 9356 cd3d 1590 3dbd bee9 5e3d 3139 c9bc
00000060: e88a d43c 7376 d03c 36eb c8bc 61bc 05bd
00000070: 6af7 a0bd 403b 603d a4f5 1cbd 614e b53d
00000080: 299d 9fbd 81ed babd a3bb b03c 6d3e e43c
00000090: e070 4a3c 222a 9fbd d623 ae3b b0d4 b2bd
000000a0: e228 84bd 5466 9c3d 840c 633b 1a73 a0bb
000000b0: 7294 d83d db55 49bb 00c9 ca3d 7477 56bd
000000c0: 3dad b7bc bf8c 003d 697d e13c 3ffb b53d
000000d0: d1d7 25bd 36b1 a33d 6196 59bd 291f b63d
000000e0: d3a1 dcbc 64e8 48bd ceca 4b3d 4eeb 87bd
000000f0: cfe2 a5bd ecf4 babd 2b01 bdbd c1f2 41b9
00000100: 197f 9e3d 6650 6cbd de70 cfbc 4e92 dfbd
00000110: 6d9b cb3d e10e 0fbd d740 85bc 5f3c cf3c
00000120: 6a96 bf3c f4a3 cfbc a084 0ebd f3bf f1bc
00000130: d48e 993c b88c 343d e329 473d 39ab 303d
00000140: cfd8 3d3c b566 8ebd f925 053d fe3c ccbc
00000150: ecfb c83d 99a4 c8bd 87ce bcbd 2839 c43d
00000160: fd23 82bd 4533 0f3d 1965 c03d adbd 3dbd
00000170: 75ab 433d f4c0 a33d 1eef 433d 9db7 293d
00000180: cedb 763d fe59 823d fff9 87bb f2cb bdbd
00000190: 882a b23d b3b8 91bd ac54 82bd be43 85bd
000001a0: b924 683d d031 143d 7d25 f7bc cf8c abbd
000001b0: 95ed 193d 344b b53d facd 9f3d 099f 98bd
000001c0: 7fed 79bd a16e a13d ebf4 b7bc 5503 a4bd
000001d0: 2cd9 64bc 269e bdbd ef06 973d 1255 523d
000001e0: 59cd a1bd 7914 9abd 7aaf 993d b2e7 e1bc
000001f0: 4368 443b fc2a 25bc 3a56 80bb 6e24 793d
00000200: 8522 3d3c a785 90bd cff4 253c ded9 c23d
00000210: e459 97bd 2063 6e3d 261d 703d 952e 123d
00000220: 90ec de3c 2671 013d a01f 873d 88a3 133d
00000230: 5de4 bb3d 90e3 e03c 84ea 0b3a a0aa ee3b
00000240: 67ec 8fbc b925 9c3c b092 ae3d 0622 cf3c
00000250: 895f a2bd d77a 1abd 775a 60bc c4be 16bc
00000260: 7b17 a4bd 5494 d5bd 5450 adbd cf61 92bd
00000270: b3ba a3bd 670b 293d 678b e23c 8f6b 2bbd
00000280: 3fd2 963d 1ff8 703c af75 c6bd 2c05 d13c
00000290: 197b ce3d 1213 343d df55 263c 7750 ac3d
000002a0: 6d96 46bd f984 0dbd 5ee4 053d 48db 7cbd
000002b0: 7f9f 343c 16b9 1b3d 2858 9d3d 811f b23d
000002c0: 5139 b83d 45d1 10bd d717 63bc 9cd9 aa3d
000002d0: 7bcb 673d 2876 3fbd cc23 9e3d 469c 463d
000002e0: e7a3 a3bd af02 8bbd 3cac a1bd fc2a 56bd
000002f0: e6dd 923d 17f1 24bd a8b1 0bbd 436b 953d
00000300: 10e3 8e3d df08 61bc 27f6 b2bc a1f1 95bc
00000310: 25e5 45bd cf47 8bbd 5027 94bc d797 2a3d
00000320: 24de 2fba a02b 5d3d 3322 a7bc 2c9d a83d
00000330: 8e15 6dbd 221d 073d c837 1d3c ef0d 83bc
00000340: b8ed 03bc 15db 2f3d f1fb ba3d 9d5a b8bd
00000350: 71e3 893c d26c c43d a2e2 2a3d 5807 bd3d
00000360: 7053 74bd 1e7c cebd 1294 f1bc f17d 553c
00000370: 18a6 b33c 2301 b33c 2773 63bc 8498 41bc
00000380: 63d9 89bd fb54 20bd 4ca1 0ebd 506c bcbd
00000390: 7527 a83d 4ef7 1d3d c40d e8bb 13a3 153c
000003a0: d73b 213d 8c5e be3d 7482 1ebd 09ea 7abc
000003b0: 5971 a13d e1b9 f6bc 6cb5 c83d 0351 9abd
000003c0: 51d4 a63d 279d 6ebd caba 2abd 1260 523d
000003d0: 8cfd 023d 44a5 6c3d 9aa5 523d 4466 0a3d
000003e0: 6c28 c6bd bf5a b23d ce7e 30bd d19e 3dbd
000003f0: 558e 9c3d e7f1 82bc 03f2 df3c 5c74 183b
-0.037410464 0.048246466 0.06541837 0.06774947 -0.09002079 0.084326506 0.04586726 -0.0613428
0.089959584 -0.062310956 -0.037296474 -0.055244982 -0.0929863 -0.101756915 0.08552282 0.062111918
0.044122268 -0.049484722 -0.066551425 0.018976608 0.10026278 -0.046279985 0.054422133 -0.024563404
0.025945142 0.025447106 -0.02452622 -0.032650355 -0.078596905 0.054744005 -0.0383202 0.0885284
-0.07793648 -0.091273315 0.021573847 0.027861798 0.012356013 -0.07771708 0.0053143306 -0.08731973
-0.0645311 0.07636705 0.003464491 -0.0048965337 0.10575189 -0.003072134 0.09901619 -0.052360013
-0.022421474 0.031384226 0.02752562 0.08885812 -0.04048902 0.07992785 -0.053121928 0.08892662
-0.026932633 -0.04904975 0.049753956 -0.06636678 -0.08099901 -0.091287464 -0.092287384 -0.00018496347
0.07739086 -0.05769386 -0.025322374 -0.10916577 0.099417545 -0.0349263 -0.01626627 0.025297342
0.023387153 -0.025346734 -0.03479445 -0.029510474 0.018744864 0.044079512 0.04862393 0.04313204
0.011587336 -0.069531836 0.032506917 -0.024931427 0.09813675 -0.097970195 -0.092190795 0.09581214
-0.063545205 0.034961004 0.09394283 -0.046323467 0.047770936 0.07995787 0.04783546 0.041434873
0.060268216 0.06364821 -0.004149675 -0.09267415 0.086995184 -0.07115307 -0.06363806 -0.065070614
0.056675646 0.036180317 -0.030169243 -0.083764665 0.03758009 0.088522345 0.07802959 -0.074522085
-0.06101751 0.07882429 -0.022455653 -0.08008448 -0.013967793 -0.0925868 0.07374369 0.05135066
-0.07900495 -0.07523436 0.075041726 -0.027576301 0.0029969371 -0.010081049 -0.003916529 0.060825758
0.011543875 -0.07056742 0.010129168 0.09514211 -0.07390192 0.0582 0.058621548 0.035688955
0.027212411 0.031602047 0.06597829 0.036044627 0.09174416 0.02745226 0.0005337375 0.0072835237
-0.01756878 0.019060956 0.08524072 0.025284778 -0.07928378 -0.037714805 -0.0136934435 -0.0092007555
-0.08012291 -0.10428682 -0.08462587 -0.07147562 -0.079945944 0.04127064 0.027654363 -0.041850623
0.0736432 0.014707594 -0.09690415 0.025515161 0.10082073 0.0439635 0.010152309 0.08413785
-0.0484833 -0.03455064 0.03268849 -0.06173256 0.011024355 0.03801831 0.0768283 0.08697415
0.08995307 -0.035355825 -0.013860664 0.08342287 0.05659054 -0.046743542 0.077216715 0.048488878
-0.07990246 -0.06787621 -0.07894179 -0.052287087 0.0717123 -0.040268984 -0.034104973 0.07295849
0.069769025 -0.013735025 -0.02184589 -0.018303694 -0.048314232 -0.06800806 -0.018085152 0.041648712
-0.0006708822 0.053996682 -0.02040205 0.08233103 -0.057881884 0.032986768 0.009595819 -0.015997855
-0.008052282 0.042933542 0.09130085 -0.09001658 0.016832085 0.09591068 0.04172004 0.09229916
-0.059649885 -0.10082267 -0.02948955 0.013030515 0.021929786 0.021851128 -0.013882435 -0.011816148
-0.06730916 -0.039143544 -0.034821793 -0.092003465 0.08210651 0.038565926 -0.007081719 0.009133118
0.03936371 0.09295377 -0.03869863 -0.015314587 0.078829475 -0.03011793 0.098002285 -0.07534983
0.08145965 -0.05825534 -0.041682042 0.05136115 0.031980082 0.057774797 0.05142746 0.033788934
-0.096756786 0.08708715 -0.04308968 -0.046294037 0.07644335 -0.015984489 0.02733708 0.0023262715

residual_layers.0.conv1.bias f4 [32]
00000000: 403c a2bd b120 62bc 9776 f33c 633e d0bd
00000010: d76e b8bd da62 b53d 39a0 bbbc 6715 51bc
00000020: ad6f 89bd 02dc a63d 4baf 66bd 00b8 1b3d
00000030: 04c2 44bd d414 b03d af73 403d e083 023d
00000040: 136e 4e3c eff0 c6bb 36d4 093d b509 a73c
00000050: 172c 53bc fb47 393d 7dba c3bd 9bf1 d0bc
00000060: ec65 1b3d 0f49 75bc 4a5a 3dbd cbff c13b
00000070: 9627 26bd fe11 fe3b d315 10bc 01fb 9d3c
-0.07921648 -0.01380174 0.029719634 -0.10168149 -0.09005516 0.08856745 -0.022903549 -0.01276145
-0.067107536 0.08147432 -0.056319516 0.038017273 -0.04803659 0.08597723 0.046985324 0.031864047
0.012599486 -0.006071202 0.033649646 0.02039037 -0.01288893 0.04523466 -0.09557054 -0.025505831
0.037938997 -0.014971032 -0.046228684 0.0059203855 -0.040565096 0.0077536097 -0.008794266 0.019284727

residual_layers.0.bn1.weight f4 [32]
00000000: 9301 803f b31d 803f 647d 7e3f 6d9a 803f
00000010: 1628 803f 37e4 7f3f 3bf3 7f3f 4a2c 7d3f
00000020: 818b 7f3f 550a 7f3f 0b4a 803f 9306 803f
00000030: 7115 7f3f 2d91 803f 2698 803f d63f 813f
00000040: d607 803f 690e 803f 6ba8 803f dfa1 7f3f
00000050: c97c 7f3f 31d2 7f3f 0ba5 803f e81b 803f
00000060: da37 803f dd47 7f3f ec2a 803f 640c 813f
00000070: 1acd 803f 78dc 7e3f f54e 7f3f e5bb 7d3f
1.000048 1.0009063 0.9941008 1.0047127 1.0012233 0.99957603 0.99980515 0.98895705
0.9982224 0.9962514 1.0022596 1.0002006 0.9964209 1.0044304 1.0046432 1.0097606
1.0002391 1.0004398 1.0051397 0.9985637 0.9979978 0.999301 1.0050367 1.0008516
1.0017045 0.9971903 1.0013099 1.0081906 1.0062592 0.9955516 0.99729854 0.9911483

residual_layers.0.bn1.bias f4 [32]
00000000: cc49 12ba 69d9 633a 01db 0dba e7a2 5ebb
00000010: 60f9 0a3c d9ff e3bb f00b 88ba 0b26 cabb
00000020: e431 c7bb 067c 71b9 b6cc a0bb 8fa4 f63b
00000030: e990 ed3c d7b4 bb3b a9fe e33b 46b9 29bc
00000040: eb16 b73b b33c ed3b b54f 803b bfb7 4abc
00000050: 11b0 71bc d711 2bbc 292f ba3b fb7b 4a3c
00000060: 6a96 01bc c784 bebb 4a7d 603c 2dea 27bb
00000070: 0e64 2a3b 811d e1bb e965 50ba 7801 a6bb
-0.00055804546 0.00086917594 -0.0005411357 -0.003397161 0.008482307 -0.0069579897 -0.0010379534 -0.006169086
-0.0060789455 -0.00023029753 -0.004907216 0.007526941 0.028999763 0.005728345 0.006957848 -0.010359114
0.005587449 0.007239902 0.003915752 -0.01237291 -0.01475145 -0.010441265 0.0056818915 0.012358661
-0.007909397 -0.005814168 0.013701746 -0.0025621757 0.0025999579 -0.006869972 -0.0007949756 -0.005066093

residual_layers.0.bn1.running_mean f4 [32]
00000000: 2f76 8cbd 87a8 dd3d 1a97 f63d d644 81be
00000010: a3ab 4dbe 55e4 653d a13e 5f3c 338a bc3d
00000020: b856 ad3e ab9c c2bc f7a8 c53b 94a5 9ebe
00000030: 7791 a6bd 651b 223e d2da 203e 8e62 283e
00000040: ced0 06bd ce7e 2e3e 667f 0c3f 5d9b 89be
00000050: b1c9 983e 93d6 b7be 4e8c 903d 94ca 61be
00000060: 2399 143c dd6c 13bc 059d 7b3d 5006 543e
00000070: b395 17bc ce25 103d 7d01 b43d eabc 5e3e
-0.06858479 0.1082316 0.12040539 -0.2524783 -0.20085005 0.056125958 0.013625772 0.09206047
0.33855224 -0.023756346 0.006032105 -0.309857 -0.08133214 0.15830763 0.15708473 0.16443846
-0.032913975 0.1704056 0.54881895 -0.26876345 0.29841378 -0.35905895 0.07058011 -0.22049934
0.009069714 -0.008998123 0.061429042 0.20705533 -0.009252 0.035192303 0.08789346 0.21751752

residual_layers.0.bn1.running_var f4 [32]
00000000: 2554 113e d40e 093e 768e 1e3e d321 2b3e
00000010: 77bb 783d f70a 353e 78e9 e33d 2658 b83d
00000020: 80df 983d dbab 2c3e 3570 d93d a986 c63d
00000030: 715d 073e 0943 233e 851b df3d d7ac da3d
00000040: ab20 e83d 8bed f63d 7a52 e23d 6434 563e
00000050: 2b21 1b3e 3c8d 083e ce5f bb3d 8d32 cd3d
00000060: 14e2 1e3e b286 d03d 11f0 e33d 1786 ec3d
00000070: 1bc3 e43d 100e e63d 16f4 233e 8199 093e
0.14192255 0.13384563 0.15484032 0.16712122 0.060725655 0.17679964 0.11128515 0.09001188
0.07464504 0.16862433 0.10617105 0.09693653 0.13219239 0.1594354 0.10893921 0.10677498
0.11334356 0.120570265 0.110508874 0.20918423 0.15149371 0.13335127 0.09149133 0.100194074
0.1551593 0.10181941 0.111297734 0.11549013 0.11170026 0.11233151 0.1601108 0.13437463

residual_layers.0.conv2.weight f4 [32, 32, 3]
00000000: 0482 33bb c3d9 6fbc bbc3 32bc acd0 e43c
00000010: 3054 1c3d 78a8 a0bc 1361 583d df47 73bd
00000020: b715 a9bb 8b11 c23d 918a bbba ebc3 a5bd
00000030: e986 4cbd dc70 01bd c366 3d3d 8e9f 1bbc
00000040: 18ce 3abd ce61 aebd 6955 513d 3864 adbd
00000050: bc8c e7bc 17a3 a23c 7e7a 2d3d 3342 c4bd
00000060: 7eef 213d 41ed 333d 5b4d 8cbd 9c58 493d
00000070: 02fa 913d dd17 b43d 7a22 ba3d abb5 0fbd
00000080: f364 6bbd 6692 d03d 0044 023b 3ff3 b93d
00000090: f269 893d a98a 30bd 21a8 193d 8b92 c0bd
000000a0: 6f3f c6bd c1ea 09bd 15fc c8bd 432e 443d
000000b0: 2ff2 083c b8e2 993d a856 11bd 518b d8bc
000000c0: 060b 4c3c c8aa 4d3d 2e57 a5bd 5519 c0bd
000000d0: 94be 1dbd 078c a1bd acd0 9cbc 4c92 48bb
000000e0: fa68 c5bd 8a0d 11bd 1460 99bd 2fc4 85bd
000000f0: 9614 f63c f8af 243a 9db7 8b3d 59eb c13d
00000100: 9125 863c 1edd adbd 0353 ad3d ecd9 b53d
00000110: 3b0b dbbd 4a4f 72bc 294d 403d 5276 a8bc
00000120: 5269 6ebd c4da 9a3d cbc2 0ebc 7ef8 d3bd
00000130: 0b6e a03d bf0a d43d c45b 7e3d 9d5f 823d
00000140: 278a 9ebd 4719 203d 1e61 64bc c404 98bd
00000150: 8851 973d 9255 a6bb 0802 9fbd a77f 8ebd
00000160: 4e8b a43d b82f cebd c8b8 c8bd dea0 9cbd
00000170: 7013 af3d 3d60 613c c968 72bd 61c4 a7bd
00000180: 782d c7bd 6059 88bd b39a 44bd a27b 603d
00000190: 8531 ec3b dcc9 4cbc 95b9 ae3c 9d47 45bc
000001a0: e188 c6bb 19a9 4cbd 754e 6c3d becc d03b
000001b0: 0a1c f23c 0e16 8ebd b649 1abd 2852 273d
000001c0: 199d 0d3d b8fb 3dbd a9d6 97bd 0d97 3d3d
000001d0: 1bc0 bfbd f773 90bc c4b7 833d 42f0 b63c
000001e0: 2617 d9bd 7012 9ebd 0a7d c3bd 47ec 4fbd
000001f0: 2429 c1bc d3e8 b83d 079f 893c 0bd3 aebd
00000200: 3a30 983d e309 3fbd e433 e7bc a591 65b9
00000210: e337 583b d7b5 bf3d 764c 92bd 4b87 91bd
00000220: 181a 52bd 7878 2f3c b560 ac3d 63b1 c03c
00000230: 226f a3bd ec13 44bc 8f85 99bc 7c8f 153d
00000240: 865d b8bd 1342 b7bd 7424 c4bd 456f d8bd
00000250: 13f2 c5bd bc67 c9bc 1cfc c23d c801 b93c
00000260: beeb ad3d bc8e 4a3b 22c2 843c 0830 223c
00000270: df07 403d a66c acbd e2fc 6cbc 6ec7 7ebc
00000280: 7f49 8bbd c85a afbc d85a a7bd cbfe 7f3c
00000290: 2192 7e3d b8ff 89bd 7a34 20bc 0996 61bd
000002a0: b316 68bd 334a 6c3d 1594 7a3d 473e 2a3d
000002b0: 68c6 873d dca6 5cbd 5be6 993d 5041 ca3d
000002c0: 3b51 973d f43c c93d 1383 8a3d 6cd1 7f3d
000002d0: 7af7 a93d d594 19bc aa3e a1bd 0161 e2bc
000002e0: beae 153c 24dd aabd b07f 493d 6311 31bd
000002f0: 4fbe 87bc 4941 503d d7ac d43d 2c4f 5e3c
00000300: 634b 8a3b 5d18 76bd fa9f 85bd e199 6fbd
00000310: 8052 013d 4a70 b8bc 8baf 17bd 2427 0d3d
00000320: 2994 4abd e87a 2cbb f0fb ab3d 171e 173c
00000330: 5d00 893d a373 26bd 6e44 69bd 2e17 ca3d
00000340: 4c69 babd ff77 b33d 0b7a 2fbc d880 3f3d
00000350: a088 b0bd f9a5 9dbd 8493 5e3d 755e 6bbd
00000360: 35ee 07bd 00c8 2fbd 3e59 2bbd cb13 b73d
00000370: 0113 413d bc1a 893d e78e 013d 023b ae3a
00000380: ba6e 70bc d0a2 fa3c 8530 cf3d dbab cdbb
00000390: 904c af3d 32c3 a9bc 1002 cdbd 5d16 ecbc
000003a0: 37c8 ae3d 834d ab3d 6157 ad3d a17e 8f3d
000003b0: 02fb 0bbc c045 103d bab8 8e3d f3d7 05bc
000003c0: d863 90bd 1a4d 9fbc 0008 6f3d aa89 1b3d
000003d0: a8ac 9e3d 9cfa c93d 04c4 453d 1782 863d
000003e0: 4b45 0b3d 31b5 d23d 5183 6bbc 96aa 1b3d
000003f0: 29df 8a3d bc83 d6bc 3130 21bd 73f1 0a3d
-0.0027390728 -0.014639321 -0.010910924 0.027931534 0.038166225 -0.019611582 0.052826952 -0.059394713
-0.0051600593 0.09476002 -0.0014308264 -0.08094009 -0.049933348 -0.03160177 0.04624058 -0.00949849
-0.045606703 -0.085147485 0.051106844 -0.08466381 -0.02826535 0.019853158 0.042353146 -0.09582939
0.03953504 0.043927435 -0.06850692 0.04915677 0.07127763 0.08793614 0.09088607 -0.03508536
-0.05746932 0.10184173 0.0019876957 0.09079599 0.067096606 -0.043100987 0.037513856 -0.09402951
-0.09680068 -0.033671144 -0.09813706 0.04789568 0.008358522 0.07513946 -0.035483032 -0.026433619
0.0124538 0.050211698 -0.08073269 -0.09379832 -0.038511828 -0.07888036 -0.019142471 -0.0030604778
-0.09639163 -0.035413302 -0.074890286 -0.0653156 0.030039113 0.0006282325 0.06822131 0.09468717
0.016375335 -0.084894404 0.08463099 0.08879456 -0.106955014 -0.014789412 0.046948586 -0.020564232
-0.05820591 0.075612575 -0.008713434 -0.103501305 0.07833489 0.10353612 0.062099233 0.06365893
-0.07741194 0.039086606 -0.01393917 -0.07422784 0.07388598 -0.0050761187 -0.07764059 -0.069579415
0.08034383 -0.100676954 -0.09800869 -0.076478705 0.08548629 0.013755855 -0.059181962 -0.08191753
-0.09725469 -0.06657672 -0.047999095 0.054805405 0.0072080516 -0.012499299 0.021328727 -0.012041
-0.0060587977 -0.04996595 0.05769201 0.0063720634 0.029554386 -0.069378 -0.037667952 0.040849835
0.034573648 -0.046382636 -0.0741399 0.04628663 -0.09362813 -0.017633421 0.06431535 0.02233136
-0.10600118 -0.077183604 -0.09545334 -0.05076244 -0.023579188 0.09028783 0.016799463 -0.08536347
0.074310735 -0.046640288 -0.028222986 -0.00021893399 0.0032992295 0.09360855 -0.0714349 -0.07105883
-0.051294416 0.010709874 0.08416883 0.023522085 -0.07980181 -0.01196764 -0.018740444 0.03651379
-0.09002213 -0.089481495 -0.095772654 -0.10568098 -0.096653126 -0.024585597 0.09520742 0.022583857
0.0849223 0.003090783 0.016205851 0.009899147 0.046882506 -0.084191605 -0.014464589 -0.015550477
-0.06801128 -0.021405593 -0.08171624 0.015624712 0.062151078 -0.067382276 -0.009778136 -0.055074725
-0.056662273 0.05768795 0.06117638 0.0415633 0.0662964 -0.053870067 0.0751464 0.098757386
0.0738854 0.09826079 0.06763282 0.06245558 0.082991555 -0.009373863 -0.0787328 -0.027634146
0.0091359 -0.083429605 0.049194038 -0.043229472 -0.016570238 0.05084351 0.10384529 0.013568681
0.0042204126 -0.06008183 -0.06524654 -0.05849636 0.03157282 -0.022514481 -0.037032645 0.034461156
-0.049457703 -0.0026318375 0.08397663 0.009223483 0.066895224 -0.040637624 -0.056950025 0.098677024
-0.09102115 0.08763122 -0.01071025 0.046753734 -0.08619809 -0.076976724 0.0543399 -0.057463128
-0.033186156 -0.042915344 -0.041833155 0.08939322 0.047137264 0.06694552 0.031630423 0.0013292732
-0.014674837 0.030595213 0.10116676 -0.0062765903 0.08559525 -0.02072296 -0.10010159 -0.028819257
0.08534282 0.083643936 0.08463932 0.070065744 -0.008543732 0.03522277 0.069688275 -0.008169162
-0.07050294 -0.019445945 0.05835724 0.037973084 0.07747775 0.09862253 0.04828264 0.065677814
0.03400163 0.10288466 -0.01437457 0.03800448 0.06780846 -0.026185863 -0.0393526 0.03392167

residual_layers.0.conv2.bias f4 [32]
00000000: feef c93d 5fa3 87bd 743e da3c 738e 6e3d
00000010: 25f8 083d e8db d93c 9fb5 5c3d 282d 953d
00000020: 0fe4 8d3d 5a0b 9c3c 1425 8dbd 2ea4 923c
00000030: a306 7bbd e4c1 c43b f7b6 abbd 7737 b6bc
00000040: e664 ea3c 67fe b73c bbbb 233c a445 543d
00000050: 22ec bf3d 531a ad3c 5f64 383d 5edd ffbc
00000060: 7b26 78bd 24d9 a3bd dfa8 c4bb 1393 85bd
00000070: 5597 99bd 64c4 423d bc49 833d e02c 11bd
0.09860228 -0.066229574 0.026641108 0.05824132 0.033439774 0.026594117 0.053884145 0.072840035
0.06928264 0.019048382 -0.06891838 0.017900553 -0.061285626 0.006004559 -0.08384507 -0.022243245
0.028612565 0.022460176 0.009993489 0.051824227 0.09371211 0.021130716 0.045017596 -0.031233486
-0.060583573 -0.08000401 -0.0060015763 -0.06522193 -0.074995674 0.047550574 0.06410548 -0.035443187

residual_layers.0.bn2.weight f4 [32]
00000000: 0b37 803f af58 803f ecd1 7d3f 0ecb 7e3f
00000010: b01f 7d3f 9276 803f c67a 7d3f 66b2 7f3f
00000020: d7d6 7e3f f932 7f3f ff95 803f eabc 7b3f
00000030: a819 803f 498d 833f 9bb5 803f 4018 803f
00000040: ccf8 7e3f 500e 803f d647 7f3f eef5 7e3f
00000050: 0b03 803f d5fe 7e3f 23d5 7c3f 935b 7d3f
00000060: 3d1c 7e3f 8772 803f a111 803f 6ab4 7e3f
00000070: a0ed 7f3f bcb3 7c3f d965 7f3f 6c20 7f3f
1.0016798 1.0027064 0.9914844 0.99528587 0.98876476 1.0036185 0.9901546 0.9988159
0.9954657 0.99687153 1.0045775 0.98335135 1.000783 1.0277492 1.0055422 1.00074
0.99598384 1.0004368 0.9971899 0.9959401 1.0000929 0.9960759 0.9876272 0.98967856
0.9926184 1.0034951 1.000538 0.9949404 0.9997196 0.9871175 0.9976478 0.99658847

residual_layers.0.bn2.bias f4 [32]
00000000: 865c 2e3c 2f22 3abb 6f29 843c 7dec 893c
00000010: fc56 4abb e5a7 553b e8cc b43b 1e8d f5bb
00000020: 4f28 243c 18c2 5a3c f93b 31bc 4aa8 f23b
00000030: 5a90 5f3c 9fd4 8a3c 0b21 8dbb 6b6e b0bb
00000040: 640d fdba 8a8d 40bc f753 49bc 70d5 703c
00000050: d351 493c d07d c73c 83ba 913c 5eb4 863c
00000060: ca54 983b 0bde e93b 6ad7 d03b 9905 8e3c
00000070: 980a ba3a 981e 073b e362 e0bc 020f 1cbc
0.0106421765 -0.0028401723 0.016133038 0.0168364 -0.00308746 0.0032601294 0.005517591 -0.007493629
0.010019376 0.01335194 -0.010817521 0.0074053155 0.013645256 0.016947089 -0.0043069175 -0.0053842566
-0.0019306359 -0.011752496 -0.012288085 0.014699325 0.012287575 0.024351984 0.017789131 0.016443428
0.0046487795 0.0071370653 0.0063733356 0.017336654 0.0014193831 0.00206176 -0.027390903 -0.0095250625

residual_layers.0.bn2.running_mean f4 [32]
00000000: 695b 0abe 7e97 91be 21ba da3e 8fb9 f5be
00000010: 939a 0fbe b22b c33e 5f88 53be 68ff b7be
00000020: 75d4 223e 7a5f 0abe 67de 173e 88d9 4cbc
00000030: b4ad 8abd 5e12 ea3d 4574 a33d 16ce 85be
00000040: 73df a93e 2354 b13d db30 863e bc48 7bbd
00000050: 3ae2 ae3e db48 ea3e 49b9 513c 00c8 2f3e
00000060: f05f b2bd 5b50 96be 02c0 413e 786a 083e
00000070: e9ad babc e10b b8be 0156 b13e 25b8 79be
-0.13511433 -0.28435892 0.4272013 -0.47993132 -0.14023809 0.38119274 -0.2065749 -0.35937047
0.15901358 -0.13512984 0.14830934 -0.012503035 -0.067714125 0.114292845 0.07981161 -0.26133794
0.3317829 0.08658626 0.2620915 -0.06134866 0.34156972 0.4575871 0.012800523 0.17166138
-0.08709705 -0.2935818 0.18920901 0.13321865 -0.022788005 -0.35946563 0.34635928 -0.24386652

residual_layers.0.bn2.running_var f4 [32]
00000000: dd8a 2b3e 3166 d63d 532c df3d 74cb f33d
00000010: b6d2 d73d 1e48 dd3d 8c02 413e ee76 ae3d
00000020: ea1c d23d 7af4 d83d 53df dd3d 341a e83d
00000030: daaa 2b3e 6629 033e 12a9 023e 38dd 013e
00000040: 3713 293e 121b 133e cda5 da3d 7a8c be3d
00000050: 351f 213e b477 983d d288 c03d 6d74 c93d
00000060: d32f f83d 851a a63d a177 c63d ee20 103e
00000070: 246b bd3d 1e2f c43d e7c1 da3d 032c f63d
0.16752191 0.1046871 0.10897126 0.1190404 0.10538237 0.10804771 0.18848628 0.08518778
0.10259421 0.10593505 0.10833611 0.11333123 0.16764393 0.12808761 0.12759808 0.12682045
0.16511236 0.14365795 0.10676155 0.093041375 0.15734561 0.074447066 0.094010964 0.098366596
0.12118497 0.08110527 0.09690786 0.14075062 0.09248951 0.095792994 0.10681515 0.12020113

residual_layers.1.conv1.weight f4 [32, 32, 3]
00000000: a780 4abd b9d2 60bd 19d1 afbd 2ad6 d4bd
00000010: 5035 93bd f2bf 6c3c 8d49 d6bd ec7d b2bd
00000020: c1d9 4abd be2b 97bd bdde 2e3d c1aa 323d
00000030: 6aa4 183d b5f8 433c fd36 503c 0dde dc3b
00000040: 5b3d 7cbd fbcf 15bb a7cb 09bd 9deb c43c
00000050: e1c9 cb3c e96f f3bc b186 353c be30 503d
00000060: 07e7 eaba 19d3 95bd 19bf c73d cac0 3f3c
00000070: 37c8 813d 3260 2cbd 5682 663d e861 a93d
00000080: f998 8b3d d1d6 9cbc 8b37 d73d 0332 8cbd
00000090: 9b97 d1bd c47d 8fbc 67ff 94bd f46c d03d
000000a0: 2df3 07bd 4749 45bd ecb6 8a3d f6c8 94bc
000000b0: fbd4 1fbd 9e6b d3bd 7959 54bc eb37 e5bc
000000c0: 6638 0abd 61c8 99bd 595f a93d 3d18 3c3d
000000d0: b310 953c afcb 92bd 4735 7bbd adbc 9fbd
000000e0: 9936 2fbb c72a a53c cbca b7bd b180 2cbc
000000f0: 0fd7 0fbd 6450 b2bc 9ea3 5f3b c9ac a53d
00000100: e3f5 9cbd 2fa5 b33d ee3e 4bbc 7a93 28bd
00000110: 44c2 b53d b24a a63d c7b0 c33d fb11 8ebd
00000120: 0567 193d 25eb dd3b da88 c33c b5f4 a5bd
00000130: aa92 3abd 35e7 27bb b99e 6dbd 23fa 3a3d
00000140: 3a5e 9c3c 09c0 fd3c 0a4a a2bd d047 1cbd
00000150: 084d 4fbd e777 eabc 473f b03d e65b a43d
00000160: 8b33 38bd b713 6a3c a4ed f5bc 4ab4 97bd
00000170: 56a0 04bd 46c0 903d 827d 863d 1cdb 80bd
00000180: 40e7 ae3d dc3e 0dbd 01b6 7abc c634 e03a
00000190: a0b1 40bd 14b0 40bd 170b cebb da46 8cbd
000001a0: 0b25 643d 41dc 2cbd 949d b3bd a999 efba
000001b0: 4e3a 563d 0a10 afbd a433 03bd 92ba 30bd
000001c0: 00a3 b3ba 5776 debc ef13 883d f2a1 e13c
000001d0: 43c4 583d b09b 9bbd 793a ca3c d4d2 493d
000001e0: 8351 ccbd b251 2f3d 50ae 2ebd d906 c4bc
000001f0: 8b0f 803d 4c9b b0bc 29e7 983c e964 9cbc
00000200: 1699 82bd 7a27 8fbc 7a96 92bd d511 8abd
00000210: a82b d03c 92d5 523d fc92 98bd ddab b7bd
00000220: d3fd c63b d427 f8bc c589 52bb 0ac0 523d
00000230: a591 f9bc 242e cd3d 4bac 083d e020 7dbd
00000240: f2d6 d6bd c993 b33d 28b7 a7bd bdbd 9b3d
00000250: bc73 a43c f934 3f3d 48d8 88bd da9f 813d
00000260: 2d9e 0fbc 6781 00bd 380a a53d 5171 1c3d
00000270: 2dc5 e03d b68c ac3d ff9b 35bd a298 e6bd
00000280: 3cab c63d 5ee3 bd3d 7e7c 6d3c df96 163d
00000290: 0e41 183d e425 38bd 437e 42bc ad73 113b
000002a0: 3265 193d e7b6 da3d 0e8b 753d d16d d7bd
000002b0: e2c4 123d f101 aebd 0f73 723d 8f96 33bd
000002c0: 3871 393d ea0e 8b3d c5f2 38bd 5c5d bdbd
000002d0: 942a 22bd 77d0 c43d d202 1a3d b2e4 c73d
000002e0: 63e8 df3d 9c4a d1bd f9b2 72bd 634c 4cbc
000002f0: 0558 7b3c a182 8a3a 3d90 9b3d 95a5 37bc
00000300: 6425 033d 8263 f93c b51f 953d ba73 41bd
00000310: 4163 6d3d bfc6 7f3d 6f0a 833d 2b43 d63d
00000320: 1cfb baba 7d11 4cbd 43c3 5cbd 8e7b 313c
00000330: 222c 6d3d 7a6e 5abd 35a6 aebd e7ea 8f3d
00000340: adbb 813d 7b37 9a3d e001 a63d 80b8 933d
00000350: 759b abbc 5b75 653d ac6c 5bbd 2c69 8fbc
00000360: 8e4e 813d ec6b 86bd 7cc0 553d 2c0b 28bd
00000370: 29cc 243d 3b51 97bb dc97 823d 5e5e 89bd
00000380: e404 ca3d 71df 003c 0366 38bd 13a8 c43c
00000390: 6131 763d f558 cc3d a50c b83c 298b 8c3d
000003a0: 099f a43d 800e be3d 249f 083d 692d b43d
000003b0: 5060 c03b db7a 8cbd 3a95 123d 54e7 afbd
000003c0: d768 643c 8da5 213d cd1d 783c ba0a 56bd
000003d0: 22ee 083d 2b11 f5bc 6269 8b3d 770c 05bd
000003e0: 207f 373c 7fa7 273d f4a2 c23d 95fa 4c3c
000003f0: 4525 aa3d 8043 ae3d 7ec6 c73d 2c6e acbd
-0.0494391 -0.05488846 -0.08584804 -0.10392411 -0.07187903 0.01445006 -0.104632474 -0.08715424
-0.049524073 -0.0738139 0.04269289 0.043619875 0.037266172 0.011961152 0.012708423 0.0067403377
-0.06158195 -0.0022859562 -0.033641484 0.02403813 0.024876537 -0.029716449 0.011079476 0.050827734
-0.0017921635 -0.07315654 0.09753246 0.011703679 0.06337016 -0.042083926 0.05627664 0.08270627
0.068162866 -0.019145401 0.10508641 -0.068454765 -0.102339946 -0.017516024 -0.07275277 0.10177031
-0.033190895 -0.048165586 0.06773171 -0.018162232 -0.039021473 -0.10323261 -0.012960785 -0.027980765
-0.033745192 -0.07508922 0.08270139 0.045921553 0.01819644 -0.07167756 -0.061330106 -0.07799659
-0.0026735424 0.020162 -0.089742266 -0.010528729 -0.035117205 -0.021766849 0.0034124623 0.08089597
-0.07664087 0.08771741 -0.01240514 -0.04115627 0.08874944 0.08119716 0.09555202 -0.06937023
0.037451763 0.006772416 0.023868967 -0.08103315 -0.045550026 -0.0025619988 -0.058012698 0.045648705
0.0190879 0.030975359 -0.07924278 -0.038154423 -0.050610572 -0.028621627 0.08605819 0.08025341
-0.04497103 0.014286927 -0.030020542 -0.07407434 -0.03237947 0.07067923 0.065669075 -0.06291792
0.08540201 -0.034483775 -0.015302182 0.0017105571 -0.047044396 -0.04704292 -0.006287943 -0.06849451
0.05569939 -0.042202238 -0.0877029 -0.0018280047 0.052301697 -0.08547981 -0.03203167 -0.043146677
-0.0013705194 -0.027156038 0.06644427 0.027543042 0.052921545 -0.075980544 0.024686085 0.049273327
-0.099764846 0.04280252 -0.042646706 -0.023929046 0.062529646 -0.021558426 0.018664913 -0.019091086
-0.06376855 -0.017474879 -0.071576074 -0.067416824 0.025411442 0.051473208 -0.0744991 -0.08968327
0.0060727387 -0.030292429 -0.0032125574 0.051452674 -0.030464957 0.10018566 0.033367436 -0.06179893
-0.10490216 0.08768422 -0.08189231 0.07604549 0.020074718 0.046681378 -0.066818774 0.063293174
-0.008765739 -0.031373408 0.0805859 0.038194004 0.10975108 0.08425276 -0.044338223 -0.11259581
0.09700629 0.092718825 0.014495013 0.036764976 0.037171416 -0.04495801 -0.011870923 0.0022194192
0.037450023 0.10679417 0.059947066 -0.10518993 0.035832293 -0.08496464 0.05919176 -0.043844756
0.04527399 0.06789954 -0.045153398 -0.092463225 -0.039591387 0.09610074 0.037600346 0.09760417
0.10932996 -0.10219309 -0.059252713 -0.012469384 0.01534081 0.0010567495 0.07595871 -0.011208911
0.03201808 0.030442957 0.07281438 -0.047229506 0.057955984 0.0624454 0.063984744 0.1046203
-0.001426551 -0.049821366 -0.053897154 0.01083268 0.057903416 -0.053328015 -0.08527795 0.07027226
0.063346244 0.07530113 0.081058264 0.07212925 -0.020948151 0.056020122 -0.053570434 -0.017506205
0.06313811 -0.06563553 0.05218552 -0.04102628 0.040233765 -0.0046178377 0.06376621 -0.06707452
0.09864214 0.007865773 -0.04501916 0.024005925 0.060105685 0.09977905 0.022466967 0.0686248
0.08038146 0.092801094 0.033354893 0.08797724 0.0058708563 -0.0685937 0.035786845 -0.08589044
0.013941011 0.039464522 0.015143824 -0.052256323 0.033430226 -0.029915413 0.068072096 -0.03248259
0.011199743 0.04093122 0.09503737 0.012510915 0.0830789 0.08508968 0.09754656 -0.08419451

residual_layers.1.conv1.bias f4 [32]
00000000: 794c 68bd 6f9b 3bbd 700b 9fbd 836a a43d
00000010: 85e9 cabd 29d1 963d d7ff a9bd 0b87 b93d
00000020: 590a ae3d 5bc7 423d c859 2a3d 5bf9 98bd
00000030: 0559 c43d 24b6 f2bb 173e 8abd 02cf 69bd
00000040: 80b9 9cbd cfa3 b73d e13a 88bd e7c2 a4bd
00000050: 7ff5 aabc 0585 14bd 3f30 53bd f7df 523d
00000060: fef4 be3d f783 35bd 2976 713d 0114 b93d
00000070: 9d72 bfbd cb3d 383d 3f8b 65bd 0ab5 44bd
-0.056713555 -0.04580253 -0.077658534 0.08028128 -0.099078216 0.07364113 -0.08300751 0.090589605
0.084980674 0.0475534 0.04158953 -0.07469436 0.09587292 -0.0074069668 -0.06750124 -0.057082184
-0.07652569 0.08966791 -0.06651855 -0.08044987 -0.020869015 -0.03625967 -0.051559683 0.05148312
0.09324072 -0.044315305 0.058950577 0.090370186 -0.093480326 0.044980805 -0.056041 -0.048024215

residual_layers.1.bn1.weight f4 [32]
00000000: 7004 7f3f cffa 7e3f 3cf6 7c3f 1021 7e3f
00000010: 6357 7f3f e44a 7f3f df2d 7d3f 2104 7e3f
00000020: a021 7e3f 4e23 813f 1525 7e3f d17d 803f
00000030: 1bff 7f3f f7b5 7e3f c0c0 7d3f 03c2 803f
00000040: 59ae 803f ccb3 803f cdb5 813f fa66 803f
00000050: 4d91 803f f1ee 803f 9f8a 7e3f 3552 813f
00000060: 52a9 7f3f bcc1 7e3f e37b 7e3f 4716 7f3f
00000070: b39c 803f df43 7f3f 4cd2 813f 880e 813f
0.99616146 0.99601454 0.98813224 0.992692 0.99742717 0.9972365 0.9889812 0.9922505
0.9927006 1.0088899 0.9927533 1.0038396 0.99998635 0.99496406 0.9912224 1.0059208
1.0053207 1.005487 1.0133606 1.0031426 1.0044342 1.0072919 0.9943027 1.0103213
0.9986774 0.99514365 0.99407786 0.9964337 1.0047821 0.9971294 1.0142303 1.008256

residual_layers.1.bn1.bias f4 [32]
00000000: 4b1a 953b 007d 3ebb 9ecb 93bb 7d50 bdba
00000010: 5589 18bc 9dbd 1a3c be18 0b3b 8d33 db3b
00000020: fb45 c53b 1a38 413c bc73 f6bb ffbc 0cbc
00000030: 2a72 39bc e0e0 02bc d50a adbb 78ce 2b3c
00000040: 879a 983c 8273 263c 7994 46bc cf2d 603c
00000050: 1112 873b 84bf 70bc 85b5 863b 98ad 5bbc
00000060: 80f2 513b 2452 06bb f300 d73b fb88 69b8
00000070: 62ba 853b 388d a1bb f19a 313a f109 abba
0.0045502535 -0.0029066205 -0.004510357 -0.0014443543 -0.009310086 0.009444621 0.0021224464 0.006689495
0.006020305 0.011793161 -0.007521121 -0.008589982 -0.011318723 -0.007988185 -0.0052808323 0.010486238
0.018628372 0.010159375 -0.01212036 0.013682797 0.0041220267 -0.014694098 0.0041109943 -0.013408087
0.003203541 -0.0020495737 0.0065613925 -5.5679102e-05 0.0040810565 -0.0049301647 0.0006775102 -0.0013049227

residual_layers.1.bn1.running_mean f4 [32]
00000000: 5359 13bf 024c 33bb 4792 6b3f 0db1 353e
00000010: 4126 6c3e 6e42 81be 913b 263e a8e8 16bf
00000020: 8a9d 8f3e 8b66 bd3d 13e4 273f 89e0 bcbe
00000030: 8a21 483e 6011 8dbd d628 a43e de5d 1bbe
00000040: 7354 09bf e9b8 86bc 6546 00bf d108 0abf
00000050: d989 093e 8c7f cfbe bbdd 0ebf c699 343e
00000060: 7931 09bd b84d 313e 8a9b 3b3f 0a1a 9d3e
00000070: ceea fd3e dd2d 1fbd efc6 cebd c55c b03e
-0.5755817 -0.0027358537 0.92020077 0.17743321 0.23061468 -0.25245994 0.1623366 -0.58948755
0.2804988 0.09248074 0.6558239 -0.36890057 0.19544044 -0.0688808 0.32062405 -0.15172526
-0.53644484 -0.016445594 -0.50107414 -0.539197 0.13431491 -0.40526998 -0.55807084 0.17636785
-0.033494446 0.17314804 0.7328421 0.3068393 0.49593204 -0.038862098 -0.10096537 0.34445778

residual_layers.1.bn1.running_var f4 [32]
00000000: e430 3e3e ac22 7b3e e012 3a3e 0546 6f3e
00000010: e96b 4c3e 85b7 8b3e 66ec 8c3e d0cb 943e
00000020: dc9c 3d3e d877 6c3e e263 b23e 703c 7d3e
00000030: e42c 883e 4c78 843e 68ad 3e3e a496 9f3e
00000040: a9d3 4a3e 4a78 363e 813d 923e 7b45 643e
00000050: feec 853e 98cf 6b3e 8108 aa3e 5c4c 473e
00000060: 396c 123e 848e 343e 415c 663e 921d 233e
00000070: de86 833e e7e8 1d3e 899e 5e3e cb86 533e
0.18573338 0.24524945 0.18171263 0.23366554 0.1996304 0.27288452 0.27524108 0.29061747
0.18516868 0.23092592 0.3484183 0.24730086 0.2659675 0.2587303 0.18620837 0.31169617
0.19807304 0.17819324 0.2856255 0.2229213 0.26157373 0.2302841 0.33209613 0.19462723
0.14299096 0.1763249 0.2249613 0.15929249 0.25688833 0.15420876 0.21740164 0.20656888

residual_layers.1.conv2.weight f4 [32, 32, 3]
00000000: 1baf 84bd f932 e6bd 3611 833d bcd2 52bd
00000010: 795e febb 330e 07bd 1f01 39bd 204f e33c
00000020: fc52 41bd f767 be3d b810 cdbd c2db 443d
00000030: 16dd b5bd ffb1 933d d507 ac3d 5f70 7e3d
00000040: 3b08 49bb 3f2b 6dbd 35fa 15bd fa6a b03d
00000050: 21ca 813c 9212 963c 9e8f 13bd bf7d 0bbd
00000060: ad70 753c 0cc3 7e3b d593 21bb 78f7 84bc
00000070: 5bbe c43d f81a b93d ceb7 983d aa05 eebc
00000080: 6c5f d23c dc2b 9cbd ec54 67bd 96e4 943d
00000090: 6ad9 72bd c0ba 653d dbb8 08bd 456f 8f3d
000000a0: 51b7 8b3d 8559 483d e0cc 70bc a682 96bd
000000b0: b6f9 6fbd 8be7 03bd 9c53 55bd 8033 a93d
000000c0: 6dc6 adbc 334c b73c 2542 26bd e9f8 af3d
000000d0: 8f67 c1bd b151 1c3d 59a7 083d 85b8 223d
000000e0: 16f4 67bd c565 893c e4f7 723d af32 43bc
000000f0: 45f0 aebc 1e6c 12bd dcfa ddbd d87c a2bd
00000100: f25b 32bd 8b9a 5dbc 1a87 933d e323 833d
00000110: 13d4 9abc 76dc 5b3d 1c06 483d 1614 a33d
00000120: ced3 7bbc 503d b4bd 4ed3 3b3c 30e6 4bbc
00000130: 6dbf 7ebc c83f b1bd 11a5 c0bd ba8e 9dbd
00000140: 6b11 3abd 4a9f 553d 7392 03bd 69de 20bc
00000150: 7b0f 2dbd c014 7d3d 7545 71bd f070 db3d
00000160: 433d 5abd 3612 3a3d b28e 89bd c7d7 643d
00000170: 5bca 33bd 6a94 a9bd 9e91 60bc 24c9 9fbd
00000180: dc77 46bd 4183 eabc 7eae 4e3d e9a7 c7bd
00000190: dae1 60bb 8a3c 6c3a c772 a0bd 7150 423d
000001a0: 369b b23d a2c5 ab3c 2c5b 96bd 97d6 80bd
000001b0: f23a c03d 498c 1fbd 9b31 c93d c951 bcbc
000001c0: 59d9 523d dfe5 12bd ccfb 15bd c7eb da3d
000001d0: 7772 37bd dca3 5dbd 61d7 403d 7eb8 3dbd
000001e0: 33b7 ff3c 5a59 acbd 66ce 5c3d d265 04bd
000001f0: 1059 4a3c 0311 d1bd a397 2cbd bed3 80bd
00000200: 68c3 bcbd 9d19 483d fc5a 96bd abb0 b4bd
00000210: f5e3 a33d ad3f bebb 8f7e 8b3c c1bf 423d
00000220: 6646 acbd 32d2 00bd c555 d23d 211c e53c
00000230: 56f0 9dbd 0138 dc3d 3160 983d 4ea9 cc3d
00000240: 481a 61bd d6ee b0bd 5e3b fb3b 1053 4cbd
00000250: d006 45bd 2a82 38bd 0fe7 733d d63b 8abd
00000260: 4b72 ae39 8c3c cdbd 0893 9e3d 2452 a63d
00000270: 104e 25bc ca2d 923d 3f48 e53d b693 c1bd
00000280: 2315 183d 1929 a4bd 0041 883d 3d68 993c
00000290: a0bb bfbd c2ee b6bd 9a5c 07bd 6035 9ebc
000002a0: f43a a83d 3edf 2a3d e8a1 7a3d a083 6b3c
000002b0: f096 99bd 4581 b0bd 85d5 b6bd b490 6ebd
000002c0: 83da 42bd 58ca b4bd 351f 44bd a783 d33c
000002d0: b3a1 8b3d 1b62 babd 5adb cdbb ddb9 bfbc
000002e0: d36c 4b3d 636a bebd 9d0b 4a3d 5757 bcbd
000002f0: 2aab fa3c 375b 61bc da2a c6bb c8d1 85bc
00000300: 00cd 53bd 4f60 3ebd e908 633d 983f 853c
00000310: e384 9ebd 58d2 06bd e4f9 933c c8e8 c2bd
00000320: 7fb9 ad3d 1399 d03d 4519 afb8 cc6a 33bd
00000330: 58e2 bd3a 0eb8 1f3d 506c c23d f4a8 873d
00000340: ca72 5bbd ab5a 933d e628 1bbd b17a 60ba
00000350: 106a 98bd 7c54 d2bb 549c 3abd 858d 7b3d
00000360: 3fe2 c73d ecde d8bc 41b9 7dbd a6ae 61bd
00000370: 18db 913c a08b bdbd e94a dcbc c685 1bba
00000380: e4a4 abbd 86b8 9d3c 3a28 d8ba 5ddc 883d
00000390: e463 15bc 09bd 2bbb c2c4 0e3d e168 d33d
000003a0: 60e7 51bd dd53 1e3d edc2 80bd 6d84 9d3d
000003b0: c9ec 8b3d b178 aa3d bbdb 993d ebae 3ebd
000003c0: 6672 bbbd ecdc 99bd a04a a0bd 852a 913d
000003d0: 48db 243d a137 503d 3028 323d 9730 713d
000003e0: b204 633d 2617 b7bd d0d1 e23c 8dbe 42bc
000003f0: d6ab 08bd 7f15 bc3d 76ff 81bd 0d79 68bc
-0.06478711 -0.11240191 0.06399767 -0.051470503 -0.007762727 -0.032972526 -0.045167085 0.02774769
-0.04719828 0.092971735 -0.100129545 0.04806114 -0.088800594 0.072116844 0.08399931 0.062118884
-0.0030675072 -0.05790257 -0.03661557 0.08614154 0.015843453 0.018319402 -0.036025636 -0.034055468
0.014980477 0.0038873581 -0.0024654765 -0.016231284 0.0960662 0.09038347 0.07456933 -0.029055435
0.025680266 -0.07625553 -0.056477472 0.07270162 -0.059289373 0.0560863 -0.033379417 0.07003645
0.06822074 0.048913497 -0.0146972835 -0.07349138 -0.058587752 -0.03220324 -0.05208169 0.08261776
-0.02121278 0.022375202 -0.040590424 0.08592398 -0.0944358 0.038163844 0.03336272 0.039726753
-0.056629263 0.01677216 0.05931844 -0.011913939 -0.021354804 -0.03574764 -0.10838863 -0.07933968
-0.043544717 -0.013525615 0.07203503 0.06403329 -0.018899953 0.053677045 0.04883395 0.079628155
-0.015370322 -0.08800757 0.011463953 -0.012445018 -0.015548569 -0.086547434 -0.09406484 -0.076932386
-0.045426767 0.052153863 -0.032122087 -0.009818652 -0.04225109 0.061787367 -0.05890413 0.107149005
-0.05328108 0.045427524 -0.0671667 0.055869844 -0.043894153 -0.08280261 -0.013706593 -0.078020364
-0.04845415 -0.02862704 0.050459377 -0.09748823 -0.0034314306 0.00090117066 -0.07834392 0.047439996
0.087210104 0.020968262 -0.073416084 -0.0629093 0.09386243 -0.038952146 0.098239146 -0.022988217
0.05147681 -0.035863753 -0.036617085 0.10689502 -0.044786897 -0.054111347 0.0470804 -0.046318524
0.031215286 -0.0841548 0.053907774 -0.032323666 0.012350336 -0.10208323 -0.0421368 -0.062903866
-0.09216958 0.04885255 -0.07341573 -0.08822759 0.08002464 -0.0058059306 0.017028121 0.047546152
-0.08411865 -0.031450458 0.102702655 0.027967514 -0.07711856 0.107528694 0.07440222 0.0999323
-0.054956704 -0.08639304 0.007666989 -0.049883902 -0.0481022 -0.04504601 0.059546527 -0.06749694
0.0003327302 -0.10021314 0.07742888 0.08121136 -0.010089412 0.0713764 0.111954205 -0.09452002
0.037129533 -0.08015651 0.06653023 0.018726462 -0.093619585 -0.08932258 -0.033047296 -0.01931256
0.082143694 0.041716807 0.061189562 0.014374644 -0.07499492 -0.08618406 -0.08927444 -0.05824347
-0.04757167 -0.088276565 -0.047881324 0.025819613 0.06817951 -0.091007434 -0.0062822523 -0.023404056
0.04966433 -0.092976354 0.04932748 -0.09196346 0.030599196 -0.0137546575 -0.006047589 -0.016335383
-0.051709175 -0.046478566 0.05542842 0.016265675 -0.0774019 -0.032915443 0.018063493 -0.09517056
0.08482646 0.101854466 -8.349357e-05 -0.04380302 0.0014487011 0.038993888 0.09493315 0.06624022
-0.05357627 0.07195028 -0.0378808 -0.00085632043 -0.07442105 -0.0064187627 -0.045559242 0.06141426
0.0975995 -0.026473485 -0.06194425 -0.0550982 0.017804667 -0.09255147 -0.026891189 -0.00059327146
-0.0838106 0.019253027 -0.0016491481 0.06682656 -0.009118054 -0.0026205203 0.03485561 0.103227384
-0.051246047 0.038654197 -0.06287179 0.07691274 0.068322726 0.08323801 0.075126134 -0.046553534
-0.09152679 -0.07512841 -0.078267336 0.07088188 0.040248185 0.0508343 0.043495357 0.05888423
0.0554244 -0.08939962 0.027687937 -0.011886251 -0.033367 0.091837876 -0.063475534 -0.014189017

residual_layers.1.conv2.bias f4 [32]
00000000: 29b1 f23c 8f7c 8f3d 82df 953c 5aa5 d0bd
00000010: fc70 a2bc da72 d4bd a81b 77bd b5b3 b5bc
00000020: 0116 30bd 968a a73b 817d d7bc b311 603d
00000030: b116 4b3d 34dc 6f3c fcd8 313c 4eed a53d
00000040: 4a25 4fbb f1e4 843d b7ed f23c 232c 523d
00000050: 14e2 74bc 621f 8dbd 4255 423d ccb4 69bc
00000060: e857 e73c 3086 9abd 31b5 b93c d01e c2bd
00000070: 3aa1 7a3d 67a9 68bd 8558 87bd cbb6 b63d
0.029625492 0.070061795 0.018295053 -0.10187788 -0.019829266 -0.10373469 -0.06032911 -0.022180418
-0.042989735 0.0051129563 -0.026304962 0.05470438 0.049582187 0.014639903 0.010854956 0.08101903
-0.003160792 0.064889796 0.029654367 0.051311623 -0.014946479 -0.068907514 0.04744459 -0.014264297
0.02824016 -0.075451255 0.022669407 -0.09478533 0.061188914 -0.05680218 -0.06608681 0.08921584

residual_layers.1.bn2.weight f4 [32]
00000000: a9f9 7f3f 1fde 7e3f 4080 803f ce5d 7a3f
00000010: ecb1 813f 7f21 803f 54c7 7b3f 8dcc 803f
00000020: 298c 7d3f af3f 803f 0356 7a3f a4ae 823f
00000030: 8dc2 7d3f 7cfc 7c3f fc4c 7e3f 7979 803f
00000040: 386e 813f 9aa5 803f 8075 803f 115b 7e3f
00000050: 90f5 7e3f a6e7 7d3f b8b3 7e3f 56ae 813f
00000060: 5bc6 803f 5014 803f 5bdf 7b3f 7693 7f3f
00000070: 1bf6 7b3f 9f27 7f3f bf90 803f c9ae 803f
0.99990326 0.9955768 1.0039139 0.97799385 1.0132422 1.0010222 0.98351026 1.0062424
0.9904199 1.0019435 0.97787493 1.0209546 0.99124986 0.9882276 0.9933622 1.003707
1.0111761 1.0050538 1.0035858 0.99357706 0.9959345 0.9918159 0.9949298 1.0131328
1.0060533 1.0006199 0.9838769 0.9983438 0.984224 0.9966983 1.0044173 1.005334

residual_layers.1.bn2.bias f4 [32]
00000000: 38f8 e4bb f8d1 d93b 7ee5 753c a025 da3b
00000010: a5cc 163c b43a 183b 2ea9 4b3c e0ad 04bb
00000020: aa3e 4e3b 0653 a43b ba4c e8bb d339 ba3b
00000030: 7a33 8d3a c84f d03c 73c3 e93b 04a2 61b8
00000040: 4513 90bc 8b14 69bc d585 c23c 2ace c538
00000050: 9d7b ebbb 5352 01bc edf8 623a 0658 183b
00000060: 6a6c a83b 9428 bb3b 0946 853c 31ce 153c
00000070: 5873 e23c e4f8 e4bb 7995 f4ba 618e e8bb
-0.006987598 0.0066473447 0.0150083285 0.0066573173 0.0092040645 0.002322835 0.012430472 -0.002024524
0.0031470456 0.00501478 -0.0070892246 0.0056831627 0.0010772788 0.025428668 0.007133895 -5.379507e-05
-0.017587313 -0.014226089 0.023745457 9.432093e-05 -0.0071863667 -0.007893163 0.00086583087 0.0023245825
0.005139877 0.0057116244 0.016268747 0.009143398 0.02764289 -0.006987678 -0.0018660269 -0.007097051

residual_layers.1.bn2.running_mean f4 [32]
00000000: d4bd 1dbe 79b4 91be 0895 463e bde8 4fbe
00000010: 91c3 42be ad47 8abe c57f 50be 19d2 d7be
00000020: bb9c 613d 2a58 babe 947d 99be 3ae5 36be
00000030: da48 4d3e 2bd6 fdbd 1953 85bd 10d0 873e
00000040: 31cf e8be 746b 60bd 8db3 06be 36fd d73d
00000050: 2d07 5e3e 296f d33d f5f3 8cbe 9281 aa3e
00000060: 0de3 d83e 242a 99be 1c7a 913e 904a 8ebe
00000070: 66a9 9abe d01b 2d3e e776 cbbe c4b9 d03e
-0.15404445 -0.28458002 0.19392788 -0.20303626 -0.19019915 -0.2700781 -0.2036124 -0.4215248
0.05508111 -0.3639539 -0.2997862 -0.1786088 0.20047322 -0.12394365 -0.0650999 0.26525927
-0.45470574 -0.054789975 -0.1315443 0.10546343 0.21682425 0.103239365 -0.27529874 0.3330198
0.42360726 -0.29914963 0.28413475 -0.27791262 -0.30207366 0.16905141 -0.39739153 0.40766728
