ckpts/SpliceAI_SSD/Cajanus_cajan.pth (torch, 556833 bytes, 223 tensors)

conv1.weight f4 [32, 4, 3]
-0.107402176 -0.039964534 0.26032853 0.08418323 0.21116236 0.25902727 -0.1834174 0.22936603
0.25671458 0.21221054 0.13072176 -0.2689442 0.23250425 0.26007628 -0.054114446 -0.22660996
-0.07083175 0.1774472 -0.21160479 -0.15098287 0.09302588 -0.115705006 -0.056611378 -0.04423784
0.09618589 0.1384436 0.15614638 -0.012004945 -0.115554065 0.18865633 0.08140172 -0.2733201
0.19307767 0.24066272 -0.25541502 -0.1474385 -0.05850927 -0.16501062 0.09859611 -0.18756452
0.042499308 -0.16397859 0.25135574 0.16680403 0.025796924 -0.15222064 0.26430467 0.17606191
0.11230704 0.21804282 0.2707827 0.04199346 0.2779655 -0.24007343 -0.22578418 0.26234424
-0.1297309 0.045806125 0.16191943 0.27612698 0.27276465 -0.15127039 0.057552222 0.1717001
0.28310317 -0.044636067 -0.22498897 0.0013442693 -0.10726465 -0.25413883 -0.20052992 -0.008723313
0.20467946 -0.2059618 0.06936752 -0.21199888 -0.07538114 -0.20153047 -0.18159713 -0.21627346
0.18600568 0.11777006 0.2540654 -0.12611768 0.06631746 0.20818818 -0.16621655 0.16412926
-0.2588208 -0.16404973 0.25705498 0.054116435 -0.16098912 -0.24568747 -0.25238127 0.14040764
-0.13816138 0.08424405 0.17673552 0.084743604 0.1670739 -0.14692758 0.19759876 -0.18765977
0.2574451 -0.26396278 -0.13792886 0.25209767 -0.2552416 -0.04447688 0.23659961 0.11167368
0.07191994 -0.089406386 0.26418 -0.28246358 0.27042758 -0.057121504 0.011231025 0.18620013
-0.07182728 -0.095932685 -0.072157644 -0.23252472 0.11898578 -0.17803721 0.21562871 0.055364594
0.2652567 0.08439994 -0.26340705 -0.06558835 -0.28126603 -0.088393934 0.26853642 0.27074695
-0.15865645 0.05682415 -0.14480038 -0.13750727 -0.1937885 0.17879216 -0.031238757 -0.20036522
0.13432518 0.0304621 -0.2216978 -0.25882134 -0.20284551 0.23552266 0.10651866 -0.042282622
0.15983085 -0.0070987106 -0.14680901 -0.25370604 0.12401736 0.09913122 -0.12106154 0.18245688
-0.14434525 0.030343838 0.11901858 0.097211555 0.08619131 0.06848818 -0.09575725 -0.0022545685
-0.14894466 -0.118692 -0.009377358 -0.20544894 0.16592172 0.049359035 0.044458188 0.015395992
-0.00030387891 0.14843945 0.053357948 0.13075109 0.0011960743 -0.12755145 0.19768304 0.05228246
-0.16842945 -0.03543399 0.13388267 -0.07499504 0.26929134 -0.10048814 -0.1128547 -0.102078274
-0.18815325 -0.17050898 0.05646959 -0.0015345152 0.022202985 0.26915693 0.13630922 -0.23480219
0.10901779 0.14107119 -0.054775566 -0.13265932 -0.20552306 -0.13930985 0.11954488 -0.1781236
-0.042512704 0.23791724 -0.24877065 -0.24819303 -0.01491179 -0.060731675 -0.083379865 0.28852
-0.012480847 0.15800005 -0.18128534 -0.10739552 0.20879151 -0.14714155 -0.1359225 -0.23677793
-0.0372544 0.24167186 0.18103419 -0.19590001 -0.14120144 0.27800432 0.109121114 -0.25834426
0.14701264 -0.096484 -0.03370559 -0.10781561 0.13180673 0.24838394 -0.007591753 -0.20507015
0.023048349 -0.13409686 -0.21149303 -0.10810434 -0.043994598 -0.19515324 0.09627887 -0.16236776
0.16053584 -0.17219204 0.2652959 -0.11025263 0.08196832 -0.11882925 -0.15653081 0.15881418
00000000: acf5 dbbd dab1 23bd c849 853e 4268 ac3d
00000010: f23a 583e 399f 843e c5d1 3bbe eede 6a3e
00000020: 1870 833e b84d 593e eddb 053e 0eb3 89be
00000030: 9815 6e3e b828 853e 1ca7 5dbd 710c 68be
00000040: 3d10 91bd b8b4 353e edae 58be 419b 1abe
00000050: 5a84 be3d bff6 ecbd 55e1 67bd bd32 35bd
00000060: 1cfd c43d 29c4 0d3e d6e4 1f3e 64b0 44bc
00000070: 9ca7 ecbd 202f 413e f2b5 a63d 9df0 8bbe
00000080: 27b6 453e 4a70 763e c2c5 82be 1efa 16be
00000090: 6ba7 6fbd 8bf8 28be c2ec c93d ea10 40be
000000a0: c113 2e3d 01ea 27be b3b1 803e adce 2a3e
000000b0: 1254 d33c badf 1bbe f152 873e 9349 343e
000000c0: 3c01 e63d 9e46 5f3e 08a4 8a3e 5601 2c3d
000000d0: 7e51 8e3e cfd5 75be f833 67be fc51 863e
000000e0: 2dd8 04be 349f 3b3d 35ce 253e 8460 8d3e
000000f0: cfa7 8b3e a0e6 1abe e1bb 6b3d 27d2 2f3e
00000100: e6f2 903e 4fd4 36bd 8263 66be 3132 b03a
00000110: 92ad dbbd 7c1e 82be b757 4dbe 3aec 0ebc
00000120: 7e97 513e a6e7 52be 8f10 8e3d 3c16 59be
00000130: 6d61 9abd 015e 4ebe 99f4 39be ca76 5dbe
00000140: 4678 3e3e 6e31 f13d dc14 823e fe24 01be
00000150: 73d1 873d 482f 553e ac34 2abe 8011 283e
00000160: 2984 84be a7fc 27be b69c 833e 32a9 5d3d
00000170: 55da 24be 7f95 7bbe 1e38 81be 05c7 0f3e
00000180: 2d7a 0dbe 2588 ac3d 28fa 343e 0e8e ad3d
00000190: 6c15 2b3e 2f74 16be 5457 4a3e e229 40be
000001a0: d8cf 833e 2126 87be 393d 0dbe f212 813e
000001b0: 07af 82be 642d 36bd 2b47 723e 2cb5 e43d
000001c0: c34a 933d b21a b7bd 9a42 873e 119f 90be
000001d0: 7c75 8a3e 3df8 69bd 5502 383c 3fab 3e3e
000001e0: 2e1a 93bd 5b78 c4bd 63c7 93bd f61a 6ebe
000001f0: d1ae f33d 634f 36be c6cd 5c3e fcc5 623d
00000200: bacf 873e e0d9 ac3d 4add 86be 2f53 86bd
00000210: 1a02 90be e107 b5bd 9b7d 893e 589f 8a3e
00000220: d676 22be 71c0 683d 8d46 14be b5ce 0cbe
00000230: 7e70 46be 4b15 373e 6ce8 ffbc 8a2c 4dbe
00000240: 8a8c 093e a78b f93c c004 63be 3b84 84be
00000250: bcb6 4fbe da2c 713e 7526 da3d 8b30 2dbd
00000260: b3aa 233e 4d9c e8bb 1a55 16be c2e5 81be
00000270: d0fc fd3d 4f05 cb3d 1def f7bd fad5 3a3e
00000280: 3ecf 13be a493 f83c 03c0 f33d da16 c73d
00000290: 1285 b03d 8843 8c3d 611c c4bd 62c1 13bb
000002a0: f384 18be cb14 f3bd 7da3 19bc 3561 52be
000002b0: 62e7 293e b32c 4a3d ca19 363d 793f 7c3c
000002c0: f051 9fb9 8300 183e dd8d 5a3d 9de3 053e
000002d0: 98c5 9c3a d99c 02be 6c6d 4a3e 2226 563d
000002e0: c578 2cbe 3b23 11bd 8a18 093e 0097 99bd
000002f0: 8ee0 893e bacc cdbd 5d20 e7bd 6a0e d1bd
00000300: 3fab 40be e899 2ebe a84c 673d c921 c9ba
00000310: 09e3 b53c f0ce 893e a594 0b3e fc6f 70be
00000320: b844 df3d f774 103e 585c 60bd d8d7 07be
00000330: a374 52be 3ea7 0ebe f2d3 f43d 0866 36be
00000340: cd21 2ebd 94a0 733e bcbd 7ebe 5026 7ebe
00000350: 9550 74bc c7c1 78bd 10c3 aabd e5b8 933e
00000360: 777c 4cbc c4ca 213e dda2 39be 2ff2 dbbd
00000370: 71cd 553e 46ac 16be 452f 0bbe ea75 72be
00000380: 1298 18bd d478 773e 0761 393e 039a 48be
00000390: 1c97 10be 9556 8e3e e47a df3d b345 84be
000003a0: 7b8a 163e 6799 c5bd df0e 0abd 6ece dcbd
000003b0: 58f8 063e 5c58 7e3e 3dc4 f8bb e9fd 51be
000003c0: e4cf bc3c b050 09be a191 58be cf65 ddbd
000003d0: ae33 34bd 40d6 47be db2d c53d bc43 26be
000003e0: 8263 243e 1c53 30be ddd4 873e 22cc e1bd
000003f0: 02df a73d c05c f3bd 9d49 20be 2fa0 223e

conv1.bias f4 [32]
-0.20798899 -0.23514839 -0.09809675 -0.28779984 -0.24933496 -0.20117635 -0.170159 -0.27057117
0.22953634 -0.0916109 -0.14124069 -0.20754364 -0.10986224 -0.088080294 0.069482855 0.20162414
0.20630991 0.11140257 0.004960138 -0.2002489 0.11925709 -0.12865867 0.21268265 0.19519238
-0.1949464 -0.19110927 -0.14669281 -0.16856976 0.20618239 -0.20904493 0.036198217 -0.17428535
00000000: 11fb 54be bdca 70be f3e6 c8bd 805a 93be
00000010: aa51 7fbe 2c01 4ebe 293e 2ebe 4e88 8abe
00000020: 930b 6b3e 7f9e bbbd 66a1 10be 5286 54be
00000030: 74ff e0bd 7163 b4bd 074d 8e3d 8f76 4e3e
00000040: e842 533e 0827 e43d a788 a23b 0c0e 4dbe
00000050: 103d f43d 19bf 03be 7bc9 593e 83e0 473e
00000060: 07a0 47be 26b2 43be a436 16be 8d9d 2cbe
00000070: 7a21 533e e00f 56be 9544 143d dc77 32be

bn.weight f4 [32]
0.9942853 0.9965945 0.996494 0.99548274 0.99853855 1.0065024 0.9969654 0.9978826
1.0016029 0.9977462 0.99566025 0.99576193 0.99944544 0.99892634 1.0023967 0.9962009
1.0042053 0.99571085 1.0089935 1.0001005 0.99676216 1.0014031 0.9942029 0.9990098
0.9905275 1.0003206 1.0027493 0.99805933 0.99753606 1.0020434 0.9995806 0.9916358
00000000: 7b89 7e3f d120 7f3f 3b1a 7f3f f5d7 7e3f
00000010: 39a0 7f3f 12d5 803f 2039 7f3f 3c75 7f3f
00000020: 8634 803f 4c6c 7f3f 97e3 7e3f 41ea 7e3f
00000030: a8db 7f3f a3b9 7f3f 894e 803f 0607 7f3f
00000040: cd89 803f e8e6 7e3f b326 813f 4b03 803f
00000050: ce2b 7f3f fa2d 803f 1584 7e3f 1bbf 7f3f
00000060: 3693 7d3f 810a 803f 175a 803f d180 7f3f
00000070: 865e 7f3f f542 803f 84e4 7f3f d8db 7d3f

bn.bias f4 [32]
-0.002381851 -0.012037996 0.004412543 -0.010275008 0.00046926143 0.0025954572 -0.0042535467 -0.009266808
-0.0064944793 0.00742512 0.008427511 0.0075919637 0.001764291 0.0010977295 0.007391233 0.004565362
-0.008406986 -0.0044086506 0.0097419275 -0.0018754276 0.0053769476 0.005430856 0.0027820393 -0.0035267388
-0.0048521855 0.00060333335 -0.0028709094 -0.0005453948 -0.0015485631 -0.0028132305 0.0035387326 -0.005111058
00000000: d418 1cbb 043b 45bc 1897 903b 8258 28bc
00000010: 3407 f639 8c18 2a3b 5661 8bbb cfd3 17bc
00000020: a4cf d4bb 6c4e f33b 8b13 0a3c 02c6 f83b
00000030: c83f e73a b1e1 8f3a 2832 f23b 0899 953b
00000040: 74bd 09bc 7176 90bb 9b9c 1f3c e8d0 f5ba
00000050: 1b31 b03b 52f5 b13b e052 363b dc20 67bb
00000060: 15ff 9ebb 0429 1e3a de25 3cbb d3f8 0eba
00000070: 28f9 caba 2d5e 38bb 15ea 673b a97a a7bb

bn.running_mean f4 [32]
-0.0037302033 -0.23080195 -0.014699281 -0.2086458 0.09765118 -0.28334236 -0.1861207 -0.3681418
0.28423074 -0.007214308 -0.2526535 -0.3119089 -0.25855595 -0.0010429441 0.10002339 0.15435326
0.1437446 -0.00024734627 -0.011761229 -0.1455849 -0.030911565 -0.13881989 0.11441525 0.17834298
-0.03988299 -0.094630785 -0.23721991 -0.19710924 0.31924948 -0.36380628 -0.014378382 -0.13799852
00000000: 6d76 74bb 5957 6cbe 41d5 70bc 3fa7 55be
00000010: 58fd c73d 4012 91be 6d96 3ebe 157d bcbe
00000020: b186 913e 0066 ecbb cd5b 81be 86b2 9fbe
00000030: 7261 84be 66b3 88ba 10d9 cc3d c80e 1e3e
00000040: c931 133e 41ae 81b9 2bb2 40bc 3514 15be
00000050: 403a fdbc cd26 0ebe 8b52 ea3d 8b9f 363e
00000060: 595c 23bd c9cd c1bd c7e9 72be 01d7 49be
00000070: ab74 a33e d144 babe 4e93 6bbc 7c4f 0dbe

bn.running_var f4 [32]
0.09593309 0.072072156 0.059281737 0.06596232 0.065865226 0.09123719 0.089956805 0.1006591
0.068844385 0.060457192 0.062180117 0.09327087 0.06932538 0.018214844 0.037226368 0.03236208
0.047828607 0.024006208 0.04811335 0.07383026 0.061893214 0.07922362 0.051438697 0.063659795
0.037407547 0.0453117 0.058006573 0.05497237 0.05010926 0.07490978 0.043613724 0.02673774
00000000: 9178 c43d 919a 933d 68d1 723d 4117 873d
00000010: 59e4 863d 90da ba3d 463b b83d 5c26 ce3d
00000020: 49fe 8c3d f6a1 773d 94b0 7e3d cc04 bf3d
00000030: 77fa 8d3d 4c37 953c ad7a 183d 1a8e 043d
00000040: eee7 433d aba8 c43c 8112 453d 5234 973d
00000050: bd83 7d3d fe3f a23d 62b1 523d 1160 823d
00000060: a838 193d c398 393d 4d98 6d3d b52a 613d
00000070: 5e3f 4d3d 4c6a 993d 4ea4 323d 1b09 db3c

residual_layers.0.conv1.weight f4 [32, 32, 3]
-0.08376969 -0.06439109 0.053868607 0.08233749 -0.09286523 -0.088497885 -0.076293774 0.065804735
-0.007676156 -0.09738418 -0.057155944 0.034596164 0.014553632 -0.030450726 0.081941 -0.06461863
0.09652799 -0.057127908 0.09679221 -0.007219916 -0.004643824 0.027783846 0.09078155 -0.077818245
-0.053197183 -0.0074060303 0.066485785 0.027282806 0.01284122 -0.03467179 0.051759675 -0.025701564
0.051571224 -0.038269445 0.06411952 0.027558707 -0.038501915 0.057550337 -0.08437299 -0.016324753
0.034495074 -0.0948922 -0.09985098 0.06736998 0.08742254 0.0068821264 0.085871756 -0.039869882
-0.034558017 -0.016914397 0.052057326 -0.06637143 0.0022665802 -0.06622274 -0.0777286 0.0012752651
-0.09644193 -0.077071674 0.012173489 -0.017022556 0.10372705 0.09628094 -0.06215612 -0.0053630173
-0.11156687 -0.024650628 -0.058622885 -0.025445478 0.041464657 -0.017064173 0.00861031 0.053351402
0.027250739 0.09156855 0.027410442 -0.09302378 0.093079306 0.09083522 -0.07057698 -0.008471785
0.060738634 -0.07428746 0.019830031 -0.008712529 0.056219306 -0.08714052 0.020679992 0.09107202
-0.08017837 0.045102928 -0.007227349 0.019292824 0.03632992 -0.08860979 -0.02259229 -0.06265764
-0.06647426 -0.043040764 0.0551499 -0.1051762 -0.067212954 -0.097753786 -0.042675745 -0.05047882
-0.0008083875 -0.0024468976 0.08209907 0.030410055 0.1099544 -0.02701057 -0.034483034 0.025172638
-0.021746852 -0.031218724 0.046180725 -0.043339793 0.102895014 0.082591176 -0.08082284 0.08347575
-0.0021737213 0.09290512 0.058703534 -0.042288512 -0.028873809 -0.08009301 0.024676118 -0.08543665
0.07735629 0.073548205 0.028820891 -0.094442956 -0.025351975 -0.054396734 0.044566814 0.088976175
0.029693238 0.06478271 0.055462863 0.037877053 0.08638446 0.08848442 -0.09428093 0.07669393
-0.06600634 0.07854963 0.09937809 -0.031988855 -0.02190049 -0.05912329 -0.067019284 -0.046087626
-0.08825259 0.07887217 -0.07877996 0.07759207 0.09166313 0.006181755 0.017696502 0.06736808
-0.022989757 0.008650793 0.006790726 0.0097278 -0.058403395 -0.08362183 0.10278229 0.011865809
0.025456687 -0.036382206 0.016983815 -0.087565854 -0.090346724 -0.025828358 -0.09479906 0.07726079
0.004518409 -0.09648425 0.041913353 -0.040152747 0.061715737 0.034506135 -0.08243524 0.0038854168
0.08515984 0.06783694 -0.0318242 -0.013888263 -0.0019442762 -0.05420124 0.08412892 -0.044005167
-0.04149769 0.08132674 0.008979447 0.050124742 -0.05238801 0.05832975 -0.01608036 0.0357824
-0.09834474 -0.036372848 0.032853793 -0.038118962 -0.0016138506 -0.09179181 0.023780646 0.071052745
0.023359524 0.0812395 -0.022382718 0.052132856 -0.058199935 0.059180688 0.02020034 0.03354565
-0.028282002 -0.08739663 -0.035512093 0.031929124 0.04718021 0.023662949 0.10179632 -0.09428208
0.052550796 -0.003945852 -0.0785533 -0.102974005 -0.059299767 0.09649161 0.047349997 0.042950775
-0.05087011 -0.062097598 -0.040597502 -0.08173202 -0.033961512 -0.096554145 0.052667126 -0.09507498
-0.043147873 0.019848153 0.0496386 -0.08074101 0.081413195 -0.079813436 -0.01297019 -0.08957543
0.03428532 -0.10210942 0.027093513 0.10357877 -0.08529522 0.090249375 0.08255623 -0.04489936
00000000: 718f abbd 7adf 83bd 54a5 5c3d 8fa0 a83d
00000010: 2030 bebd 613e b5bd e93f 9cbd a2c4 863d
00000020: 4388 fbbb 5b71 c7bd 5a1c 6abd b5b4 0d3d
00000030: 5b72 6e3c cd73 f9bc afd0 a73d c656 84bd
00000040: 78b0 c53d f4fe 69bd ff3a c63d 0c95 ecbb
00000050: 382b 98bb f39a e33c adeb b93d 2c5f 9fbd
00000060: 4ae5 59bd 49ae f2bb b329 883d 3180 df3c
00000070: fb63 523c 0204 0ebd f401 543d 168c d2bc
00000080: 593c 533d 6cc0 1cbd 1851 833d ccc2 e13c
00000090: 2fb4 1dbd e7b9 6b3d bfcb acbd 7dbb 85bc
000000a0: b54a 0d3d d756 c2bd ac7e ccbd 46f9 893d
000000b0: 970a b33d 7683 e13b 88dd af3d 9a4e 23bd
000000c0: b58c 0dbd 1090 8abc 103a 553d bfed 87bd
000000d0: e88a 143b ca9f 87bd 2c30 9fbd cc26 a73a
000000e0: 5983 c5bd c1d7 9dbd 5073 473c e372 8bbc
000000f0: d96e d43d f12e c53d 6a97 7ebd 40bc afbb
00000100: 2c7d e4bd 1df0 c9bc 8d1e 70bd 0973 d0bc
00000110: d8d6 293d 2aca 8bbc 4212 0d3c 0087 5a3d
00000120: f13c df3c 4b88 bb3d dd8b e03c 4083 bebd
00000130: 5da0 be3d d107 ba3d aa8a 90bd 3ecd 0abc
00000140: 13c9 783d 0624 98bd 9772 a23c ffbe 0ebc
00000150: 3746 663d bb76 b2bd 1669 a93c f883 ba3d
00000160: 8f34 a4bd d9bd 383d 66d3 ecbb fc0b 9e3c
00000170: afce 143d 0d79 b5bd 7713 b9bc a652 80bd
00000180: a823 88bd 834b 30bd dde4 613d 9f66 d7bd
00000190: f2a6 89bd 2333 c8bd c3cc 2ebd e1c2 4ebd
000001a0: f7e9 53ba 215c 20bb 8f23 a83d 821e f93c
000001b0: c62f e13d 4545 ddbc 153e 0dbd d936 ce3c
000001c0: 7426 b2bc 69be ffbc 0028 3d3d 1185 31bd
000001d0: 9fba d23d 9025 a93d 7286 a5bd 56f5 aa3d
000001e0: fe74 0ebb 0a45 be3d 1e73 703d b836 2dbd
000001f0: c488 ecbc ce07 a4bd 9225 ca3c 69f9 aebd
00000200: f96c 9e3d 71a0 963d ca19 ec3c 4f6b c1bd
00000210: f2ae cfbc 1ccf 5ebd b18b 363d 2439 b63d
00000220: 3c3f f33c ccac 843d 072d 633d f824 1b3d
00000230: 56ea b03d 5237 b53d 5c16 c1bd b511 9d3d
00000240: 552e 87bd a1de a03d bd86 cb3d bf06 03bd
00000250: a868 b3bc 432b 72bd 6841 89bd 61c6 3cbd
00000260: c6bd b4bd bb87 a13d 6357 a1bd 97e8 9e3d
00000270: e1b9 bb3d 5290 ca3b 41f8 903c 47f8 893d
00000280: 0455 bcbc 0ebc 0d3c bd84 de3b 5a61 1f3c
00000290: 6638 6fbd ec41 abbd 857f d23d cf68 423c
000002a0: 8b8a d03c 8205 15bd a421 8b3c ba55 b3bd
000002b0: b407 b9bd fe95 d3bc 0226 c2bd e83a 9e3d
000002c0: 290f 943b 8999 c5bd 56ad 2b3d 3577 24bd
000002d0: a4c9 7c3d 4e56 0d3d cfd3 a8bd 7aa2 7e3b
000002e0: 4868 ae3d 18ee 8a3d 185a 02bd 998b 63bc
000002f0: 15d7 feba 1f02 5ebd c94b ac3d c33e 34bd
00000300: 7bf9 29bd a28e a63d 881e 133c 9a4f 4d3d
00000310: cf94 56bd 2deb 6e3d f6ba 83bc 9190 123d
00000320: f868 c9bd b2fb 14bd b391 063d a122 1cbd
00000330: d787 d3ba 58fd bbbd a1cf c23c 1a84 913d
00000340: 795c bf3c e560 a63d f65b b7bc 4389 553d
00000350: 0e63 6ebd 7367 723d 2f7b a53c 2a67 093d
00000360: a8af e7bc 01fd b2bd 2175 11bd 1dc8 023d
00000370: 0940 413d cdd8 c13c 977a d03d f716 c1bd
00000380: 813f 573d 354c 81bb 8de0 a0bd 09e4 d2bd
00000390: 50e4 72bd 659d c53d 12f2 413d 27ed 2f3d
000003a0: 2d5d 50bd 0d5a 7ebd 9149 26bd 1e63 a7bd
000003b0: 3a1b 0bbd 2ebe c5bd 7cb9 573d acb6 c2bd
000003c0: d3bb 30bd 9898 a23c d851 4b3d 8b5b a5bd
000003d0: f6bb a63d 3a75 a3bd eb80 54bc 5373 b7bd
000003e0: c46e 0c3d be1e d1bd 37f3 dd3c 1b21 d43d
000003f0: 43af aebd aad4 b83d 3e13 a93d 64e8 37bd

residual_layers.0.conv1.bias f4 [32]
0.011217569 -0.05688575 -0.01649973 0.08507666 0.07387166 -0.058305826 0.009300487 -0.010675531
0.014263914 0.0010478696 -0.08984993 -0.060281593 -0.1006616 0.030420998 -0.012317799 0.053651504
-0.048008554 0.036452446 -0.03000492 0.018679535 -0.033818282 0.013531099 -0.022420611 0.023633052
-0.024053628 -0.004573431 -0.09666891 -0.00344319 -0.093420975 -0.08437761 -0.08193555 0.09356862
00000000: e5c9 373c 0801 69bd 712a 87bc ac3c ae3d
00000010: 064a 973d 17d2 6ebd 1261 183c 6ce8 2ebc
00000020: 31b3 693c ab58 893a 3d03 b8bd d5e9 76bd
00000030: ab27 cebd 7535 f93c 98d0 49bc aec1 5b3d
00000040: 9ea4 44bd 294f 153d e1cc f5bc d305 993c
00000050: 0a85 0abd 8bb1 5d3c 6eab b7bc 1a9a c13c
00000060: 1d0c c5bc b8dc 95bb 59fa c5bd 24a7 61bb
00000070: 7f53 bfbd 2bce acbd d3cd a7bd e8a0 bf3d

residual_layers.0.bn1.weight f4 [32]
0.9992334 0.9999252 1.0079409 0.9919717 1.0040574 1.0008631 1.0076443 1.0032351
0.99930066 1.0005145 0.9984886 1.0002179 1.0010266 1.0053856 0.9969455 1.0044038
0.99002236 0.9962871 0.9956288 1.0002568 1.0028433 1.0031599 0.9936152 0.99889696
0.99853987 0.99553 0.9973895 1.0046928 0.99927896 1.0012162 0.99354184 0.99934775
00000000: c3cd 7f3f 19fb 7f3f 3504 813f dbf1 7d3f
00000010: f484 803f 481c 803f 7dfa 803f 026a 803f
00000020: 2bd2 7f3f dc10 803f f39c 7f3f 2407 803f
00000030: a421 803f 7ab0 803f d237 7f3f 4e90 803f
00000040: 1b72 7d3f ac0c 7f3f 87e1 7e3f 6a08 803f
00000050: 2b5d 803f 8b67 803f 915d 7e3f b6b7 7f3f
00000060: 4fa0 7f3f 0edb 7e3f eb54 7f3f c699 803f
00000070: bfd0 7f3f da27 803f c258 7e3f 41d5 7f3f

residual_layers.0.bn1.bias f4 [32]
0.012998344 0.010669238 0.0031515115 0.008190554 0.009402776 -0.0008005896 0.00320896 0.0025826637
-0.009059401 0.0026717857 -0.0029354873 0.011987023 -0.00033324366 -0.00859961 -0.003227142 0.007719061
-0.0073481863 -0.010265409 -0.0007788589 0.0080484245 0.009987447 0.007980377 -2.5500949e-05 -0.009480154
0.0009211826 0.006734595 -0.003254483 0.008960878 -0.0049408884 -0.012494974 -0.0005868553 -0.0046654195
00000000: 02f7 543c 07ce 2e3c 9789 4e3b ac31 063c
00000010: 1a0e 1a3c a9de 51ba 6a4d 523b e841 293b
00000020: e26d 14bc 2019 2f3b 4e61 40bb 3865 443c
00000030: 35b7 aeb9 61e5 0cbc 757e 53bb 2df0 fc3b
00000040: 0ec9 f0bb 3f30 28bc 562c 4cba 8add 033c
00000050: 64a2 233c 21c0 023c dfea d5b7 a652 1bbc
00000060: 857b 713a e1ad dc3b 2a49 55bb a5d0 123c
00000070: 2de7 a1bb b8b7 4cbc 31d7 19ba 60e0 98bb

residual_layers.0.bn1.running_mean f4 [32]
-0.12671584 0.023067541 -0.16292317 -0.0036847314 -0.08516735 0.06823345 -0.13566732 -0.24156153
-0.0034698204 0.09047455 -0.45040113 0.09476844 -0.109381884 -0.19657189 0.22925843 -0.09929358
0.1990734 0.29157466 -0.02201291 0.032583058 -0.38970768 -0.18994957 0.168474 -0.06283384
0.05258619 -0.15004358 -0.28834695 0.26494342 -0.2991785 -0.11022314 0.1796598 -0.002757535
00000000: ccc1 01be 24f8 bc3c 55d5 26be 897b 71bb
00000010: 386c aebd fbbd 8b3d 60ec 0abe e85b 77be
00000020: ed65 63bb b94a b93d fa9a e6be f515 c23d
00000030: 9c03 e0bd 244a 49be b9c2 6a3e 6f5a cbbd
00000040: e6d9 4b3e 4649 953e 6b54 b4bc d075 053d
00000050: c487 c7be 2482 42be 7384 2c3e 07af 80bd
00000060: 9e64 573d 06a5 19be 36a2 93be aaa6 873e
00000070: ed2d 99be abbc e1bd bdf8 373e c3b7 34bb

residual_layers.0.bn1.running_var f4 [32]
0.13333525 0.124208786 0.13139698 0.050379097 0.066729054 0.07018771 0.14678018 0.21661015
0.114067204 0.15744345 0.12810825 0.07613084 0.06469122 0.090789355 0.064007565 0.0978105
0.11302641 0.08344558 0.063796304 0.07270347 0.22278397 0.08747465 0.13176589 0.13004439
0.09410259 0.046421386 0.14825183 0.120915316 0.121123716 0.09579284 0.075029865 0.088272974
00000000: 0989 083e 2d61 fe3d ee8c 063e 505a 4e3d
00000010: 3ea9 883d 93be 8f3d 8b4d 163e 0dcf 5d3e
00000020: 119c e93d db38 213e cf2e 033e 7cea 9b3d
00000030: d57c 843d c5ef b93d 6616 833d df50 c83d
00000040: 647a e73d 84e5 aa3d a3a7 823d 8fe5 943d
00000050: 7b21 643e e925 b33d a3ed 063e 5b2a 053e
00000060: dcb8 c03d 5a24 3e3d 54cf 173e 73a2 f73d
00000070: b60f f83d 092f c43d 42a9 993d 76c8 b43d

residual_layers.0.conv2.weight f4 [32, 32, 3]
0.050928414 0.029519223 0.050119553 0.059100978 0.101555414 0.001504787 0.015603647 -0.097703464
-0.020617338 0.03846371 -0.08417829 0.05112529 0.044010203 0.03548015 -0.059733704 -0.06687341
-0.08792091 0.024820805 -0.008823231 0.028749667 -0.064326406 0.0430918 -0.10097391 0.0840311
0.10262435 0.09232521 -0.090461165 0.041904908 0.01797192 -0.070918195 0.051291924 -0.05376953
0.0054093944 0.07887573 -0.07444638 0.0043935473 0.08456096 -0.0038515674 -0.095416605 -0.042919457
-0.0582644 -0.016620694 -0.05711037 0.00898497 -0.012811863 0.0400343 -0.004003311 0.050305016
0.037067518 0.05295967 0.06477245 0.051023982 -0.02553903 0.006980615 -0.04873307 -0.00093448
-0.07531694 0.06859083 0.081314735 0.026213992 -0.08776372 -9.991062e-05 -0.054689895 0.10081515
0.056096654 0.008270271 -0.05205181 -0.002626658 0.043106046 -0.041777108 -0.067971095 -0.08653123
0.0551709 -0.10049801 -0.09705122 0.063542485 -0.10856255 -0.08589751 -0.0119704055 0.05905754
0.030150404 0.00063881354 -0.069340184 0.07458784 0.068735495 0.030067774 0.047878 0.09225007
0.011340606 -0.080634944 0.013240965 -0.08160961 0.031262483 -0.064899676 -0.076845504 0.010246641
-0.073769175 -0.082350545 0.03655704 0.0025901517 -0.05454257 -0.06315904 0.060162943 -0.06284535
0.025742272 0.009907267 -0.01490624 0.08905321 0.018574689 -0.055777036 0.029471915 0.045497335
-0.046449266 0.053803507 0.07096845 -0.012019401 0.054872833 0.037598908 0.037697285 0.045137953
0.071410514 0.07201399 -0.024975698 0.040976785 -0.089701585 0.023029845 -0.10695089 -0.07735259
-0.037637904 -0.05252304 -0.066156335 0.026131973 -0.054136347 -0.017114973 -0.078404374 0.007641645
0.0797475 -0.0962867 -0.079538636 0.047566626 0.064568266 0.016682342 -0.063826144 -0.022363475
0.025853496 0.095437005 0.024937298 -0.0243369 -0.062766515 0.046020955 -0.03249124 -0.034313362
-0.03155752 0.033895835 0.012379686 0.061658286 -0.082034566 -0.027727712 -0.05401402 -0.026037201
0.107968934 -0.08673498 0.009625581 0.003917006 -0.07942704 -0.019962035 0.04465016 0.041751746
-0.04116496 0.076621056 -0.052471805 0.10209878 -0.02614219 0.027421404 -0.019298727 -0.09819755
0.08583975 0.039234854 -0.082393795 0.023577854 0.014465681 0.010237619 0.01835192 -0.024144005
-0.055464517 -0.02260889 -0.06574098 0.076885134 0.07492342 -0.10113987 0.008491064 -0.09343715
0.07428397 0.033823762 -0.03461958 -0.063045666 -0.019271519 0.061460935 -0.009205174 0.08820367
-0.10006742 0.08130527 -0.092492566 -0.071402684 -0.076756015 0.09739088 0.030733924 0.059754446
0.046430126 -0.0534752 -0.035417408 0.10139662 -0.04833037 0.052115586 0.035387717 0.078432985
-0.06558945 0.0199507 -0.04062778 -0.09283273 0.064205706 -0.08067955 0.040965553 -0.09485832
-0.050639052 0.0067858053 0.061260242 0.09241765 0.025244167 -0.032036472 -0.010302825 0.07848507
0.003925635 -0.06970496 -0.021770425 -0.064126335 -0.0066552027 0.097915925 0.047568288 -0.017703503
-0.02646161 0.053741135 -0.04767042 0.0014911714 0.102559924 -0.055484567 0.08841573 -0.09467839
-0.023532998 -0.015732327 -0.09101997 -0.037583552 0.07429772 0.024875594 -0.0457654 0.09708672
00000000: 509a 503d 4cd2 f13c 294a 4d3d de13 723d
00000010: 49fc cf3d 463c c53a 70a6 7f3c c118 c8bd
00000020: b1e5 a8bc 208c 1d3d ab65 acbd c168 513d
00000030: 0b44 343d a253 113d 54ab 74bd edf4 88bd
00000040: e10f b4bd 0055 cb3c 508f 10bc 6c84 eb3c
00000050: 90bd 83bd 0781 303d 69cb cebd 7f18 ac3d
00000060: b72c d23d 0015 bd3d b443 b9bd 7ba4 2b3d
00000070: d939 933c 8f3d 91bd 7b17 523d 703d 5cbd
00000080: 4a41 b13b 9989 a13d 5877 98bd bff7 8f3b
00000090: 4c2e ad3d 946a 7cbb c869 c3bd 50cc 2fbd
000000a0: a7a6 6ebd 1f28 88bc 90ec 69bd b235 133c
000000b0: d9e8 51bc 02fb 233d 352e 83bb a20c 4e3d
000000c0: 1cd4 173d 3dec 583d 6ba7 843d 86fe 503d
000000d0: 3a37 d1bc a5bd e43b 549c 47bd e4f7 74ba
000000e0: c53f 9abd 5979 8c3d 5788 a63d babe d63c
000000f0: 77bd b3bd 1b87 d1b8 8302 60bd 2c78 ce3d
00000100: 9bc5 653d 0880 073c 4734 55bd 0224 2cbb
00000110: f78f 303d 791e 2bbd 6e34 8bbd 4937 b1bd
00000120: e2fa 613d e7d1 cdbd cac2 c6bd 9022 823d
00000130: 0b56 debd 09eb afbd 851f 44bc 52e6 713d
00000140: fbfd f63c 0d76 273a 3a02 8ebd 82c1 983d
00000150: 32c5 8c3d b150 f63c b91b 443d 9bed bc3d
00000160: f3cd 393c ef23 a5bd a2f0 583c f022 a7bd
00000170: 170d 003d 1fea 84bd 2d61 9dbd 87e1 273c
00000180: 4b14 97bd 67a7 a8bd d6bc 153d 89bf 293b
00000190: 0868 5fbd 8759 81bd 6b6d 763d 10b5 80bd
000001a0: 75e1 d23c 1752 223c 4d39 74bc 8861 b63d
000001b0: f229 983c 7676 64bd 166f f13c 6a5b 3a3d
000001c0: 9641 3ebd 1161 5c3d e857 913d 06ed 44bc
000001d0: 56c2 603d 5001 1a3d 7868 1a3d 93e2 383d
000001e0: ad3f 923d 127c 933d d699 ccbc 46d7 273d
000001f0: 77b5 b7bd 16a9 bc3c 1109 dbbd 096b 9ebd
00000200: 342a 1abd 6622 57bd f97c 87bd b812 d63c
00000210: 13be 5dbd b334 8cbc 7992 a0bd c466 fa3b
00000220: a852 a33d f631 c5bd 27e5 a2bd 39d5 423d
00000230: 5e3c 843d 68a9 883c 48b7 82bd 9b33 b7bc
00000240: b6ca d33c 7a74 c33d 4e49 cc3c 2e5e c7bc
00000250: bb8b 80bd 7880 3c3d 8915 05bd 2b8c 0cbd
00000260: 7542 01bd 5cd6 0a3d 2bd4 4a3c 668d 7c3d
00000270: bd01 a8bd 3a25 e3bc ce3d 5dbd f84b d5bc
00000280: d11e dd3d 1ca2 b1bd 9db4 1d3c 3a5a 803b
00000290: a5aa a2bd 6c87 a3bc 16e3 363d e103 2b3d
000002a0: 979c 28bd 80eb 9c3d adec 56bd 2a19 d13d
000002b0: 2528 d6bc daa2 e03c 5d18 9ebc cc1b c9bd
000002c0: c0cc af3d bab4 203d 14be a8bd 5826 c13c
000002d0: 7701 6d3c b0bb 273c c456 963c a6c9 c5bc
000002e0: c32e 63bd 4736 b9bc 35a3 86bd f475 9d3d
000002f0: 7371 993d 6c22 cfbd 1b1e 0b3c fa5b bfbd
00000300: 3222 983d c98a 0a3d 43cd 0dbd 161e 81bd
00000310: 4edf 9dbc 76be 7b3d 4cd1 16bc 20a4 b43d
00000320: 26f0 ccbd 6183 a63d be6c bdbd 923b 92bd
00000330: 4232 9dbd df74 c73d b6c5 fb3c 14c1 743d
00000340: 842d 3e3d d008 5bbd d811 11bd 08a9 cf3d
00000350: 11f6 45bd 2777 553d b6f2 103d 79a1 a03d
00000360: c353 86bd a76f a33c 5169 26bd 161f bebd
00000370: 487e 833d 523b a5bd 7fcb 273d 1445 c2bd
00000380: e56a 4fbd 765b de3b 05ec 7a3d 7745 bd3d
00000390: dbcc ce3c ad38 03bd 2ecd 28bc c8bc a03d
000003a0: 9da2 803b 79c1 8ebd e457 b2bc ab54 83bd
000003b0: e313 dabb 2588 c83d f7d6 423d f006 91bc
000003c0: 05c6 d8bc aa1f 5c3d 0f42 43bd 6973 c33a
000003d0: f00a d23d c943 63bd 4e13 b53d bee6 c1bd
000003e0: 46c8 c0bc 15e1 80bc ae68 babd 36f1 19bd
000003f0: 6729 983d e7c7 cb3c 8074 3bbd 67d5 c63d

residual_layers.0.conv2.bias f4 [32]
-0.097363934 -0.061702155 0.07521372 0.04766112 -0.011921463 0.08627939 0.0492709 -0.051492877
-0.070595615 0.031422 0.09520864 0.0071063167 0.022723777 -0.079679936 0.06691296 -0.059492663
0.07922474 -0.035476383 0.060654446 -0.0027086795 0.05676097 -0.08583211 0.0066050407 0.09649066
-0.031889442 -0.07551305 -0.06220904 -0.06669753 -0.069073126 0.009136272 0.01789902 0.033006456
00000000: be66 c7bd 66bb 7cbd a709 9a3d 4e38 433d
00000010: 3d52 43bc 40b3 b03d 49d0 493d 32ea 52bd
00000020: 6f94 90bd 5bb4 003d bffc c23d 1bdc e83b
00000030: 3727 ba3c 3c2f a3bd a909 893d 94ae 73bd
00000040: 9540 a23d af4f 11bd cc70 783d 1a84 31bb
00000050: 317e 683d bfc8 afbd 196f d83b e59c c53d
00000060: 819e 02bd 96a6 9abd e8ce 7ebd b798 88bd
00000070: 3676 8dbd 4db0 153c f7a0 923c c731 073d

residual_layers.0.bn2.weight f4 [32]
0.99545425 0.988991 0.99974674 1.0018258 1.0043947 1.00344 0.99939513 0.99845845
0.99750024 1.0012456 0.9939472 0.9885163 0.9976855 1.0064448 1.0060089 0.9969145
0.99583644 0.99978566 1.0022556 0.98365235 1.0059137 0.99731964 0.9853507 1.0007232
1.003415 1.001175 0.989957 1.0013478 1.0031949 0.997826 0.9945171 0.997134
00000000: 17d6 7e3f 842e 7d3f 67ef 7f3f d43b 803f
00000010: 0190 803f b970 803f 5cd8 7f3f f99a 7f3f
00000020: 2d5c 7f3f d128 803f 5373 7e3f 670f 7d3f
00000030: 5168 7f3f 2fd3 803f e6c4 803f ca35 7f3f
00000040: 23ef 7e3f f4f1 7f3f e949 803f a4d0 7b3f
00000050: c8c1 803f 5750 7f3f f23f 7c3f b317 803f
00000060: e76f 803f 8126 803f d26d 7d3f 2a2c 803f
00000070: b168 803f 8671 7f3f ac98 7e3f 2c44 7f3f

residual_layers.0.bn2.bias f4 [32]
-0.0070103244 -0.020022197 -0.007535276 -0.005503501 -0.008070884 -0.0014365662 0.0041197897 -0.008534029
-0.0035900616 0.003330613 -0.004373647 -0.0070967115 -0.0060516996 0.013001036 -0.011011942 0.0016472151
-0.010308954 0.008931683 -0.0009078781 -0.0043097953 0.014397861 0.0016361924 0.0048191138 0.00068388856
-0.006067672 0.0066011064 -0.006354895 0.0067292014 -0.0062206984 -0.0011037885 0.004222343 0.007889118
00000000: ddb6 e5bb 9705 a4bc 7aea f6bb b656 b4bb
00000010: be3b 04bc 2a4b bcba 4dff 863b 50d2 0bbc
00000020: 3d47 6bbb 6a46 5a3b cf50 8fbb 888b e8bb
00000030: 564d c6bb 4c02 553c 6f6b 34bc 5ee7 d73a
00000040: e3e6 28bc 3256 123c abfe 6dba 2f39 8dbb
00000050: 02e5 6b3c 8275 d63a a8e9 9d3b fc46 333a
00000060: 52d3 c6bb 184e d83b b93c d0bb a280 dc3b
00000070: 00d7 cbbb ffac 90ba 955b 8a3b 5c41 013c

residual_layers.0.bn2.running_mean f4 [32]
-0.11663964 -0.23603497 0.40939724 0.16653669 0.19430116 -0.22962181 -0.015992839 -0.21477284
0.41049474 0.54008865 0.11574447 -0.08056314 0.27450326 -0.010207072 0.3510531 -0.020411665
0.5394013 0.23899423 -0.033574574 0.02583456 0.041546796 -0.25345692 0.12997906 -0.056242507
-0.21623974 -0.00051594 -0.10127063 0.32726932 -0.29248467 0.15713187 -0.21586442 0.32450396
00000000: c3e0 eebd 27b3 71be 849c d13e 9888 2a3e
00000010: e2f6 463e fb21 6bbe 6a03 83bc 69ed 5bbe
00000020: 5e2c d23e 4043 0a3f 700b ed3d 4afe a4bd
00000030: b18b 8c3e 903b 27bc 3bbd b33e 5d36 a7bc
00000040: 3416 0a3f e7ba 743e 7e85 09bd 00a3 d33c
00000050: f92c 2a3d 1bc5 81be 3b19 053e 8b5e 66bd
00000060: f36d 5dbe 2640 07ba fa66 cfbd d88f a73e
00000070: 8dc0 95be 2de7 203e 900b 5dbe 6225 a63e

residual_layers.0.bn2.running_var f4 [32]
0.13603844 0.10946804 0.09703839 0.11080642 0.10828743 0.09894231 0.07750726 0.12684545
0.1427073 0.16959581 0.09850656 0.07738107 0.07050925 0.12948094 0.11976867 0.098511524
0.08460693 0.1110777 0.07129203 0.12824309 0.1638649 0.11461127 0.111224964 0.11995645
0.18077724 0.09517091 0.10892947 0.11066613 0.10966253 0.091820136 0.15246561 0.10644442
00000000: a94d 0b3e c830 e03d 10bc c63d 7aee e23d
00000010: cdc5 dd3d 44a2 ca3d 20bc 9e3d c6e3 013e
00000020: dd21 123e 86aa 2d3e cfbd c93d f779 9e3d
00000030: 2767 903d a796 043e 4749 f53d 69c0 c93d
00000040: 6646 ad3d b57c e33d 8e01 923d 2852 033e
00000050: 33cc 273e 50b9 ea3d eac9 e33d baab f53d
00000060: ab1d 393e f7e8 c23d 6a16 df3d eda4 e23d
00000070: c096 e03d 320c bc3d f21f 1c3e 88ff d93d

residual_layers.1.conv1.weight f4 [32, 32, 3]
0.07295448 -0.023087887 -0.029447732 0.09004279 -0.02540838 0.054953422 -0.002766621 -0.0996523
0.007398135 -0.0383311 -0.08285263 0.083843745 -0.013583028 -0.023365825 -0.052839283 0.010893201
0.07281554 -0.109872244 -0.056710783 -0.09467781 -0.052892804 0.049770243 -0.027969895 -0.066002466
0.09403976 0.07486254 0.064705044 -0.03011621 0.006609041 0.078717835 0.0579818 -0.020983336
-0.09884203 -0.035716232 -0.020811688 -0.0030319393 0.09521292 0.094517164 0.0628942 0.04550789
-0.065743856 0.04183092 -0.08435357 -0.03709182 0.07063636 0.0747076 0.081643015 -0.053173717
-0.07203292 0.06166975 -0.06670271 0.031914484 -0.043820024 -0.062955186 -0.01566954 -0.05657917
-0.0044579753 0.015353961 0.03265139 -0.022738053 0.055032663 0.080348924 -0.01144745 -0.0059832763
0.09383837 -0.004577847 -0.0467958 0.09930775 0.06604136 0.022689734 0.07731412 0.080025814
0.07434253 -0.0786857 -0.080804616 -0.018483149 0.0023439818 0.06698858 -0.08077482 -0.10171681
-0.06979367 0.054675635 -0.0047840974 -0.064014226 -0.04238469 -0.0004589324 0.028834013 0.034021635
-0.08587313 0.03481039 0.07128661 -0.088151105 0.048001166 0.03251224 -0.05357589 0.052864928
0.009845681 0.013043666 -0.06861408 -0.08630556 -0.09263513 -0.06583228 0.0657373 -0.062852725
0.05735428 0.07396416 0.009842441 0.045191165 -0.03830632 0.011086821 -0.074570425 -0.05982476
-0.093817174 -0.110898 -0.026388885 -0.028132694 0.0691683 -0.034274023 0.10065801 -0.032948896
0.03529125 0.06049214 -0.030344678 0.09000121 0.05377571 0.0169572 0.079845585 -0.022618497
-0.03986792 -0.014690046 -0.023602212 0.041408096 0.086432606 -0.0494259 -0.029410379 -0.0066413665
0.091177225 0.0858352 0.077324 0.02756148 0.021186387 0.042323437 -0.09934356 -0.055985432
-0.09186365 0.019719338 0.067633346 0.09727638 0.04050688 -0.023559399 -0.01566708 -0.03353993
-0.04402339 -0.030320082 -0.06901536 -0.007963582 -0.10011101 -0.015476687 -0.040902644 0.04263206
-0.04009116 -0.088847116 -0.020666933 -0.055572398 -0.09878814 0.07855047 -0.073872745 0.0303579
-0.0845287 0.093110695 0.007313582 -0.030262481 -0.057866037 0.06575953 -0.04705091 -0.09311532
-0.077271566 0.046070218 -0.07785359 0.04958328 0.008704972 -0.07888832 -0.06939825 -0.08236551
-0.04251996 0.072507836 0.046324167 0.04273516 -0.05136727 -0.08187223 -0.054240044 0.10303831
0.057711896 0.047069527 0.085841164 0.056549024 -0.013144719 0.07493753 0.066055216 -0.008811614
-0.04266026 0.08860102 0.006622314 -0.06415231 -0.03637594 0.06319436 -0.069959626 -0.037475012
0.00016350072 0.019972805 -0.08651303 -0.015176758 -0.090471 -0.0037612328 0.060038697 -0.039918043
0.033441722 -0.070532374 0.018903615 -0.0133449165 0.08234583 -0.04484836 -0.051483594 -0.058852673
0.06488685 -0.039500393 -0.005614282 0.024660459 -0.074411735 0.06899921 0.029075777 0.09541539
-0.046034586 0.004611114 0.029994901 0.0018630894 -0.0827802 0.030836603 -0.004708014 0.06927447
-0.004613991 -0.043228026 0.092499755 -0.06953698 0.06664962 0.07680777 0.015358326 -0.059873823
0.055320997 0.09367381 0.02340336 -0.093073726 0.03571117 0.015504982 -0.037196163 0.05570621
00000000: 2969 953d cf22 bdbc 5f3c f1bc 5b68 b83d
00000010: 3c25 d0bc d716 613d 3350 35bb 8116 ccbd
00000020: 0e6c f23b 1201 1dbd a4ae a9bd 45b6 ab3d
00000030: 598b 5ebc b069 bfbc 016e 58bd 6679 323c
00000040: 5020 953d b304 e1bd 9149 68bd 71e6 c1bd
00000050: 20a6 58bd e2db 4b3d 1f21 e5bc 4d2c 87bd
00000060: eb97 c03d 8851 993d 1484 843d 45b6 f6bc
00000070: a790 d83b d136 a13d 537e 6d3d 3fe5 abbc
00000080: b16d cabd 2f4b 12bd 467d aabc 80b3 46bb
00000090: fefe c23d 3792 c13d adce 803d 7b66 3a3d
000000a0: b7a4 86bd e656 2b3d 91c1 acbd 98ed 17bd
000000b0: cca9 903d 4c00 993d 7434 a73d afcc 59bd
000000c0: ff85 93bd 6b99 7c3d 6e9b 88bd c3b8 023d
000000d0: a07c 33bd a6ee 80bd 685d 80bc 8fbf 67bd
000000e0: 3514 92bb 2e8f 7b3c 77bd 053d 2745 babc
000000f0: ee69 613d fa8d a43d 168e 3bbc 5c0f c4bb
00000100: 552e c03d c401 96bb f4ac 3fbd dd61 cb3d
00000110: b140 873d d2df b93c de56 9e3d 93e4 a33d
00000120: e540 983d f825 a1bd e47c a5bd f969 97bc
00000130: 7d9d 193b 4f31 893d 456d a5bd e750 d0bd
00000140: fcef 8ebd 8ff3 5f3d ebc3 9cbb e419 83bd
00000150: 929b 2dbd dd9c f0b9 4f35 ec3c 455a 0b3d
00000160: 40de afbd 5795 0e3d b7fe 913d 9188 b4bd
00000170: df9c 443d 8e2b 053d 6472 5bbd e588 583d
00000180: c74f 213c 1ab5 553c 8a85 8cbd f8c0 b0bd
00000190: 7db7 bdbd 13d3 86bd 47a1 863d eeb8 80bd
000001a0: 52ec 6a3d 867a 973d 3142 213c 5f1a 393d
000001b0: 16e7 1cbd 7fa5 353c 61b8 98bd cf0a 75bd
000001c0: 3823 c0bd 7e1e e3bd 812d d8bc 8976 e6bc
000001d0: 1ca8 8d3d eb62 0cbd c925 ce3d 6cf5 06bd
000001e0: 8f8d 103d 9bc6 773d 6795 f8bc 8e52 b83d
000001f0: eb43 5c3d d3e9 8a3c 1586 a33d 6d4a b9bc
00000200: 8b4c 23bd 85ae 70bc 6d59 c1bc 899b 293d
00000210: 9403 b13d d072 4abd 09ee f0bc d29f d9bb
00000220: 20bb ba3d 5eca af3d 0c5c 9e3d 9dc8 e13c
00000230: 138f ad3c 575b 2d3d a374 cbbd fb50 65bd
00000240: 0223 bcbd 738a a13c 5a83 8a3d d738 c73d
00000250: 8bea 253d a4ff c0bc 4058 80bc 2a61 09bd
00000260: df51 34bd d261 f8bc ed57 8dbd af79 02bc
00000270: 0007 cdbd ee91 7dbc 8889 27bd f49e 2e3d
00000280: a136 24bd 7af5 b5bd b34d a9bc e29f 63bd
00000290: 7051 cabd 12df a03d 984a 97bd 21b1 f83c
000002a0: 621d adbd d2b0 be3d c6a6 ef3b 06e9 f7bc
000002b0: f004 6dbd efac 863d 74b8 40bd 3fb3 bebd
000002c0: 8e40 9ebd 20b4 3c3d b471 9fbd d617 4b3d
000002d0: 4d9f 0e3c 3390 a1bd ab20 8ebd 40af a8bd
000002e0: 6929 2ebd fd7e 943d 69be 3d3d 100b 2f3d
000002f0: 7d66 52bd a1ac a7bd cf2a 5ebd c005 d33d
00000300: 4f63 6c3d facb 403d 7ecd af3d f39f 673d
00000310: f35c 57bc d978 993d f547 873d 965e 10bc
00000320: 86bc 2ebd 7474 b53d ffff d83b 4962 83bd
00000330: f0fe 14bd 0b6c 813d fe46 8fbd 667f 19bd
00000340: 6471 2b39 029e a33c be2d b1bd f0a7 78bc
00000350: dc48 b9bd 047f 76bb 23eb 753d 1a81 23bd
00000360: 30fa 083d 4773 90bd c1db 9a3c a3a4 5abc
00000370: eea4 a83d eab2 37bd 76e0 52bd 800f 71bd
00000380: 66e3 843d 2acb 21bd 03f8 b7bb bb04 ca3c
00000390: 2e65 98bd 754f 8d3d 5330 ee3c 2569 c33d
000003a0: c38e 3cbd d418 973b deb7 f53c e832 f43a
000003b0: aa88 a9bd 0b9d fc3c af45 9abb c6df 8d3d
000003c0: f630 97bb df0f 31bd 8370 bd3d 6769 8ebd
000003d0: 997f 883d 644d 9d3d 7da1 7b3c 413e 75bd
000003e0: 4598 623d 0ed8 bf3d 67b8 bf3c 709d bebd
000003f0: e045 123d 9c08 7e3c 015b 18bd 322c 643d

residual_layers.1.conv1.bias f4 [32]
0.07567192 0.093709216 0.008050395 -0.047196697 0.014155633 -0.012003499 0.033142094 -0.092348985
-0.032503027 0.04848596 -0.011956103 -0.011181281 0.09210893 0.059454568 0.001940824 -0.00281348
0.0034706572 0.09495273 -0.049047604 -0.05468427 -0.06735062 -0.077122666 0.058819223 0.005351419
-0.071688145 0.050441127 -0.04291498 -0.09897235 -0.065178804 -0.012330384 -0.07911784 0.067686744
00000000: e1f9 9a3d 9eea bf3d cee5 033c 5351 41bd
00000010: 07ed 673c 53aa 44bc 01c0 073d 7721 bdbd
00000020: e521 05bd 3799 463d 88e3 43bc b131 37bc
00000030: 9ba3 bc3d a286 733d 3f63 fe3a 5d62 38bb
00000040: f773 633b 9476 c23d 24e6 48bd 9dfc 5fbd
00000050: 1fef 89bd 7df2 9dbd 6dec 703d f55a af3b
00000060: 3cd1 92bd 5b9b 4e3d 9ec7 2fbd 04b2 cabd
00000070: 777c 85bd 6105 4abc 8908 a2bd 599f 8a3d

residual_layers.1.bn1.weight f4 [32]
0.99820846 0.99817103 1.0085737 1.0007493 1.0018542 1.0010864 1.0055375 0.9928979
1.0057164 0.9918942 1.0071696 1.0000229 0.99772084 0.99910134 0.9897693 0.99653256
1.0021975 0.9986744 1.0017908 1.0001707 1.0035889 0.99105716 0.9975343 0.9976721
1.0001795 1.0020154 0.99851733 0.994222 0.99343556 1.0119629 0.99921554 1.0040241
00000000: 978a 7f3f 2388 7f3f f118 813f 8e18 803f
00000010: c23c 803f 9923 803f 74b5 803f 8f2e 7e3f
00000020: 51bb 803f c7ec 7d3f efea 803f c000 803f
00000030: a26a 7f3f 1bc5 7f3f 8561 7d3f c21c 7f3f
00000040: 0248 803f 20a9 7f3f ae3a 803f 9805 803f
00000050: 9a75 803f ecb5 7d3f 685e 7f3f 7067 7f3f
00000060: e205 803f 0a42 803f d59e 7f3f 5585 7e3f
00000070: cb51 7e3f 0088 813f 97cc 7f3f dd83 803f

residual_layers.1.bn1.bias f4 [32]
0.010037991 -0.003338685 -0.0021505714 0.019571217 -0.009699038 0.019517083 0.0058786892 0.0061086304
0.00579565 -0.008470739 0.014442599 -0.009852788 -0.005451693 0.0054978975 -0.0016474179 0.018501338
0.0015298929 0.012989239 -0.00020334774 0.0045335223 0.005943617 -0.0028243596 -0.004706695 0.00964351
0.0018582768 0.011409567 -0.0019811767 -0.010547031 -0.0050304616 -0.0066468255 -0.00069683563 0.0062858947
00000000: 6376 243c d7cd 5abb 9af0 0cbb d153 a03c
00000010: b7e8 1ebc 4ae2 9f3c 05a2 c03b e82a c83b
00000020: 70e9 bd3b dbc8 0abc a7a0 6c3c 976d 21bc
00000030: 1ea4 b2bb b527 b43b 2cee d7ba 1e90 973c
00000040: b086 c83a d1d0 543c be39 55b9 f18d 943b
00000050: acc2 c23b e418 39bb 9f3a 9abb d0ff 1d3c
00000060: 6c91 f33a 31ef 3a3c a1d6 01bb 74cd 2cbc
00000070: 92d6 a4bb 9dcd d9bb d9ab 36ba e8f9 cd3b

residual_layers.1.bn1.running_mean f4 [32]
0.19031872 -0.5113315 -0.21940441 0.04511518 -0.25330073 -0.23548388 -0.33767322 -0.45506617
0.22550468 -0.43965614 -0.26485023 -0.230111 0.28337926 0.10214027 -0.23716587 0.21419425
0.2146958 -0.037396993 -0.2612809 -0.106165744 0.7695991 -0.62956095 0.3309179 0.33429095
-0.3373494 -0.009278158 0.4169316 -0.30993003 0.14963588 -0.13565664 -0.22857112 0.66107863
00000000: e9e2 423e 9fe6 02bf 8dab 60be b2ca 383d
00000010: a2b0 81be b022 71be 81e3 acbe 6ffe e8be
00000020: b3ea 663e 9c1a e1be 739a 87be 38a2 6bbe
00000030: 1617 913e eb2e d13d 9cdb 72be bd55 5b3e
00000040: 37d9 5b3e 972d 19bd 9cc6 85be 6d6d d9bd
00000050: 7204 453f e82a 21bf 126e a93e 2f28 ab3e
00000060: 10b9 acbe 6a03 18bc 0f78 d53e 26af 9ebe
00000070: 263a 193e 93e9 0abe 8c0e 6abe 733c 293f

residual_layers.1.bn1.running_var f4 [32]
0.16883194 0.4085216 0.2077017 0.22629923 0.3284761 0.25924933 0.30825675 0.19561294
0.21514164 0.20792283 0.2476265 0.18167154 0.2123625 0.22607054 0.2165263 0.3985094
0.22527164 0.32964393 0.2565644 0.18496151 0.28641412 0.14622998 0.18673323 0.3147049
0.21687488 0.17220059 0.27355 0.28597045 0.2884528 0.20082927 0.23702371 0.23014502
00000000: 48e2 2c3e be29 d13e c1af 543e fcba 673e
00000010: 052e a83e 54bc 843e d4d3 9d3e c24e 483e
00000020: 174e 5c3e b9e9 543e cd91 7d3e 1b08 3a3e
00000030: 8e75 593e 097f 673e 12b9 5d3e 6d09 cc3e
00000040: 9cad 663e 17c7 a83e 695c 833e 8d66 3d3e
00000050: dfa4 923e 50bd 153e ff36 3f3e 0021 a13e
00000060: 7314 5e3e 5a55 303e bf0e 8c3e b86a 923e
00000070: 16b0 933e 30a6 4d3e 58b6 723e 23ab 6b3e

residual_layers.1.conv2.weight f4 [32, 32, 3]
0.060550373 -0.0072797197 0.0378392 -0.049175486 0.042649664 0.08670547 0.040073257 0.09677858
-0.03995859 0.081958964 0.07478849 -0.09403677 -0.033264402 0.06134951 -0.052104525 -0.079126306
-0.06240765 0.0051893666 0.031115415 -0.04544726 0.053248964 -0.012206589 0.03159519 0.07708536
-0.0865242 -0.0926274 0.072546065 -0.010790145 0.04462949 0.084455304 0.07429709 -0.061093967
-0.08778141 0.07318576 -0.00063580245 0.054384235 -0.0983268 -0.0706 -0.07540849 0.01266633
0.022239309 -0.0768999 0.07184191 0.05979495 -0.049638357 -0.01773155 -0.0012687936 -0.000120741715
0.095982105 -0.053458557 0.052745305 0.09890888 0.07560586 0.10824142 -0.058080487 0.1092768
-0.09000404 0.024796741 0.008259033 -0.016198127 0.01975029 0.07891229 0.02774413 0.033589553
0.07933812 -0.041744564 -0.053370897 0.0053988458 -0.022720572 0.025198784 0.08416841 0.035814174
0.008614148 0.10178071 -0.0031991983 0.09487497 0.094828635 0.074697286 -0.083815455 -0.059907448
0.09889537 -0.07124472 0.011405434 0.07585596 0.053695362 0.04160969 -0.09158528 -0.06553888
-0.010840059 -0.06468731 -0.08847276 0.0017470785 -0.097008094 0.057811495 0.071274035 0.046606503
0.00035360132 -0.0155414315 -0.06033954 0.0037338869 0.07035702 -0.03872973 0.071656495 -0.043095518
-0.018845938 -0.051893614 -0.070602864 -0.02099309 -0.04458404 -0.047166526 -0.011084551 0.0022591788
0.08346381 -0.040598392 0.06442158 0.10517638 0.06984825 0.0347824 0.086752124 -0.10237522
0.100160725 0.048698213 -0.101251125 0.072024405 0.05799108 0.053065203 -0.003783949 -0.07438888
0.0016305019 -0.007458751 -0.07258708 -0.048137806 0.039500915 -0.007313287 0.059565827 -0.008935062
-0.080903456 0.014667895 0.0987808 0.0485343 0.027153276 -0.09784082 -0.028399108 0.061043844
-0.04038991 0.008943822 0.031115644 -0.032462776 -0.02219709 -0.09111416 -0.039717708 0.016324848
0.0068011256 -0.1049333 0.010873044 -0.05815174 -0.026490042 0.06905323 -0.028164284 -0.040730637
-0.057255343 0.0007005385 -0.043871667 0.08232248 0.03492977 0.029153246 0.08069953 -0.058460925
-0.060354207 0.046528943 -0.054883674 -0.05662906 0.05321263 -0.08456115 0.10166674 -0.04480612
0.065219 -0.033806838 -0.07375306 0.025935793 -0.04890492 -0.029578382 0.037805162 0.064809054
0.039883804 -0.04494898 -0.057977494 0.058245108 -0.045466993 0.09682861 0.05858662 0.056223534
0.0074615288 -0.008961028 0.019027881 -0.055329476 0.08955194 0.09464181 -0.052727226 0.018729959
0.05847614 -0.055452347 0.071618915 0.08024083 0.0074276566 -0.10192018 -0.057028994 -0.100980595
0.0044814777 -0.0089755375 -0.020174952 -0.034393463 -0.09601825 0.0932705 -0.03777184 -0.0153789995
0.049709808 -0.050273016 0.030407319 0.08472624 -0.05253011 -0.06013484 -0.077720284 -0.052247472
-0.057171132 0.034156322 -0.012478529 -0.019601893 -0.026291538 -0.0052424413 0.03954585 -0.05458593
-0.029022148 -0.041466407 0.03504946 0.012941804 -0.09112738 -0.061995458 -0.0842704 -0.03608368
0.06685797 -0.032832824 0.042505898 -0.030763475 -0.06752284 0.056490414 0.056413524 0.013648422
-0.014430079 0.019719144 -0.061742555 0.06784579 0.10549979 0.0059724227 -0.016622774 -0.08161876
00000000: ab03 783d b78a eebb 47fd 1a3d 3c6c 49bd
00000010: 6ab1 2e3d a392 b13d db23 243d d933 c63d
00000020: 9eab 23bd 1ada a73d b52a 993d 5a96 c0bd
00000030: 4140 08bd a049 7b3d 8e6b 55bd f90c a2bd
00000040: 2a9f 7fbd 900b aa3b c1e5 fe3c e826 3abd
00000050: 961b 5a3d 25fe 47bc f569 013d eede 9d3d
00000060: 9a33 b1bd 6fb3 bdbd 0893 943d 26c9 30bc
00000070: 69cd 363d e7f6 ac3d 1329 983d ab3d 7abd
00000080: bdc6 b3bd 6ae2 953d fbab 26ba 01c2 5e3d
00000090: 905f c9bd bc96 90bd c46f 9abd 7086 4f3c
000000a0: 362f b63c b27d 9dbd da21 933d 8deb 743d
000000b0: 9751 4bbd c141 91bc a64d a6ba b736 fdb8
000000c0: 4492 c43d 5cf7 5abd 760b 583d bd90 ca3d
000000d0: 3fd7 9a3d adad dd3d cee5 6dbd 84cc df3d
000000e0: 0a54 b8bd 8922 cb3c e550 073c efb1 84bc
000000f0: 5ccb a13c c49c a13d a847 e33c 3395 093d
00000100: 067c a23d 59fc 2abd 719b 5abd cde8 b03b
00000110: 7e20 babc ae6d ce3c 7d60 ac3d e2b1 123d
00000120: 5b22 0d3c 6872 d03d a4a9 51bb cf4d c23d
00000130: 8435 c23d e4fa 983d 70a7 abbd 8361 75bd
00000140: a889 ca3d c0e8 91bd dcdd 3a3c 5f5a 9b3d
00000150: abef 5b3d ec6e 2a3d 1091 bbbd 4039 86bd
00000160: 819a 31bc c87a 84bd 3531 b5bd 3afe e43a
00000170: 2eac c6bd bfcb 6c3d 1ff8 913d 76e6 3e3d
00000180: 9163 b939 7da1 7ebc 9826 77bd 3ab4 743b
00000190: 5717 903d 11a3 1ebd a4c0 923d ed84 30bd
000001a0: cc62 9abc 668e 54bd 3c98 90bd b3f9 abbc
000001b0: c19d 36bd b031 41bd fa9b 35bc bb0e 143b
000001c0: 13ef aa3d 804a 26bd 76ef 833d b766 d73d
000001d0: 990c 8f3d fd77 0e3d 19ab b13d 19aa d1bd
000001e0: 1121 cd3d c777 473d c05c cfbd 8881 933d
000001f0: 0e88 6d3d e65a 593d 21fc 77bb 3259 98bd
00000200: 91b6 d53a 8a68 f4bb 89a8 94bd 262c 45bd
00000210: b6cb 213d 4ca4 efbb 4cfb 733d 5e64 12bc
00000220: b6b0 a5bd 9c51 703c 974d ca3d e7cb 463d
00000230: 8c70 de3c c560 c8bd 3fa5 e8bc 1c09 7a3d
00000240: e46f 25bd 1c89 123c 3ce6 fe3c b0f7 04bd
00000250: acd6 b5bc 109a babd 09af 22bd b0bb 853c
00000260: fadb de3b 45e7 d6bd da24 323c 8530 6ebd
00000270: a501 d9bc c86b 8d3d c9b8 e6bc 2bd5 26bd
00000280: 9484 6abd 58a4 373a c7b2 33bd b098 a83d
00000290: 8512 0f3d cad2 ee3c cc45 a53d b974 6fbd
000002a0: f935 77bd 2295 3e3d b4cd 60bd e0f3 67bd
000002b0: 7df5 593d 652e adbd a736 d03d 9f86 37bd
000002c0: 8a91 853d 0a79 0abd d80b 97bd 4d77 d43c
000002d0: 8750 48bd 5d4e f2bc 96d9 1a3d 9cba 843d
000002e0: 335d 233d 6c1c 38bd cf79 6dbd 6c92 6e3d
000002f0: 993b 3abd 144e c63d 86f8 6f3d a64a 663d
00000300: d77f f43b 47d1 12bc 5ce0 9b3c 29a1 62bd
00000310: 0267 b73d 91d3 c13d 81f8 57bd 926f 993c
00000320: ad84 6f3d 0022 63bd f0ac 923d 4e55 a43d
00000330: b363 f33b 87bb d0bd 3c97 69bd eace cebd
00000340: 5cd9 923b 220e 13bc f145 a5bc 29e0 0cbd
00000350: 37a5 c4bd 9b04 bf3d a5b6 1abd 33f8 7bbc
00000360: 839c 4b3d 14eb 4dbd c518 f93c f384 ad3d
00000370: d029 57bd f34f 76bd d02b 9fbd 7201 56bd
00000380: 472c 6abd 80e7 0b3d be72 4cbc 2694 a0bc
00000390: 5a61 d7bc c9c8 abbb d4fa 213d 7f95 5fbd
000003a0: dbbf edbc aed8 29bd 0690 0f3d dc09 543c
000003b0: fea0 babd f3ee 7dbd f695 acbd 7bcc 13bd
000003c0: d5ec 883d b67b 06bd aa1a 2e3d af03 fcbc
000003d0: 6a49 8abd 7e62 673d de11 673d a29d 5f3c
000003e0: 236c 6cbc 0b8a a13c c3e5 7cbd bcf2 8a3d
000003f0: 4610 d83d 50b4 c33b 7c2c 88bc bd27 a7bd

residual_layers.1.conv2.bias f4 [32]
-0.009139076 -0.051193338 0.100764446 -0.05394229 0.08211795 0.033546444 -0.03753449 -0.0395268
-0.04129844 -0.048094828 0.08618488 0.031366233 -0.049677737 -0.069608234 -0.08225482 -0.009812083
-0.05960038 0.030659553 -0.0701185 0.019276079 -0.009068286 -0.08752489 -0.016828148 -0.008099645
0.081299156 -0.03806705 0.09548582 0.0013671692 -0.087984286 -0.078488074 -0.058057785 0.0989334
00000000: 10bc 15bc 1bb0 51bd 975d ce3d 97f2 5cbd
00000010: 752d a83d ff67 093d c4bd 19bd dbe6 21bd
00000020: 8e28 29bd 15ff 44bd b381 b03d e179 003d
00000030: e27a 4bbd c38e 8ebd 3775 a8bd dcc2 20bc
00000040: 871f 74bd be29 fb3c 4a9a 8fbd dee8 9d3c
00000050: 2693 14bc 4040 b3bd 2fdb 89bc 60b4 04bc
00000060: 2c80 a63d 32ec 1bbd 128e c33d 9632 b33a
00000070: 1b31 b4bd 5bbe a0bd 00ce 6dbd 989d ca3d

residual_layers.1.bn2.weight f4 [32]
0.9911046 1.0011461 0.99298054 0.9956999 1.0056702 0.9987743 1.000264 0.9906041
0.9811381 1.0011743 0.9900838 0.98892397 1.0013311 0.9855226 0.99562556 0.9982718
1.0119542 0.99692464 0.9902652 0.99591976 1.0029458 1.0016433 0.98990405 0.9983304
0.9909857 1.0064343 0.9874247 0.98644376 1.0103384 1.0005891 1.0037224 0.99226165
00000000: 08b9 7d3f 8e25 803f f933 7e3f 30e6 7e3f
00000010: cdb9 803f acaf 7f3f a708 803f 3b98 7d3f
00000020: de2b 7b3f 7b26 803f 2276 7d3f 1f2a 7d3f
00000030: 9e2b 803f 364b 7c3f 51e1 7e3f be8e 7f3f
00000040: b787 813f 7436 7f3f 0582 7d3f 99f4 7e3f
00000050: 8760 803f d935 803f 5a6a 7d3f 9592 7f3f
00000060: 3db1 7d3f d7d2 803f ddc7 7c3f 9487 7c3f
00000070: c552 813f 4e13 803f fa79 803f dc04 7e3f

residual_layers.1.bn2.bias f4 [32]
-0.00301307 -0.028423628 -0.0095674805 -0.011948787 0.009328577 0.009212076 -0.00096681 -0.012442678
-0.00023351674 -0.005610156 -0.0111944815 -0.0072880164 -0.006532422 0.0033409048 -0.009409084 -0.0048231613
-0.0006925819 0.00848228 0.0025712484 -0.007873733 0.012122623 -0.018860541 -0.00482343 -0.004005782
-0.0084210215 -0.0044816607 -0.023757031 0.0043628537 -0.003212736 -0.016208163 -0.0012201346 -0.0046874466
00000000: ed76 45bb abd8 e8bc ecc0 1cbc d8c4 43bc
00000010: e3d6 183c 3fee 163c 8571 7dba 60dc 4bbc
00000020: 2cdc 74b9 66d5 b7bb 0f69 37bc 50d0 eebb
00000030: ed0d d6bb 15f3 5a3b 8f28 1abc 9c0b 9ebb
00000040: 628e 35ba 43f9 0a3c 6482 283b d400 01bc
00000050: f79d 463c 6c81 9abc dd0d 9ebb ef42 83bb
00000060: 53f8 09bc e5da 92bb 1b9e c2bc 45f6 8e3b
00000070: c48c 52bb fbc6 84bc ecec 9fba 2799 99bb

residual_layers.1.bn2.running_mean f4 [32]
0.38478258 -0.066925764 -0.27339828 -0.4077729 -0.06646308 0.20872219 0.11164108 -0.2505727
-0.27396268 -0.21683319 0.2098332 0.26472816 -0.031063877 -0.23050782 -0.010860932 0.22257999
-0.26979336 0.23528434 0.019925369 0.62566394 -0.31334049 -0.48556697 0.17022339 0.34245414
-0.11787198 -0.12237823 -0.43991256 -0.1860602 -0.0024529807 -0.13653089 0.00029244894 -0.03601553
00000000: 3902 c53e 6010 89bd dcfa 8bbe 9cc7 d0be
00000010: cc1d 88bd 45bb 553e 14a4 e43d 114b 80be
00000020: d644 8cbe 8509 5ebe 84de 563e 738a 873e
00000030: ac79 febc 3e0a 6cbe 0df2 31bc 02ec 633e
00000040: 5b22 8abe 61ee 703e 873a a33c 832b 203f
00000050: 2a6e a0be 3c9c f8be 0a4f 2e3e 2656 af3e
00000060: dd66 f1bd 70a1 fabd 383c e1be 9186 3ebe
00000070: 30c2 20bb c1ce 0bbe d553 9939 0585 13bd
