ckpts/SpliceAI_SSD/Glycine_max.pth (torch, 556307 bytes, 223 tensors)

conv1.weight f4 [32, 4, 3]
0	0x3d5b8ddc	0.053602085
1	0xbc8398e6	-0.016064119
2	0xbe912e70	-0.28355742
3	0xbe8eee26	-0.27916068
4	0xbe336125	-0.17517526
5	0x3e3a75db	0.18209021
6	0xbcc6cce8	-0.024267629
7	0xbdb17d43	-0.0866647
8	0xbe5803ea	-0.21095243
9	0x3e671379	0.22566022
10	0x3df37214	0.11886993
11	0xbc1a268e	-0.009408606
12	0x3e3b9596	0.18318781
13	0x3e7d9e64	0.24767452
14	0xbe11de3f	-0.14244936
15	0xbdd1827e	-0.102299675
16	0xbd066426	-0.032810353
17	0xbe1d5f0a	-0.15368286
18	0x3e2f6251	0.17127348
19	0x3e45639c	0.19276279
20	0xbe2c7cc8	-0.16844475
21	0x3e0193f3	0.12654094
22	0xbe7a2195	-0.24426873
23	0x3d880378	0.066412866
24	0xbe2930ef	-0.16522573
25	0xbdd02822	-0.10163905
26	0xbd74fb6a	-0.05981008
27	0xbe146141	-0.14490224
28	0xbe1e171e	-0.15438506
29	0x3e85a0bd	0.26099196
30	0x3e758a7f	0.23978613
31	0x3d05ca39	0.032663558
32	0x3e8ea234	0.27858126
33	0xbdfa868b	-0.12232693
34	0xbe7c9786	-0.24667177
35	0xbe0c9098	-0.13727033
36	0x3c9b5237	0.018960102
37	0xbdd857eb	-0.10563644
38	0x3dd32fbf	0.10311841
39	0xbe3b5392	-0.18293598
40	0x3e5a08ba	0.21292391
41	0x3e82842d	0.25491467
42	0x3d660777	0.056159463
43	0x3e64c807	0.2234193
44	0xbe8fd31d	-0.28090754
45	0x3d9fccaa	0.078027084
46	0x3b11f52f	0.0022271385
47	0x3e538167	0.20654832
48	0xbe713c8e	-0.23558256
49	0xbe6d0797	-0.23147427
50	0xbe4b0d8d	-0.19829388
51	0x3e56d2ad	0.20978804
52	0x3e177ae7	0.14792977
53	0xbe866a61	-0.26253036
54	0x3e845b80	0.2585106
55	0xbe6543c1	-0.22389127
56	0x3d8d2335	0.06891481
57	0xbe7911af	-0.24323152
58	0x3e85d9ae	0.2614264
59	0xbe525ce6	-0.2054325
60	0xbdc821fe	-0.097721085
61	0xbce400ea	-0.027832467
62	0xbdbd4e20	-0.09243417
63	0x3e06123b	0.13092892
64	0x3e50c206	0.20386514
65	0xbe0f989b	-0.14023058
66	0x3d09d840	0.033653498
67	0x3c8c7fa4	0.017150708
68	0x3e1d768c	0.15377253
69	0x3dc8aa5d	0.09798119
70	0x3b3314c9	0.0027325621
71	0xbdb86f88	-0.09005648
72	0xbe6669b7	-0.22501265
73	0x3dcf48f4	0.101213366
74	0xbe49784a	-0.19674793
75	0xbe91d6b7	-0.28484127
76	0x3e94ac94	0.29037917
77	0x3dec6ca1	0.11544157
78	0x3dc2e4a3	0.09516265
79	0x3d354158	0.04425177
80	0xbe82dddb	-0.25559887
81	0xbd88d053	-0.0668036
82	0xbe5fae44	-0.21843821
83	0x3e6e55bb	0.23274891
84	0xbe7be2fd	-0.24598308
85	0xbc2fb693	-0.010724681
86	0x3e87fee7	0.26561663
87	0xbd777ad5	-0.060419876
88	0xbe5d7877	-0.21627985
89	0x3c95cfd1	0.018287571
90	0xbdd6bff4	-0.10485831
91	0xbdbe87e9	-0.093032666
92	0x3dd25eff	0.10272025
93	0x3ddc2c6b	0.107506596
94	0x3de0f084	0.10983375
95	0xbe3e6b0c	-0.18595523
96	0xbe4993cd	-0.19685288
97	0xbcb1d2a6	-0.02170689
98	0x3d82c98d	0.06386099
99	0xbe103ae8	-0.14084971
100	0x3d94466c	0.072399944
101	0xbc0302e9	-0.007996299
102	0x3e78c396	0.2429336
103	0x3d9cd025	0.07656888
104	0xbd488f75	-0.048964936
105	0xbe832325	-0.2561275
106	0xbb577a1d	-0.0032879182
107	0x3dfc838e	0.123297796
108	0xbd9fee9c	-0.07809183
109	0x3dec3ede	0.115354285
110	0xbe96310b	-0.29334292
111	0xbe827f30	-0.2548766
112	0x3e3ed054	0.18634158
113	0xbe896482	-0.26834494
114	0xbe10d6fb	-0.14144509
115	0x3e89b9a1	0.26899436
116	0xbe8cf06b	-0.27527174
117	0x3e130b15	0.14359696
118	0x3dc1de7d	0.094662644
119	0x3e312fb2	0.1730335
120	0xbd3a88b3	-0.045540523
121	0xbdeca950	-0.11555731
122	0xbe8b0a5e	-0.27156347
123	0xbc8d2f98	-0.017234609
124	0x3ddcb37a	0.1077642
125	0x3d788f12	0.060683317
126	0x3e83f759	0.2577465
127	0x3e10641c	0.14100689
128	0xbe6096c5	-0.21932514
129	0x3e8d5348	0.276026
130	0xbe8cbc56	-0.2748744
131	0x3d3b18bc	0.045677885
132	0x3add80cc	0.0016899346
133	0x3e53edd3	0.20696191
134	0x3e3e0334	0.1855591
135	0x3e46d962	0.19418862
136	0xbd981ab1	-0.07426966
137	0xbba5fa42	-0.0050652334
138	0xbd38ed45	-0.045148153
139	0xbd692257	-0.056917515
140	0x3db2272c	0.08698878
141	0xbe0c4443	-0.13697915
142	0xbce30ca0	-0.027715981
143	0x3e493c47	0.196519
144	0x3d4604d9	0.048344467
145	0x3e826a28	0.25471616
146	0x3e1575c5	0.14595707
147	0x3d89a587	0.06721025
148	0xbce6caeb	-0.02817293
149	0xbdf8d90e	-0.12150775
150	0xbe1ae947	-0.1512805
151	0xbdf49d6a	-0.11944087
152	0xbe5ade7f	-0.21373938
153	0xbe665ee2	-0.22497132
154	0x3e26dba1	0.1629472
155	0x3c42628f	0.0118643185
156	0xbe4cb5de	-0.19991252
157	0xbe3cf641	-0.18453313
158	0xbe4b3e04	-0.19847876
159	0x3dd1c35c	0.1024234
160	0x3d702af7	0.058634724
161	0x3cd71d90	0.026259214
162	0x3e4acfd3	0.19805841
163	0x3e1dcee7	0.15410958
164	0xbd966eea	-0.07345374
165	0xbe219ee0	-0.15783262
166	0x3d0265df	0.031835433
167	0x3d5b3d63	0.05352534
168	0x3e263b56	0.16233572
169	0x3da75c1a	0.08171864
170	0xbe05b701	-0.13058092
171	0xbe3c0d90	-0.18364549
172	0xbe594755	-0.21218617
173	0xbe919973	-0.28437385
174	0x3df93f58	0.12170285
175	0xbded34ca	-0.11582334
176	0xbe38107b	-0.17975037
177	0x3e06cb6e	0.1316354
178	0xbe6e06ca	-0.23244777
179	0xbbbb0d40	-0.0057083666
180	0xbe0ac0d3	-0.13550119
181	0xbe3f6162	-0.18689492
182	0x3e9f243e	0.31082338
183	0xbe529cbc	-0.20567602
184	0xbd9e47e3	-0.07728555
185	0xbe1f5817	-0.15560947
186	0xbdb0ae47	-0.08626991
187	0x3e30dec1	0.17272474
188	0xbddc78ff	-0.10765266
189	0xbd69aa43	-0.05704714
190	0xbe874827	-0.26422235
191	0xbe1b2956	-0.15152487
192	0xbe3a8dca	-0.1821815
193	0x3dcf15e2	0.10111596
194	0xbe40ada4	-0.18816239
195	0x3e2c4ca1	0.16826107
196	0x3e7ca74b	0.24673192
197	0xbe43679e	-0.19082496
198	0x3e84f433	0.2596756
199	0x3e8c4b5e	0.2740125
200	0xbe4c1875	-0.19931205
201	0x3e58d87d	0.21176334
202	0xbe6c5d5d	-0.2308249
203	0xbde84672	-0.113415614
204	0x3d7c2fe7	0.06156912
205	0xbe0394d6	-0.12849745
206	0xbe5ef255	-0.2177213
207	0xbe30e0b9	-0.17273225
208	0xbe9c6290	-0.30543947
209	0x3dff298a	0.12459095
210	0x3dbc2637	0.091869764
211	0xbe224315	-0.15845902
212	0x3e5d6fd4	0.2162469
213	0x3ded1752	0.115767136
214	0x3e854f5a	0.26037103
215	0xbe7febf5	-0.24992354
216	0xbe86528e	-0.2623486
217	0xbe26afc9	-0.16277994
218	0xbdc786e3	-0.097425245
219	0x3d68423b	0.056703787
220	0xbd7dd9d9	-0.061975334
221	0x3e8aed88	0.27134347
222	0x3dec042d	0.11524234
223	0xbe8f7bf8	-0.28024268
224	0xbe04cc13	-0.12968473
225	0x3e803edd	0.2504796
226	0x3e78cf12	0.24297741
227	0xbe642694	-0.22280341
228	0xbe569369	-0.2095467
229	0xbe5c2653	-0.21498995
230	0x3e7b8de5	0.24565847
231	0x3de71292	0.11282839
232	0x3e325aef	0.17417501
233	0xbe69b3b9	-0.22822465
234	0x3da2b3a4	0.0794442
235	0x3e916248	0.28395295
236	0xbd649697	-0.055807676
237	0x3e2b7408	0.16743481
238	0x3d8b2118	0.067934215
239	0x3ddf860a	0.10914238
240	0x3e780895	0.24222024
241	0x3e0d4d4a	0.13799015
242	0xbe1350fa	-0.14386359
243	0x3d98d46d	0.07462392
244	0xbe643bca	-0.22288433
245	0xbe8ac84f	-0.27105948
246	0x3e3db1d0	0.18524861
247	0x3e7bde87	0.24596606
248	0x3dfc3f56	0.12316768
249	0x3e8adb82	0.27120596
250	0x3e2191d3	0.15778284
251	0x3c64be02	0.013961317
252	0xbe824b0e	-0.25447887
253	0xbe053fc8	-0.13012612
254	0xbde9fdb9	-0.11425347
255	0xbd63a56a	-0.055577673

conv1.bias f4 [32]
0	0x3e3003ae	0.17188904
1	0x3e7ffa58	0.24997842
2	0xbe6b0d10	-0.22954202
3	0xbe803ede	-0.25047964
4	0x3da3c7a6	0.07997064
5	0x3e1370e0	0.14398527
6	0xbe28dd66	-0.16490707
7	0x3c0c693e	0.008570014
8	0xbe5e91fb	-0.21735375
9	0xbc9b77c5	-0.018978009
10	0x3e89f268	0.26942754
11	0x3c89e679	0.01683353
12	0x3e44fc19	0.19236793
13	0x3d0c60e2	0.034272082
14	0xbe93c1ed	-0.2885889
15	0xbe44ef67	-0.1923195
16	0xbd563b18	-0.05230245
17	0x3cc9cf45	0.024634967
18	0xbd956202	-0.07294084
19	0xbdbb1f0e	-0.091367826
20	0x3e8bb0ac	0.27283227
21	0x3e708899	0.23489608
22	0x3e0dec56	0.13859686
23	0xbe309cdc	-0.17247337
24	0x3e326e81	0.17424966
25	0xbe5df704	-0.2167626
26	0xbc1969db	-0.009363617
27	0xbe144354	-0.14478809
28	0x3d88fc73	0.06688776
29	0x3da00d42	0.07815029
30	0x3e6f01f7	0.23340593
31	0xbe4485a2	-0.19191602

bn.weight f4 [32]
0	0x3f8053bf	1.0025557
1	0x3f7f0712	0.99620163
2	0x3f7dd8bf	0.99158853
3	0x3f800b88	1.0003519
4	0x3f80ca07	1.0061654
5	0x3f8022e8	1.0010653
6	0x3f7f6407	0.99762005
7	0x3f7fba62	0.9989377
8	0x3f7f9937	0.9984316
9	0x3f7ffef9	0.9999843
10	0x3f807b8d	1.0037705
11	0x3f7d0e0d	0.98849565
12	0x3f7dd87f	0.9915847
13	0x3f803f7e	1.0019376
14	0x3f7ef357	0.9959006
15	0x3f7f15d1	0.99642664
16	0x3f81e9ac	1.0149436
17	0x3f801de0	1.0009117
18	0x3f7fa7f7	0.9986567
19	0x3f7e95e5	0.9944747
20	0x3f7bc96e	0.9835423
21	0x3f7bc648	0.9834943
22	0x3f7dee7a	0.9919201
23	0x3f808550	1.0040684
24	0x3f80f508	1.0074778
25	0x3f7cee3d	0.9880102
26	0x3f7fd565	0.9993499
27	0x3f801913	1.0007652
28	0x3f8116fe	1.0085142
29	0x3f7f951b	0.9983689
30	0x3f808289	1.0039836
31	0x3f7e2d7a	0.9928814

bn.bias f4 [32]
0	0x3c36b560	0.011151642
1	0xb9f67ac8	-0.00047012256
2	0xbb4fa8b0	-0.003168624
3	0x3b9160e1	0.0044365977
4	0x3a749aec	0.00093309465
5	0x3b819d08	0.003955487
6	0x3c00c84e	0.007860256
7	0xbb0c0ef0	-0.0021371208
8	0x3b932fb4	0.0044917706
9	0x3aa23dbc	0.0012378017
10	0xbbe6ce04	-0.007043602
11	0x3c1239d5	0.008924921
12	0x3b10451e	0.0022013853
13	0x3c64bc1e	0.013960866
14	0x3bd7a118	0.006580483
15	0xbaadb700	-0.0013253391
16	0x3ccf1dd2	0.025282774
17	0xba9ada19	-0.0011814266
18	0xbbe5dfbe	-0.0070151975
19	0xbba81f6b	-0.0051306984
20	0xbc522b9b	-0.012827779
21	0xbb8f7c37	-0.0043788212
22	0xbbbb0258	-0.0057070665
23	0xbc7ce7a4	-0.015436087
24	0xbb0603a8	-0.0020448957
25	0xba3b4098	-0.0007143109
26	0x3b8c8fec	0.0042896178
27	0x3cee8864	0.02911777
28	0xbbb67063	-0.0055675968
29	0xbacbce6c	-0.0015549189
30	0xba17a41e	-0.0005784648
31	0xbc573e15	-0.01313736

bn.running_mean f4 [32]
0	0x3dcda283	0.10040762
1	0x3ea04886	0.3130533
2	0xbed50f09	-0.41613033
3	0xbdd46b67	-0.10372048
4	0xbe2b42d6	-0.16724715
5	0x3e1237e4	0.14279133
6	0xbe930a2f	-0.28718707
7	0xbd19eb0f	-0.037577685
8	0xbe8f4fcb	-0.27990565
9	0xbd4d531b	-0.050128084
10	0x3e4a812b	0.19775836
11	0x3e32186a	0.17392126
12	0x3e69b30e	0.2282221
13	0xbdd334ab	-0.1031278
14	0xbedbd05c	-0.42932403
15	0xbedb16af	-0.42790744
16	0xbdb90115	-0.090334095
17	0xbd7cf942	-0.06176115
18	0xbe25ea50	-0.16202664
19	0x3cc74497	0.024324698
20	0x3f04fa88	0.5194478
21	0x3edd0218	0.4316566
22	0x3e2aa004	0.16662604
23	0xbe23704d	-0.15960808
24	0x3e99c26a	0.3003114
25	0xbeb33c58	-0.35006976
26	0xbddb13ba	-0.10697122
27	0xbe722ca1	-0.23649837
28	0x3e1e2d62	0.15447
29	0x3e70ba45	0.23508556
30	0x3dc42ccd	0.095788576
31	0xbe8b0db1	-0.27158883

bn.running_var f4 [32]
0	0x3d914cc6	0.070947215
1	0x3d82ff81	0.0639639
2	0x3d8406d1	0.064466126
3	0x3d7adca5	0.06124558
4	0x3de613fb	0.1123428
5	0x3cc077dc	0.023494653
6	0x3db85f5a	0.09002562
7	0x3d8062e4	0.06268862
8	0x3d12252b	0.035679977
9	0x3d93952a	0.07206185
10	0x3d97e758	0.07417172
11	0x3d118efd	0.035536755
12	0x3d6d28b8	0.05790016
13	0x3d5baca9	0.05363146
14	0x3d2f4816	0.042793356
15	0x3d98888d	0.0744792
16	0x3d9d95ae	0.07694565
17	0x3dc8665e	0.0978515
18	0x3dee80fa	0.11645694
19	0x3db6eeb0	0.08932245
20	0x3d4cf5b1	0.050038997
21	0x3ded07e7	0.11573773
22	0x3da9157b	0.0825605
23	0x3d514847	0.05109432
24	0x3d823793	0.06358256
25	0x3d3944be	0.045231573
26	0x3d531bb6	0.0515401
27	0x3d9e8bba	0.077414945
28	0x3d1b360a	0.037893333
29	0x3d6f8f2c	0.05848615
30	0x3d54b2f1	0.051928464
31	0x3cb0849c	0.021547608

residual_layers.0.conv1.weight f4 [32, 32, 3]
0	0x3d732e2f	0.059370216
1	0x3c6e7d48	0.014556237
2	0x3dc56cc5	0.09639887
3	0xbc14254e	-0.009042097
4	0xbc550f28	-0.013004102
5	0xbc7c6135	-0.015404035
6	0x3dc180b1	0.09448374
7	0x3d64083f	0.055671927
8	0xbc9a806a	-0.01886006
9	0x3d8d7c74	0.06908503
10	0x3d6b39ae	0.057428055
11	0xbd3051a7	-0.04304662
12	0xbd986e98	-0.07442969
13	0x3dced3a8	0.10098964
14	0x3dc67c50	0.096916795
15	0xb84a9179	-4.8296035e-05
16	0xbd8b8a58	-0.06813496
17	0x3dbc9c90	0.092095494
18	0xbdd26d06	-0.10274701
19	0xbd96ca3c	-0.07362792
20	0xba944667	-0.0011312485
21	0xbd634aa8	-0.05549112
22	0x3d9b96a4	0.07597092
23	0xbd80b251	-0.06284011
24	0x3cd13268	0.02553673
25	0xbd04ee9d	-0.03245412
26	0xbd3463a6	-0.044040345
27	0xbd9a486d	-0.07533345
28	0xbd571ff8	-0.052520722
29	0x3da04a13	0.078266285
30	0xbd7d983d	-0.061912764
31	0x3d35bba9	0.04436842
32	0x3dc0e324	0.09418324
33	0xbdb96702	-0.0905285
34	0xbdca566b	-0.09879764
35	0x3ce574f3	0.028009867
36	0x3d42092c	0.04737203
37	0xbd2e0ce9	-0.04249278
38	0xbdb017a5	-0.0859826
39	0xbd4e730b	-0.050402682
40	0x3dca1b58	0.09868497
41	0xbce45f03	-0.027877336
42	0x3c771734	0.015081216
43	0xbc599e90	-0.013282433
44	0xbdc2310f	-0.094820134
45	0xbdb0741c	-0.08615896
46	0xbbff04b5	-0.0077825435
47	0xbd166a52	-0.03672249
48	0xbdd5a47a	-0.10431762
49	0x3d32605a	0.04354892
50	0xbc59fd79	-0.0133050615
51	0x3d8c761b	0.06858464
52	0xbccfc278	-0.025361285
53	0xbc4dc2e2	-0.012558671
54	0xbd9a40b7	-0.075318746
55	0x3d0de580	0.034642696
56	0xbca9a61e	-0.020709094
57	0xbc3b4ce5	-0.011431907
58	0x3d2cd45f	0.04219472
59	0x3d05d4a7	0.032673504
60	0x3d3eb8b9	0.046562884
61	0xbda8704e	-0.082245454
62	0xbd69bdc8	-0.057065755
63	0xbd785109	-0.060624156
64	0x3da4591a	0.08024807
65	0xbcec00a3	-0.028808897
66	0x3cd77cd8	0.026304647
67	0xbcb6d002	-0.022315983
68	0xbdb54e7f	-0.088528626
69	0x3d8c3056	0.06845157
70	0x3d9e0e90	0.07717621
71	0xbd82ac89	-0.06380565
72	0x3d201fa3	0.03909267
73	0x3d3aeb87	0.045634773
74	0xbda20dd7	-0.07912796
75	0x3d5fd45c	0.05464588
76	0x3cf5f5ba	0.030024398
77	0xbd116354	-0.035495117
78	0xbcf03814	-0.029323615
79	0xbd8ae3d4	-0.06781736
80	0xbda261f1	-0.07928837
81	0xbce151b8	-0.027504787
82	0xbc9c37be	-0.019069549
83	0x3d21f646	0.039541505
84	0xbc6de05d	-0.014518824
85	0xbd294863	-0.0413288
86	0xbd3f3804	-0.04668428
87	0xbc7c0439	-0.015381866
88	0xbc869229	-0.016427116
89	0xbc1e3616	-0.00965645
90	0x3ccbcb00	0.024877071
91	0x3da46579	0.08027167
92	0x3d7a906e	0.061172895
93	0xbd5f5c25	-0.054531235
94	0xbd9df9df	-0.07713675
95	0xbcd5e96e	-0.026112285
96	0x3ccb8c2d	0.024847114
97	0x3dce92c5	0.10086588
98	0xbd9725fc	-0.07380292
99	0xbd81d05d	-0.0633857
100	0xbd10707f	-0.035263535
101	0xbca44a52	-0.02005497
102	0x3db2d63c	0.08732268
103	0xbce37982	-0.0277679
104	0x3dbe1716	0.09281747
105	0xbd396363	-0.0452608
106	0x3cd8fd7a	0.026488055
107	0xbc1b63c3	-0.009484234
108	0xbd8c7605	-0.06858448
109	0x3d90088b	0.070328794
110	0xbd0f969b	-0.035055738
111	0xbcef7b68	-0.02923365
112	0x3c77b780	0.015119433
113	0x3dbced22	0.09224917
114	0x3d9c5fdd	0.07635472
115	0x3db037d2	0.08604397
116	0xbdc63d21	-0.09679628
117	0xbddfe70f	-0.10932743
118	0x3dbf8da9	0.093531914
119	0x3d18d284	0.03731014
120	0x3d24fcc5	0.040280122
121	0xbd010820	-0.03150189
122	0x3d88e284	0.066838294
123	0x3cd97cc1	0.026548745
124	0xbd287629	-0.04112831
125	0xbd53a49b	-0.051670652
126	0x3c405015	0.011737843
127	0x3c9c086b	0.019046983
128	0x3d228294	0.03967531
129	0xbd0a2703	-0.03372861
130	0x3ce1d1ef	0.027565924
131	0x3dc7a953	0.09749093
132	0x3db1bf1a	0.08679028
133	0xbbdde070	-0.00677114
134	0xbd40967e	-0.04701852
135	0xbd77836c	-0.060428068
136	0x3db6acdb	0.08919688
137	0x3db1e19d	0.086856104
138	0xbd5e5739	-0.0542824
139	0xbd9bbe8a	-0.07604702
140	0xbd0c9a60	-0.03432691
141	0x3d8569a9	0.06514294
142	0xbcd4c4c2	-0.025972728
143	0xb9f4d96f	-0.00046701307
144	0x3d125b49	0.035731588
145	0x3d4830a9	0.04887453
146	0xbb24e4d7	-0.0025160813
147	0x3bfb437f	0.0076679583
148	0x3bd37e93	0.006454298
149	0xbbd649d9	-0.006539565
150	0xbccd5b62	-0.025067989
151	0x3dabec2e	0.08394657
152	0x3d35e622	0.044408925
153	0xbd66d3d0	-0.056354344
154	0xbc3ab72f	-0.011396213
155	0x3dc4c3d3	0.09607663
156	0x3d246df1	0.04014391
157	0xbd5daa95	-0.054117758
158	0xbdd6bad4	-0.104848534
159	0x3dd535d2	0.10410656
160	0x3d1dcd8e	0.03852611
161	0xbd044f51	-0.032302205
162	0x3c782e68	0.015147783
163	0xbc82ad3f	-0.01595175
164	0xbd610735	-0.054938514
165	0xbc1b9936	-0.009496978
166	0x3d1fa0e6	0.038971804
167	0x3d844289	0.06458003
168	0x3d327c36	0.043575488
169	0x3ce9bf12	0.028533492
170	0xbd4031a2	-0.046922334
171	0xbd3b94ce	-0.045796208
172	0x3db93e6c	0.09045109
173	0xbdaf0abd	-0.0854697
174	0xbdcdb1cc	-0.10043678
175	0xbd7a4433	-0.061100196
176	0x3da706e8	0.08155614
177	0x3dad3466	0.0845726
178	0x3d84ddd4	0.06487623
179	0x3b739944	0.003717021
180	0x3c9f8125	0.01947076
181	0xbcb9037e	-0.022584673
182	0xbd78c33a	-0.060733058
183	0x3db4141a	0.087928966
184	0x3da2d262	0.079502836
185	0xbdd73cba	-0.105096295
186	0xbd64bed1	-0.05584604
187	0x3d08b59f	0.033376332
188	0x3bd1f4bb	0.006407348
189	0xbcdf6d4d	-0.027273798
190	0xbd35e865	-0.04441108
191	0xbbb32a26	-0.005467671
192	0x3d8caa18	0.0686838
193	0xbd7b5ca2	-0.06136764
194	0xbbbb481e	-0.005715384
195	0x3d9cd4f6	0.076578066
196	0x3c19e716	0.009393474
197	0xbd2720ff	-0.040802952
198	0x3d1aaf3e	0.03776478
199	0xbd99a880	-0.07502842
200	0x3d31e212	0.043428488
201	0xbc423bd5	-0.011855085
202	0x3c63a0f2	0.013893353
203	0x3d338f45	0.043837804
204	0xbd682ed5	-0.056685288
205	0xbd92eb9e	-0.07173847
206	0x3cf096c8	0.029368773
207	0xbd9caf34	-0.07650605
208	0xbcfcee03	-0.030875212
209	0x3da1e97a	0.0790586
210	0xbc9818b2	-0.018566463
211	0x3cdb7204	0.026787765
212	0xbd6152bb	-0.05501054
213	0x3d872389	0.06598575
214	0xbd494c95	-0.0491453
215	0xbd8a614e	-0.06756841
216	0xbce33b99	-0.02773838
217	0xbb6613ce	-0.003510702
218	0x3d7348a6	0.059395455
219	0x3aab85ab	0.0013086101
220	0xbd830b46	-0.063986346
221	0x3d553143	0.052048933
222	0x3d9991af	0.0749849
223	0xbd0dd5bd	-0.034627665
224	0x3d9274a6	0.07151155
225	0x3b151b1a	0.002275175
226	0xbd3385d4	-0.0438288
227	0xbdb6c0fc	-0.089235276
228	0xbdcef6ef	-0.101056926
229	0x3dcb32fe	0.09921835
230	0xbd53e21f	-0.051729318
231	0x3da8aa8c	0.08235654
232	0xbd29bfb6	-0.041442595
233	0x3d830ad1	0.063985474
234	0x3d2423a0	0.040073037
235	0xbc0bb2d9	-0.008526527
236	0xbd1063c5	-0.035251398
237	0x3caba4d6	0.020952623
238	0x3d0789fd	0.03309058
239	0x3bfac52f	0.0076529006
240	0x3cb8b08c	0.022545122
241	0xbd1fb590	-0.03899151
242	0x3dbbbe3b	0.09167143
243	0xbd6bc146	-0.057557367
244	0xbc2b08b4	-0.010439087
245	0x3c82aed2	0.015952501
246	0xbbb25d49	-0.0054432494
247	0xbd13c358	-0.036074966
248	0xbdd47837	-0.10374492
249	0x3b5c3b28	0.0033604596
250	0xba7224db	-0.0009237059
251	0x3d232fc9	0.039840493
252	0x3c38033f	0.011231243
253	0xbd7c576b	-0.061606806
254	0xbd6270e7	-0.055283453
255	0x3db640e2	0.08899094

residual_layers.0.conv1.bias f4 [32]
0	0x3db9710a	0.090547636
1	0x3d5436fb	0.051810246
2	0xbd716c91	-0.058941428
3	0xbd12134e	-0.03566294
4	0x3da04526	0.07825689
5	0xbbc762f6	-0.006084795
6	0xbdb7872d	-0.089613296
7	0xbd9edb17	-0.07756632
8	0x3dabc6bd	0.08387516
9	0x3dab0ed3	0.08352437
10	0xbd7f8c42	-0.06238962
11	0x3dc995b5	0.098430075
12	0x3da3877a	0.079848245
13	0x3d604065	0.05474891
14	0xbd5a66f2	-0.053320833
15	0xbdb7c1ff	-0.08972549
16	0xbda7bdab	-0.08190473
17	0x3d937992	0.07200922
18	0x3c340113	0.010986584
19	0x3cdd9e78	0.027053103
20	0xbc2e0d02	-0.0106232185
21	0xbda6569f	-0.081219904
22	0xbd34eacf	-0.044169243
23	0xbd8dcc0b	-0.06923684
24	0x3da31765	0.079634465
25	0x3d04b2ac	0.032396957
26	0xbca06499	-0.019579219
27	0xbd256822	-0.040382512
28	0xbd16efaa	-0.036849655
29	0x3cadbe9e	0.021209057
30	0xbdcc518e	-0.09976493
31	0x3db6bd60	0.08922839

residual_layers.0.bn1.weight f4 [32]
0	0x3f802f16	1.001437
1	0x3f7e3c91	0.99311167
2	0x3f805bc1	1.0028001
3	0x3f81629c	1.0108218
4	0x3f808e6b	1.0043463
5	0x3f7d4f48	0.989491
6	0x3f7fa561	0.99861723
7	0x3f8084c8	1.0040522
8	0x3f7f726c	0.9978397
9	0x3f8092d1	1.0044805
10	0x3f80dbf0	1.006712
11	0x3f7db715	0.99107486
12	0x3f7f7527	0.99788135
13	0x3f7f6ce5	0.99775535
14	0x3f80f2f2	1.0074141
15	0x3f800cb1	1.0003873
16	0x3f7e8ce5	0.9943374
17	0x3f806eb7	1.0033787
18	0x3f7f7025	0.99780494
19	0x3f8029b4	1.0012727
20	0x3f7fc1a5	0.99904853
21	0x3f8038ac	1.0017295
22	0x3f7ea681	0.99472815
23	0x3f8040cf	1.0019778
24	0x3f80a25a	1.0049546
25	0x3f80e6e7	1.0070466
26	0x3f7ee088	0.9956136
27	0x3f7ce173	0.9878151
28	0x3f802311	1.0010701
29	0x3f7d4d6b	0.98946255
30	0x3f807e42	1.0038531
31	0x3f808ac7	1.0042351

residual_layers.0.bn1.bias f4 [32]
0	0xba7fd73b	-0.000975955
1	0x3bf32a1a	0.0074207904
2	0xbba9c8a0	-0.005181387
3	0xbc0e49b3	-0.008684563
4	0x3bdba0d1	0.0067025204
5	0x3c926e16	0.017874759
6	0xbb3ed8c3	-0.00291209
7	0x3be257de	0.0069074472
8	0xbc9c3720	-0.019069254
9	0x3950f452	0.00019927442
10	0x3c842a2b	0.016133389
11	0xbc4a8a4f	-0.012362077
12	0x3b86d1ab	0.00411435
13	0x3c77a838	0.01511579
14	0x3a78fefa	0.00094984437
15	0x3a8c3ae9	0.0010698709
16	0x3b856cea	0.0040718215
17	0x3c4d4078	0.012527578
18	0x3a2f9c5e	0.0006699021
19	0x3c04ee67	0.00811348
20	0xbc6cf36c	-0.014462333
21	0xba001b9b	-0.0004886926
22	0xba024bc4	-0.00049703964
23	0xbca956c2	-0.020671252
24	0xbb87060d	-0.0041205944
25	0x3cd3bbdd	0.025846416
26	0xbc2203df	-0.009888618
27	0x39189f78	0.00014555256
28	0x3c1d5da6	0.009604847
29	0x3c421bd7	0.011847458
30	0x3c12dbdb	0.00896355
31	0x3c270e3c	0.010196265

residual_layers.0.bn1.running_mean f4 [32]
0	0xbe1ff811	-0.15621974
1	0x3e994751	0.29937223
2	0xbdf57d75	-0.1198682
3	0xbe7e3a68	-0.24826968
4	0xbe1708f8	-0.14749515
5	0x3e106e75	0.14104636
6	0xbe909816	-0.28241032
7	0xbb38a8b1	-0.002817672
8	0x3e77c19b	0.24194948
9	0xbd731054	-0.059341744
10	0xbeb0af04	-0.34508526
11	0xbcb649ae	-0.02225193
12	0x3ea15459	0.31509665
13	0x3ef80617	0.48442146
14	0xbe8e17a3	-0.27752408
15	0xbebbc84e	-0.36676258
16	0x3de6fa10	0.112781644
17	0x3e02716a	0.12738577
18	0x3eb0f8f5	0.3456494
19	0x3db02e53	0.08602586
20	0x3e787e9b	0.24267046
21	0xbec904e4	-0.39261544
22	0xbc50cd8b	-0.012744318
23	0x3cac7ae6	0.021054696
24	0x3d20813e	0.039185755
25	0x3e903291	0.2816358
26	0xbdb9a39f	-0.09064411
27	0xbebb81e7	-0.36622545
28	0x3e76cede	0.24102351
29	0xbddf07a5	-0.1089013
30	0xbed7e54a	-0.4216712
31	0xbb50ffe4	-0.0031890804

residual_layers.0.bn1.running_var f4 [32]
0	0x3dfa1cb0	0.12212503
1	0x3e0ce003	0.13757329
2	0x3dbf9719	0.093549915
3	0x3e37b978	0.17941844
4	0x3e0326a3	0.12807707
5	0x3da3ab7f	0.07991695
6	0x3e23818f	0.15967391
7	0x3d54d254	0.051958397
8	0x3da072c6	0.07834391
9	0x3de3fb31	0.11131895
10	0x3dbc6995	0.09199826
11	0x3e165476	0.14680657
12	0x3d5c124b	0.053728383
13	0x3e113ee9	0.14184155
14	0x3e18d710	0.1492579
15	0x3ded1188	0.115756094
16	0x3dcc6be7	0.09981518
17	0x3e18ad9a	0.14909974
18	0x3dcfd4e7	0.1014803
19	0x3db6c823	0.08924892
20	0x3d9d88d7	0.07692116
21	0x3e094984	0.1340695
22	0x3dc618f4	0.09672728
23	0x3de4dfcb	0.111754976
24	0x3df23e93	0.11828341
25	0x3e4b7407	0.1986848
26	0x3de70d1e	0.11281799
27	0x3df203bc	0.118171185
28	0x3e13730e	0.14399359
29	0x3dfb15d7	0.12260025
30	0x3e012dc8	0.1261512
31	0x3e8abeb2	0.27098614

residual_layers.0.conv2.weight f4 [32, 32, 3]
0	0xbc864ecd	-0.016394997
1	0xbcb22459	-0.021745848
2	0xbda99643	-0.08280613
3	0x3c780857	0.015138707
4	0x3dd3a112	0.10333456
5	0xbd5555f3	-0.05208392
6	0xbcbc7e58	-0.023009464
7	0x3da28bed	0.07936845
8	0x3d6efe9a	0.058348276
9	0xbd14b349	-0.036303792
10	0xbd752faa	-0.05985991
11	0x3db29c8b	0.087212645
12	0xbd193d0e	-0.037411742
13	0xbb8ce1aa	-0.004299362
14	0x3c16c0a4	0.009201203
15	0x3dc1e8d6	0.09468238
16	0x3d424478	0.04742858
17	0x3db8f64f	0.09031355
18	0xbd14c649	-0.036321912
19	0xbcb9a18c	-0.02266004
20	0x3d2edd8f	0.042691763
21	0x3c2d5fbb	0.010581906
22	0x3d9fd8a0	0.0780499
23	0xbdbad10c	-0.09121904
24	0xbd9d35a2	-0.07676245
25	0xbd22db2d	-0.039759804
26	0x3cc4a60e	0.024004962
27	0xbdd947f3	-0.10609426
28	0x3b69fbbb	0.0035703022
29	0xbd40ae69	-0.04704133
30	0x3cd45796	0.02592067
31	0x3d3fd06c	0.046829626
32	0xbdb97d6e	-0.09057127
33	0x3dea9e04	0.1145592
34	0xbde3e80f	-0.11128246
35	0xbce300e4	-0.027710386
36	0xbc5fa324	-0.013649736
37	0xbd61bb68	-0.055110365
38	0xbd8da314	-0.0691587
39	0xbce944ac	-0.028475128
40	0xbd7a8789	-0.061164413
41	0xbbc145d8	-0.0058982186
42	0x3c2d5e76	0.010581603
43	0xbdb26523	-0.087106965
44	0xbda6844d	-0.08130703
45	0x3d33c608	0.04389003
46	0x3d36253d	0.044469107
47	0xbc2451cf	-0.01002927
48	0x3dbfe604	0.09370044
49	0xbd82860e	-0.06373225
50	0x3d5595a3	0.052144658
51	0x3c1d751e	0.009610442
52	0x3dba8ed3	0.09109273
53	0x3dbf7218	0.093479335
54	0x3d95fe27	0.07323866
55	0x3dd35e61	0.10320736
56	0xbc2e59c0	-0.010641515
57	0xbcce5bde	-0.02519029
58	0x3cb47ea1	0.022033038
59	0xbc37b558	-0.011212669
60	0x3ca41e50	0.020033985
61	0x3d24f5be	0.04027342
62	0xbc2cd7c3	-0.0105494885
63	0xbd8823ed	-0.06647477
64	0xbd02e54c	-0.031956956
65	0xbc1eed9b	-0.009700204
66	0x3c7c924e	0.015415741
67	0x3c0605c8	0.008180089
68	0xbdb17cbb	-0.086663686
69	0x3a833d36	0.0010012749
70	0xbcb87954	-0.022518791
71	0xbcdcf8d0	-0.026974112
72	0xbd84defc	-0.064878434
73	0xbbacdcc9	-0.005275343
74	0xbd2fac5b	-0.04288898
75	0xbcf10cbc	-0.029425018
76	0xbd654947	-0.055978086
77	0x3d9163d4	0.07099119
78	0x3d6712cd	0.056414414
79	0x3cf4a4ec	0.029863797
80	0x3d159139	0.03651545
81	0xbd5ecac7	-0.054392602
82	0xbd9b6892	-0.075883046
83	0xbc195a71	-0.009359942
84	0x3c23efb0	0.010005876
85	0x3d9a2675	0.07526866
86	0x3d51eb62	0.05124987
87	0x3d5620a9	0.05227724
88	0x3ab5372a	0.0013825644
89	0xbcf7c2b9	-0.030244218
90	0xbd7c46dd	-0.061591018
91	0x3cc6c7a9	0.024265127
92	0xbc90e357	-0.01768653
93	0x3c988606	0.018618595
94	0xbd880524	-0.066416055
95	0xbdc46817	-0.09590166
96	0x3c19f7eb	0.009397487
97	0x3d07589a	0.03304348
98	0xbd8d1123	-0.06888034
99	0x3c0ffd91	0.008788482
100	0x3d6dcd13	0.058056902
101	0xbd2fbf39	-0.042906974
102	0xbc344a86	-0.011004096
103	0xbdb0464a	-0.086071566
104	0x3b97c64c	0.004631793
105	0xbd5d7873	-0.054069947
106	0x3d72de54	0.05929406
107	0x3d81e26c	0.06342015
108	0x3d6be994	0.057595804
109	0x3d4e01f9	0.05029485
110	0x3cbbfab3	0.022946691
111	0xbd066464	-0.032810584
112	0xbda55f06	-0.08074765
113	0xbd8e592a	-0.069506004
114	0x3d7eea21	0.062235
115	0xbcf76fac	-0.030204616
116	0xbdb7b3fe	-0.08969878
117	0xbce3c5e2	-0.027804319
118	0x3c90653f	0.017626403
119	0x3dcbc26a	0.09949191
120	0x3db56360	0.08856845
121	0x3d9f764e	0.07786237
122	0x3d8ff67a	0.070294335
123	0xbb3eaec4	-0.0029095868
124	0xbdc65dbf	-0.096858494
125	0x3cc570e5	0.024101684
126	0xbd9fc9ac	-0.07802138
127	0xbd9ad628	-0.07560378
128	0xbd6dc64b	-0.058050435
129	0x3d800788	0.062514365
130	0xbd70ac11	-0.058757845
131	0x3d3d058e	0.046147875
132	0x3dc9207a	0.098206475
133	0xbd882fcc	-0.066497415
134	0x3ccaebd1	0.02477065
135	0x3dc7ff16	0.09765451
136	0x3ce05b16	0.027387183
137	0x3c855fd1	0.01628104
138	0xbc119123	-0.008884701
139	0xbd96ef90	-0.07369912
140	0x3da58690	0.080823064
141	0x3c814a53	0.01578251
142	0xbd9942ad	-0.074834205
143	0x3dbf8ac9	0.09352643
144	0xbd8b3ce9	-0.06798727
145	0x3d9f4fd9	0.077789016
146	0x3d1b48d7	0.037911262
147	0xbdac9ff9	-0.0842895
148	0x3cca743e	0.024713632
149	0x3d511ef9	0.05105493
150	0x3d997c69	0.074944325
151	0x3d9c5d43	0.07634976
152	0xbd9bd7a2	-0.07609488
153	0xba2c5380	-0.0006573722
154	0x3a8c4e28	0.0010704445
155	0xbd30aaf9	-0.043131802
156	0xbd919c4b	-0.07109889
157	0xbd3aa2a0	-0.045565248
158	0xbd59a82d	-0.0531389
159	0x3dc238f0	0.09483516
160	0xbc303142	-0.0107539315
161	0xbd4dfb84	-0.050288692
162	0x3db0c6e1	0.08631683
163	0xbdc8c819	-0.098037906
164	0xbce889ed	-0.02838608
165	0x3d28cd33	0.04121132
166	0x3ccdd9d6	0.025128286
167	0xbd6eb5a4	-0.058278695
168	0xbcf3bdf6	-0.029753666
169	0x3cf6d6c1	0.0301317
170	0x3dc6f4e9	0.09714682
171	0xbda1993b	-0.078905545
172	0x3d835d63	0.064142965
173	0x3dc1d381	0.09464169
174	0xbd93a6f1	-0.07209576
175	0x3da1c94f	0.07899725
176	0xbbdf4764	-0.0068139303
177	0x3d1c7388	0.038196117
178	0x3d4b9e52	0.049711533
179	0x3dbea943	0.09309628
180	0xbcb5b679	-0.022181736
181	0xbd31ea10	-0.04343611
182	0xbd71eb6f	-0.059062418
183	0xbcdb8d36	-0.026800733
184	0x3daf425b	0.08557578
185	0xbde6b8be	-0.112657055
186	0xbdb8f7ce	-0.0903164
187	0xbd3538f5	-0.04424377
188	0x3b930a90	0.004487343
189	0xbdb2dd17	-0.08733576
190	0xbc4c480a	-0.012468347
191	0x3dd6425e	0.10461877
192	0xbc544ab4	-0.012957264
193	0xbda63f62	-0.08117558
194	0xbd9d941b	-0.076942645
195	0xbd034629	-0.03204933
196	0x3cd78e32	0.026312921
197	0xbcdbb3b4	-0.026819088
198	0x3d3635db	0.044484954
199	0x3da08c01	0.078392036
200	0x3d1e0ffa	0.038589455
201	0xbdde9d08	-0.10869795
202	0xbc1eaa68	-0.009684183
203	0xbcf08e9f	-0.029364882
204	0x3d0e01c1	0.03466964
205	0x3ce9cfd4	0.028541483
206	0x3d9dcc7f	0.0770502
207	0x3d24caed	0.040232588
208	0xbd08cd18	-0.033398718
209	0xbd7419e7	-0.059595015
210	0xbd0be0a9	-0.0341498
211	0x3bf209aa	0.007386406
212	0xbd5c9b1f	-0.053858873
213	0xbda57f34	-0.08080903
214	0x3d087096	0.033310495
215	0x3dbc80fe	0.09204291
216	0x3d6c3b41	0.057673696
217	0xbc01579d	-0.007894424
218	0xbd99e744	-0.075148135
219	0xbda5b5aa	-0.0809129
220	0xbdadba46	-0.084827945
221	0xbd6e44bc	-0.05817102
222	0x3d5195fc	0.051168427
223	0x3d5267ae	0.051368408
224	0x3da72e44	0.08163121
225	0x3d1f7c51	0.038936917
226	0xbb68b2fb	-0.0035507071
227	0xbda7ca91	-0.08192933
228	0x3d8b0c9f	0.06789517
229	0x3db3b744	0.087751895
230	0x3dadcd12	0.0848638
231	0x3dc1ebf0	0.0946883
232	0xbdceb34d	-0.10092793
233	0x3d077c94	0.03307779
234	0xbcf46ed3	-0.029838001
235	0x3da00dc7	0.07815128
236	0x3b739f7a	0.0037173913
237	0x3c39472d	0.011308474
238	0x3b47f40e	0.0030510458
239	0xbd2c28ca	-0.042031087
240	0x3c498d67	0.012301779
241	0xbc335a2a	-0.01094679
242	0x3d3ecab9	0.04658005
243	0x3db1210e	0.08648883
244	0x3cfcb3f8	0.030847535
245	0x3affee1e	0.001952592
246	0xbd697d54	-0.057004288
247	0x3b2f2251	0.0026723335
248	0xbcadab61	-0.021199884
249	0x3d5b7b26	0.05358424
250	0x3dbb2665	0.091381826
251	0x3baf9847	0.005358729
252	0x3d102b72	0.035197683
253	0x3db1a1af	0.08673417
254	0x3c90f3d7	0.017694397
255	0x3db06230	0.08612478

residual_layers.0.conv2.bias f4 [32]
0	0xbd554a66	-0.052072905
1	0x3cf7c2b4	0.030244209
2	0xbc9144e4	-0.017733045
3	0xbc589792	-0.013219731
4	0xbc673027	-0.0141106015
5	0xbd7c466a	-0.06159059
6	0x3d9fef5c	0.07809326
7	0xbd7bc688	-0.06146863
8	0xbcc4db08	-0.024030223
9	0xbd71920e	-0.05897718
10	0x3dbe8838	0.093033254
11	0xbd290781	-0.041266922
12	0x3d52c5ae	0.051458053
13	0x3db3075d	0.08741639
14	0xbcf95796	-0.030437272
15	0x3dc35b72	0.09538926
16	0x3dc00234	0.0937542
17	0x3cdc7ef4	0.026916005
18	0xbc7e55c0	-0.015523374
19	0xbd320129	-0.043458138
20	0x3c2560cd	0.01009388
21	0x3d5fd91d	0.054650415
22	0x3c097f99	0.008392238
23	0x3d40dc77	0.04708525
24	0x3ca605d5	0.020266453
25	0x3dad78fd	0.08470342
26	0xbd366e40	-0.044538736
27	0x3d09399b	0.033502202
28	0xbd55bd18	-0.052182287
29	0xbd9b8bc9	-0.07595021
30	0xbd9e6822	-0.077347055
31	0x3dcb9765	0.099409856

residual_layers.0.bn2.weight f4 [32]
0	0x3f7d5123	0.9895193
1	0x3f7b8f2f	0.98265356
2	0x3f7949fe	0.9737853
3	0x3f7fad4a	0.99873793
4	0x3f7d8b79	0.99040943
5	0x3f805f89	1.0029155
6	0x3f7f1cc7	0.99653286
7	0x3f8154f0	1.0104046
8	0x3f7dfb6b	0.9921176
9	0x3f80476a	1.0021794
10	0x3f79f787	0.9764332
11	0x3f794a33	0.97378844
12	0x3f810c55	1.0081888
13	0x3f7ebffc	0.99511695
14	0x3f7d2340	0.9888191
15	0x3f7b6ee5	0.98216087
16	0x3f7d05ed	0.9883717
17	0x3f7c6b1b	0.9860093
18	0x3f80cb01	1.0061952
19	0x3f805c57	1.002818
20	0x3f79eab7	0.9762377
21	0x3f80ef7a	1.0073082
22	0x3f815729	1.0104724
23	0x3f7c210b	0.9848792
24	0x3f80a2a9	1.004964
25	0x3f7e458c	0.9932487
26	0x3f7fe92d	0.99965173
27	0x3f80297c	1.001266
28	0x3f8041d4	1.0020089
29	0x3f7fcfb9	0.99926335
30	0x3f802369	1.0010806
31	0x3f80fb5b	1.0076708

residual_layers.0.bn2.bias f4 [32]
0	0x3b85f6d3	0.0040882616
1	0xbc87fcc8	-0.016600028
2	0x3c62bb43	0.013838592
3	0x3c0a8e4a	0.008456776
4	0xbc676601	-0.014123441
5	0x3ca41b6b	0.020032605
6	0xbbc162bf	-0.005901664
7	0xbb3c20c3	-0.002870605
8	0x39384ab2	0.00017575434
9	0xb9d32d80	-0.00040278956
10	0x3b89c818	0.0042047612
11	0x39f13a32	0.0004601046
12	0xbd0feb8e	-0.03513675
13	0x3c66bf4e	0.0140836965
14	0xbb623922	-0.0034518917
15	0x3c59395c	0.013258304
16	0x3cf5a85d	0.029987508
17	0xbc1c923f	-0.009556352
18	0xbc16fbec	-0.009215336
19	0xbb99b7ba	-0.0046910914
20	0xbc914f62	-0.017738048
21	0xbc8bd4f4	-0.017069317
22	0x3b927868	0.00446992
23	0x3c4d7ddd	0.012542215
24	0xbb312dda	-0.0027035386
25	0xba19676f	-0.00058518996
26	0x3b689e3b	0.0035494703
27	0x3b4a0f02	0.00308317
28	0x3c3ca44a	0.011513779
29	0xbc0b555f	-0.008504241
30	0xbc27f39f	-0.010250955
31	0xbb0ba94f	-0.0021310633

residual_layers.0.bn2.running_mean f4 [32]
0	0xbe20c3e8	-0.15699732
1	0x3da46ec2	0.08028938
2	0x3dd441a3	0.10364082
3	0x3d87a4a3	0.06623199
4	0xbe269074	-0.16266042
5	0xbe517b3d	-0.20457168
6	0xbe7e3617	-0.24825321
7	0x3e8b140d	0.27163735
8	0xbd227d0c	-0.039670035
9	0x3c63122c	0.013859313
10	0x3e96bb68	0.29439855
11	0x3eb7dd1e	0.35910887
12	0x3eab126b	0.3341249
13	0x3ea57bfb	0.32321152
14	0xbe51eb31	-0.20499875
15	0xbe5de18e	-0.21668074
16	0x3e8cbc4d	0.27487412
17	0x3d350c41	0.04420114
18	0xbea38b89	-0.31942394
19	0x3e41b959	0.18918361
20	0x3ef51fc6	0.47875804
21	0xbde59c70	-0.11211479
22	0xbe47d377	-0.19514261
23	0xbeb0298f	-0.34406707
24	0xbcf21aef	-0.029553859
25	0x3ea30816	0.31842107
26	0x3e19c792	0.15017536
27	0x3e3ceb8f	0.18449233
28	0xbeb6d375	-0.35708204
29	0xbe31cc17	-0.1736301
30	0xbc815b29	-0.015790539
31	0x3ab3671f	0.0013687349

residual_layers.0.bn2.running_var f4 [32]
0	0x3dafa03c	0.08575484
1	0x3de5da21	0.112232454
2	0x3e348c74	0.17631704
3	0x3dd89fd5	0.105773605
4	0x3dd19178	0.10232824
5	0x3da18799	0.07887191
6	0x3dfd0d8b	0.12356099
7	0x3e153802	0.14572147
8	0x3e0062aa	0.12537637
9	0x3e3b73a1	0.18305828
10	0x3dd19385	0.10233215
11	0x3d8d3110	0.068941236
12	0x3e582073	0.21106128
13	0x3e130363	0.1435676
14	0x3e01d928	0.12680495
15	0x3de69605	0.11259083
16	0x3e07e1b1	0.13269688
17	0x3e14fd18	0.14549673
18	0x3dd5e282	0.104435936
19	0x3dd03e7d	0.10168169
20	0x3d9ae897	0.07563894
21	0x3de149d5	0.110004105
22	0x3d9cdc09	0.07659156
23	0x3dab17e1	0.08354164
24	0x3dcfe7a7	0.10151606
25	0x3dad40bb	0.08459612
26	0x3de2e80b	0.11079415
27	0x3da6bfa0	0.08142018
28	0x3dcd1e88	0.10015589
29	0x3da08760	0.07838321
30	0x3df566b7	0.11982482
31	0x3da54223	0.08069255

residual_layers.1.conv1.weight f4 [32, 32, 3]
0	0x3dbe5e4a	0.09295328
1	0x3d5ff891	0.05468041
2	0xbd03c672	-0.032171674
3	0x3d869760	0.06571841
4	0xbd2b963f	-0.041891333
5	0xbd871411	-0.06595624
6	0xbd6b23f3	-0.05740733
7	0x3dc9397b	0.09825417
8	0xbb0b2969	-0.00212344
9	0xbcfe0017	-0.031005902
10	0x3d3bed0f	0.045880374
11	0x3d7615dd	0.060079444
12	0x3da0f2e3	0.07858827
13	0x3d9824ac	0.074288696
14	0xbc724d4f	-0.01478894
15	0xbca621fd	-0.020279879
16	0xbc0fe4b9	-0.008782559
17	0x3db7ae40	0.089687824
18	0x3c37c68f	0.011216774
19	0x3dd77116	0.10519616
20	0x3d8b0fca	0.06790121
21	0xbd86be99	-0.06579322
22	0x3da9155a	0.082560256
23	0xbd64d86b	-0.055870455
24	0xbbca086d	-0.006165555
25	0xbd38e07c	-0.04513596
26	0x3da2519d	0.07925723
27	0xbc317a69	-0.0108324075
28	0x3db7a2f1	0.089666255
29	0x3d261c1f	0.040554162
30	0x3d4299bb	0.04750989
31	0x3d247316	0.040148817
32	0xbd40a6a1	-0.04703391
33	0xbce99c74	-0.028516985
34	0xbd7efb15	-0.06225117
35	0x3cf5bc6e	0.029997077
36	0xbc7867ce	-0.015161468
37	0xbda93d39	-0.082636304
38	0x3d8eb061	0.06967235
39	0xbca22609	-0.019793527
40	0x3ce6280c	0.028095268
41	0x3d1fce47	0.03901508
42	0xbcdc9d35	-0.02693043
43	0x3d8ced91	0.0688125
44	0xbd7b6c39	-0.061382506
45	0xbd91a473	-0.07111444
46	0x3d868a48	0.06569344
47	0xbdc87e2a	-0.09789689
48	0xbd826ae6	-0.063680455
49	0xbd0d4c44	-0.03449656
50	0x3de841df	0.11340689
51	0xbb2d5469	-0.0026448017
52	0xbdac9c2b	-0.08428224
53	0x3caae227	0.020859791
54	0xbdad02fb	-0.08447834
55	0x3d817e38	0.063229024
56	0x3cd55f87	0.026046528
57	0x3db3ceff	0.08779716
58	0x3c935440	0.01798451
59	0xbdb4cfd9	-0.08828706
60	0xbcb4ec4a	-0.022085328
61	0x3ce44c00	0.02786827
62	0x3da028d2	0.07820286
63	0xbd3f545b	-0.046711307
64	0x3d42c627	0.047552254
65	0x3d4c3971	0.049859468
66	0xbce84984	-0.028355367
67	0x3d690878	0.056892842
68	0xbcd46e03	-0.025931364
69	0xbc87283c	-0.016498677
70	0xbd4259c9	-0.047448907
71	0x3d2297b8	0.03969547
72	0xbd2a80a6	-0.041626595
73	0x3bd831ab	0.0065977178
74	0x3d8a68ae	0.06758247
75	0xbd33ce2e	-0.0438978
76	0x3bd4b04d	0.0064907433
77	0xbb2d6462	-0.0026457538
78	0xbd932b3b	-0.0718598
79	0x3d50c66a	0.050970472
80	0xbb94a7d5	-0.0045366087
81	0x3c1067c6	0.008813804
82	0x3cc3cd92	0.023901735
83	0xbdacb87c	-0.08433625
84	0xbd806db0	-0.06270921
85	0xbcc4c3af	-0.02401909
86	0xbdb63bc7	-0.088981204
87	0xbd6eb95e	-0.05828225
88	0xbd5e3e65	-0.054258723
89	0xbdc598af	-0.09648263
90	0x3d07c0d5	0.033142883
91	0x3c9993b7	0.018747194
92	0xbd4703b0	-0.0485875
93	0x3dc0342d	0.09384952
94	0xbd5c209c	-0.053742036
95	0x3dbe41aa	0.09289868
96	0x3d4213b9	0.04738209
97	0xbd0c9355	-0.034320194
98	0xbc8e01c5	-0.017334828
99	0xbd9ffb65	-0.078116216
100	0x3c674a05	0.014116769
101	0x3da58c92	0.08083452
102	0xbcb9dfe6	-0.02268977
103	0x3dbc755c	0.09202072
104	0x3d18651a	0.037205793
105	0x3dee5482	0.11637212
106	0x3cfaac5f	0.030599771
107	0x3db96464	0.09052351
108	0xbbdc6a24	-0.00672652
109	0x3dbedaa5	0.09319047
110	0xbc057c8c	-0.00814737
111	0x3d5d8237	0.05407926
112	0xbdb0a49e	-0.08625148
113	0x3c057af5	0.008146991
114	0x3d23ed84	0.040021434
115	0xbcdf3519	-0.027246999
116	0xbd8e6dd8	-0.06954545
117	0x3c50eafc	0.012751337
118	0xbd56b13e	-0.052415125
119	0xbc7078d1	-0.014677242
120	0x3c025e31	0.007957027
121	0xbdbbeb81	-0.09175778
122	0x3cdb9e93	0.026809013
123	0xbd9a2c50	-0.07527983
124	0x3d1433da	0.036182262
125	0xbda8ba40	-0.08238649
126	0xbd100290	-0.035158694
127	0xbd0935b4	-0.03349848
128	0xbba09b6e	-0.004901341
129	0xbddd290c	-0.10798845
130	0xbcbe28e8	-0.023212865
131	0x3a6ffda5	0.00091549224
132	0x3c8ef4b1	0.017450662
133	0x3d9f802f	0.07788121
134	0xbca0efc2	-0.019645575
135	0xbdcbad44	-0.09945157
136	0x3c2b92a8	0.010471977
137	0x3da9c4ab	0.082894646
138	0x3d9699ad	0.0735353
139	0xbcebcc49	-0.028783934
140	0xbd218f1a	-0.039443113
141	0x3d3583b7	0.044315066
142	0x3d78e382	0.060763843
143	0xbd490ce3	-0.049084555
144	0xbdb00ad3	-0.085958146
145	0x3dd22c6d	0.1026238
146	0xbd010b88	-0.031505138
147	0x3d965f39	0.07342381
148	0xbbd729ab	-0.0065662465
149	0xbd96be6e	-0.0736054
150	0x3db7a730	0.08967435
151	0xbd2cddea	-0.04220382
152	0xbd6109a7	-0.054940846
153	0xbd05230a	-0.03250412
154	0x3cb4239f	0.021989642
155	0xbd99ab5f	-0.075033896
156	0x3da5017f	0.08056926
157	0x3d2c3d13	0.042050432
158	0x3d83ad45	0.06429533
159	0x3bd955a1	0.006632522
160	0x3c00a4da	0.007851804
161	0x3d685020	0.05671704
162	0x3ce8d1ca	0.028420348
163	0xbd32907e	-0.04359483
164	0x3dbac9d1	0.09120525
165	0xbbe6bba7	-0.007041413
166	0x3d3029b4	0.04300852
167	0xbc890ee0	-0.016730726
168	0xbdc4a205	-0.09601215
169	0x3d024ba6	0.031810425
170	0xbdc9a13a	-0.09845205
171	0x3cf821c0	0.03028953
172	0x3ceb7971	0.028744431
173	0xbd8f4aa6	-0.0699666
174	0x3c81a02a	0.015823442
175	0xbc95125f	-0.018197237
176	0xbd9cf548	-0.07663971
177	0xbd28d661	-0.041220073
178	0xbda75cfc	-0.08172032
179	0x3db07e82	0.086178795
180	0xbcc10b27	-0.023564888
181	0xbc5a1602	-0.013310911
182	0xbda6a45a	-0.08136816
183	0x3d817a1e	0.0632212
184	0x3ba992c3	0.005174966
185	0xbd0a3feb	-0.033752363
186	0xbd93d92c	-0.072191566
187	0x3dc6f346	0.097143695
188	0x3d8efe8d	0.069821455
189	0x3d02724f	0.031847294
190	0xbce4012f	-0.027832596
191	0xbdd0751b	-0.10178586
192	0x3d867690	0.06565583
193	0xbd920209	-0.071292944
194	0xbd06ea70	-0.03293842
195	0x3bade319	0.005306613
196	0xbd2eaee7	-0.04264727
197	0xbdcab24e	-0.0989729
198	0x3db235a8	0.0870164
199	0xbdcae81b	-0.09907552
200	0xbd0e786b	-0.03478281
201	0x3d76e6f8	0.060278863
202	0x3d6dc19c	0.05804597
203	0xbdcfc8a2	-0.101456895
204	0x3b899c6c	0.004199555
205	0xbde7de01	-0.11321641
206	0xbdafcbfc	-0.08583829
207	0x3c41e683	0.011834743
208	0xbd2aaa86	-0.04166653
209	0x3dc69bc0	0.09697676
210	0xbb2f06c5	-0.0026706916
211	0xbdb5c90a	-0.08876236
212	0xbda731fb	-0.0816383
213	0xbc97e348	-0.018540993
214	0x3c115b21	0.0088718245
215	0x3d2b5b13	0.041834902
216	0xbb70cac5	-0.0036741954
217	0xbda5fb9d	-0.08104632
218	0x3c18b8df	0.00932142
219	0x3d7d2738	0.06180498
220	0x3d2d8c04	0.042369857
221	0xbdb44000	-0.088012695
222	0xbb1ef33d	-0.0024253868
223	0xbd2e0460	-0.04248464
224	0xbd5bb417	-0.053638544
225	0x3d9fb51f	0.07798218
226	0xbdbd9a10	-0.09257901
227	0x3d02bee1	0.031920318
228	0xbdbe3508	-0.09287459
229	0xbd2f7efa	-0.042845704
230	0xbdaf8a4e	-0.085713014
231	0xbceea7ee	-0.02913281
232	0xbd57ebc7	-0.05271509
233	0xbd32bb2f	-0.043635543
234	0x3d453ca8	0.04815355
235	0xbce8433d	-0.028352374
236	0x3d670ae7	0.05640688
237	0x3d426a1a	0.047464468
238	0x3d87fec3	0.06640389
239	0x3d8099fa	0.06279369
240	0xbd102cd1	-0.03519899
241	0xbd17a0a8	-0.037018448
242	0xbd2e3afa	-0.042536713
243	0x3ce3feff	0.027831553
244	0xbcf9f6b7	-0.03051315
245	0xbd7a4765	-0.061103243
246	0xbdbd1f10	-0.0923444
247	0x3da033d2	0.07822384
248	0xbd35d8d5	-0.04439624
249	0xbd9e4f43	-0.07729962
250	0x3c6a8d05	0.014315848
251	0xbc968e01	-0.01837826
252	0xbd61f27e	-0.0551629
253	0x3cac2116	0.02101187
254	0x3cf31495	0.0296729
255	0x3d53753a	0.051625468

residual_layers.1.conv1.bias f4 [32]
0	0xbccf1152	-0.025276814
1	0x3d917b52	0.071035996
2	0x3c555541	0.013020814
3	0xbba90a24	-0.0051586796
4	0x3d935c70	0.071953654
5	0x3d3958c6	0.045250677
6	0xbb2f7e72	-0.0026778248
7	0x3cdd3715	0.027003804
8	0xbcfb2691	-0.030658038
9	0xbc9f3374	-0.019433714
10	0x3d2ca601	0.0421505
11	0x3c95e94c	0.018299721
12	0x3dc6f52f	0.09714734
13	0xbd990285	-0.07471184
14	0x3cde896b	0.027165135
15	0xbd4c0c7f	-0.049816605
16	0xbce5e855	-0.028064886
17	0x3db76f6d	0.089568
18	0x3d16cb48	0.036814958
19	0xbcae43d6	-0.021272581
20	0x3c3a5ba2	0.011374386
21	0x3dbc93b7	0.09207862
22	0xbd107337	-0.035266127
23	0x3d26aa2b	0.04068963
24	0x3dc65f55	0.09686152
25	0x3dbf7657	0.093487434
26	0xbd9559eb	-0.07292541
27	0xbd0b6ad0	-0.03403741
28	0xbda9881a	-0.082779124
29	0xbcd2c555	-0.02572886
30	0xbdb42277	-0.08795636
31	0xbd76a429	-0.06021515

residual_layers.1.bn1.weight f4 [32]
0	0x3f806921	1.0032083
1	0x3f8110d2	1.0083258
2	0x3f796ab0	0.9742842
3	0x3f7f2625	0.9966758
4	0x3f7f1c4a	0.9965254
5	0x3f809bec	1.0047584
6	0x3f7f6dce	0.99776924
7	0x3f816ee5	1.0111967
8	0x3f7f8c6c	0.9982364
9	0x3f81b70e	1.0133989
10	0x3f7fbe90	0.9990015
11	0x3f7f2edd	0.9968088
12	0x3f7ce0f6	0.98780763
13	0x3f7eda74	0.99552083
14	0x3f816438	1.0108709
15	0x3f78f6de	0.9725169
16	0x3f811381	1.0084077
17	0x3f8070ee	1.0034463
18	0x3f808dc7	1.0043267
19	0x3f80b873	1.005629
20	0x3f7f9006	0.9982914
21	0x3f7edc6a	0.99555075
22	0x3f802f80	1.0014496
23	0x3f7fad5f	0.9987392
24	0x3f80495c	1.0022388
25	0x3f7e0143	0.99220675
26	0x3f80d139	1.006385
27	0x3f80ca3f	1.0061721
28	0x3f81d8b4	1.0144258
29	0x3f7f9784	0.9984057
30	0x3f812dc6	1.0092094
31	0x3f7e597c	0.9935529

residual_layers.1.bn1.bias f4 [32]
0	0xbc439f7f	-0.011939882
1	0xbbee993b	-0.00728145
2	0x3c883b32	0.016629789
3	0x3b52f3ac	0.0032188697
4	0x3c2da0dd	0.010597435
5	0x3c3c8346	0.011505907
6	0x3b11306e	0.002215411
7	0x3b833eaf	0.004005275
8	0x3c79661b	0.015222098
9	0xbce932cd	-0.028466607
10	0xbb0ab6e2	-0.0021166136
11	0x3bb67916	0.005568634
12	0x3cdb154d	0.026743555
13	0x3b0c99a0	0.0021453872
14	0xbb61f7fc	-0.0034480086
15	0xbcdca2b1	-0.026933046
16	0x3beb7cc3	0.0071865036
17	0x3c70bfc5	0.014694159
18	0xba8084da	-0.0009805218
19	0x3b5b8735	0.0033497338
20	0x3b10bba0	0.002208449
21	0x3c1abaab	0.009443919
22	0x3a19c87b	0.0005866361
23	0xbb82b962	-0.0039893845
24	0xbba0714d	-0.004896319
25	0xbc0aa375	-0.008461823
26	0x3c6c85b3	0.014436173
27	0x3cc03909	0.023464696
28	0x3bada56d	0.0052992613
29	0xbc2557ec	-0.010091763
30	0xbc5663ee	-0.0130853485
31	0xbcd1b84e	-0.025600579

residual_layers.1.bn1.running_mean f4 [32]
0	0x3e26c4c3	0.16285996
1	0x3c13cda9	0.009021201
2	0xbf6f03b9	-0.93365055
3	0x3e24705e	0.1605849
4	0xbd82b8bb	-0.06382891
5	0xbe95369b	-0.29143223
6	0x3e98305a	0.2972439
7	0x3ec241f4	0.37940943
8	0x3d261ed3	0.04055674
9	0xbf339103	-0.70143145
10	0x3f2c0a4a	0.672032
11	0x3cb3be06	0.021941196
12	0xbf3de2d8	-0.7417426
13	0xbf43f9ca	-0.7655302
14	0x3e994afc	0.2994002
15	0x3e1fc7d0	0.15603566
16	0xbd9517c0	-0.072799206
17	0x3e361e05	0.17784889
18	0x3c651f4f	0.013984515
19	0xbf0b00a6	-0.54297864
20	0xbede36ec	-0.43401277
21	0x3e857d17	0.26071998
22	0x3e14d68b	0.14534967
23	0xbb511d21	-0.0031908231
24	0xbe1b3b7f	-0.15159415
25	0x3e06cf25	0.13164957
26	0xbeda22a8	-0.42604566
27	0x3da78d41	0.08181239
28	0x3e330988	0.17484105
29	0xbe239999	-0.15976562
30	0x3f0d6c29	0.55243164
31	0x3e97f1f1	0.29676774

residual_layers.1.bn1.running_var f4 [32]
0	0x3e80e83c	0.2517718
1	0x3e5327e7	0.2062069
2	0x3e7f8696	0.24953684
3	0x3e701ba7	0.23448049
4	0x3e4dad6b	0.20085685
5	0x3e855901	0.26044467
6	0x3e25d67a	0.16195098
7	0x3e66d2dc	0.22541374
8	0x3e9853ff	0.29751584
9	0x3e8a4700	0.27007294
10	0x3e010687	0.12600146
11	0x3e692631	0.22768475
12	0x3e5f19ca	0.21787181
13	0x3e91031e	0.2832269
14	0x3e1321ed	0.1436841
15	0x3e3ea377	0.18617044
16	0x3e746015	0.23864777
17	0x3e483d64	0.19554669
18	0x3ea4a665	0.321582
19	0x3eb1adb5	0.3470284
20	0x3e9288fa	0.2862013
21	0x3e84ea5a	0.25960046
22	0x3e435aa1	0.19077541
23	0x3e98d7eb	0.29852232
24	0x3f0431e5	0.51638633
25	0x3e489763	0.19589
26	0x3e876120	0.26441288
27	0x3ea58e4c	0.32335126
28	0x3e849aa0	0.2589922
29	0x3e573ae0	0.21018553
30	0x3e548f40	0.2075777
31	0x3e2d6254	0.1693204
