ckpts/SpliceAI_SSD/Gossypium_raimondii.pth (torch, 558475 bytes, 223 tensors)

conv1.weight f4 [32, 4, 3]
00000000: 8165 753e af6f 6a3e bf7d 21be bfc0 29be
00000010: 05ad 4fbe 14b4 7cbe 12ae 1abe 7ccb 99bd
00000020: 88d3 89bb 58bd 143e 918b 3f3d fd3a 5ebe
00000030: 4756 733d 595f 863e 4d17 5a3e b294 aeba
00000040: 31d8 67be 2cf6 30be 4d4a 85be bf8d 133e
00000050: 7c7b 3c3e accb c83d 7d10 6fbe d241 d23d
00000060: ad12 bdbd 3bec 343e a305 b63d 7f27 673e
00000070: f8dc 6b3e e6bf f83d 3aa1 9ebd 22f5 2cbe
00000080: cf5f 62be 8cca 69bd 1e26 2ebe 03f9 7abe
00000090: f41b a03d 0414 543d 7369 a7bd 8409 66be
000000a0: 8ca2 90bd 32ac 843e f52a 98bd 99b0 50be
000000b0: 2ffe 8c3e 2d58 c6bd bba2 e23d ab31 eebd
000000c0: 2432 4dbe bc95 7fbe 64bf 713e ce0a 8f3e
000000d0: dd95 05be 11db 6d3d e943 63be 6925 4dbd
000000e0: 40a3 153c 5941 52be d67c cf3d 0377 90be
000000f0: 9bd7 84be 0d20 13be 58a2 653e c1bb 47be
00000100: 87c9 303e faba 9dbe b332 8c3c b278 4cbc
00000110: 8368 4b3d f5eb 56be aa51 5c3e 982f d6bd
00000120: 977e b5bd da5b 2dbe 9265 8abe 0948 733e
00000130: a00a 78be 2fe4 cebd f9a5 fc3d ba6f 8abe
00000140: 2401 6bbe cdf4 233e c064 c33d b3af f2bc
00000150: 3340 88be c0d5 38be 3764 483d 90e9 0c3e
00000160: f7f8 8f3d 4712 51be 0526 e4bd e092 58bd
00000170: 2db8 523d e067 863e b85f 90bd e46d a43c
00000180: e205 33be c38f 7d3e ed4e c53d 0a58 7dbe
00000190: 899e 31be 8ddc 153d be35 ecbd f948 7abd
000001a0: 4983 4d3e a971 aa3d d8fb 1e3e ce12 83bd
000001b0: 1f4f 033e 5970 babd f1d7 643e f239 903e
000001c0: d6a3 07be 3b3b 72be 3245 8abe a111 7f3e
000001d0: cf0b 653e 9c7e 773e 1aeb 10be d895 443e
000001e0: 334e 89be 0c13 753e e3ee a5bd ebf0 4abe
000001f0: b259 f1bd ceed 643e 5760 823d 7678 72be
00000200: 3c6a b937 35da a8bd e4e6 88be 3af2 8c3d
00000210: f145 903e 815f 8c3d 5a3f a43d 9708 0ebe
00000220: b473 9e3d 84dd 61bd a47f 933e 3359 41be
00000230: 3aa5 20be 0bf1 8d3e 40d6 75bc 4026 49be
00000240: eb04 85be 56a9 583e a014 193e ed3a 1b3e
00000250: d811 8cbd a8db 1c3e b592 bf3d e572 f5bd
00000260: 7c43 77be 5cc9 31be 979f 843e 2739 ee3d
00000270: ad3d 19be b505 023e d400 76be f536 663d
00000280: 449f 35be e088 5e3e d5a5 033d 8bfd cbbc
00000290: 3d90 303e b70b 8abe e3af f0bc e6d6 763e
000002a0: 8154 8bbc 52b2 bfbd fa19 d23d 72ab 95be
000002b0: 5867 c4bd a3af 55be 9f6b 283e acb2 893e
000002c0: a4b2 193e 1748 8c3d 31c4 7e3d 1ae5 48be
000002d0: ce53 51bc e393 19be 51e0 f93d cda0 9ebd
000002e0: fe66 4a3c 9081 aebd 5dd1 103d a9be 84be
000002f0: b459 08bd a624 a33d 9bd2 4f3d ef62 ed3c
00000300: fe84 f53b 7414 6abc e046 e73d 5347 473d
00000310: 8940 57be 89bf 8d3e 83b6 353e 297d 6f3e
00000320: 3938 69be e021 033e 19f7 183e 830f 4ebe
00000330: b3ba 8d3e d4c0 a03d 8cfc 003e 1f85 72be
00000340: 48ae 4fbe bce3 e33a 6408 50be 347d 753e
00000350: 7b33 d73d 5fe2 edbb e68a a73d eb36 a6bd
00000360: ea18 df3b db14 3e3e 9af2 dfbd d727 78be
00000370: 6c78 f53d 9265 ca3d 186a 003e 879c 99be
00000380: d512 40bb c5ff 813e 6d7b 39be 5641 b3bd
00000390: 57b2 21be eec6 1dbe 513f 8f3e 30cd 413e
000003a0: 7e12 5a3e 617c 333e 67c9 22bd f789 78be
000003b0: 79cb 0cbe fc9e fa3d 9b94 683e 5f0a 453e
000003c0: e7e3 023e 1115 873e f5ce d73d 9093 153e
000003d0: 3b55 05be a7d7 303e 4da0 d33c 854d 603e
000003e0: 3e0e 3439 6305 033d f2f5 9b3b 614b ff3d
000003f0: e022 94bd 6e5a 4bbd a986 293e eb3d ee3d
0.23964502 0.22894166 -0.15770625 -0.16577433 -0.20280845 -0.2467807 -0.15105465 -0.07509515
-0.0042061247 0.14525354 0.04676396 -0.2170219 0.059408452 0.2624462 0.21297951 -0.0013319461
-0.22641064 -0.17281407 -0.2603325 0.1440954 0.1840648 0.09804472 -0.23346134 0.102664605
-0.09232078 0.1766824 0.08887794 0.2257366 0.23033512 0.12145977 -0.07745595 -0.16890386
-0.2210686 -0.05707793 -0.17006728 -0.24509053 0.07817832 0.0517769 -0.0817441 -0.22464567
-0.07062253 0.25912625 -0.074300684 -0.20379867 0.27537677 -0.09684787 0.110661946 -0.11630567
-0.20038658 -0.24959463 0.23608166 0.2793793 -0.1304545 0.058070246 -0.22193874 -0.050084505
0.00913316 -0.2053274 0.101312324 -0.282158 -0.25945744 -0.14367695 0.2242521 -0.19505216
0.17264377 -0.30806714 0.017114019 -0.012479948 0.049660217 -0.20988448 0.21515527 -0.104582965
-0.08862036 -0.1692957 -0.27030617 0.23757948 -0.24222803 -0.10102116 0.12336344 -0.27038366
-0.22949654 0.16011353 0.09540701 -0.029624796 -0.2661148 -0.18050289 0.048923697 0.13760972
0.07029908 -0.20417129 -0.11140064 -0.052874446 0.051445175 0.26251125 -0.07049507 0.020071931
-0.17482713 0.24761872 0.096341945 -0.24740615 -0.17345633 0.036587287 -0.11533688 -0.06110475
0.20069613 0.0832246 0.15525758 -0.06400071 0.12823151 -0.0910346 0.22348 0.2816921
-0.13246092 -0.23655407 -0.27005917 0.24909069 0.22367786 0.24169391 -0.14152184 0.19197786
-0.26817474 0.23933047 -0.08102205 -0.19818465 -0.11784686 0.2235634 0.063660316 -0.23678765
2.2103188e-05 -0.08244745 -0.26738656 0.068821386 0.2817836 0.068541534 0.08019896 -0.13870464
0.07736912 -0.055142894 0.2880832 -0.18881683 -0.15688029 0.27722964 -0.015004694 -0.19643497
-0.25980315 0.21158347 0.14949274 0.15159197 -0.06839341 0.15318167 0.09354154 -0.11984805
-0.24146837 -0.17361969 0.25903007 0.11631995 -0.14964934 0.1269749 -0.24023753 0.056204755
-0.17736536 0.21731901 0.03214057 -0.024901172 0.17242523 -0.26962063 -0.029380744 0.24105415
-0.017008068 -0.09360184 0.10258861 -0.29232365 -0.09590024 -0.20867781 0.16447304 0.26894128
0.15009552 0.068496875 0.06219882 -0.19618645 -0.012776328 -0.1499782 0.12200988 -0.07745514
0.012353657 -0.08520806 0.035355914 -0.25926712 -0.033288673 0.079659745 0.05073796 0.02897784
0.0074926605 -0.014287103 0.11292815 0.048652004 -0.21020712 0.27685192 0.17745404 0.23387589
-0.22775353 0.12805891 0.1493801 -0.20123105 0.27681503 0.07849279 0.12596339 -0.23683594
-0.20281327 0.0017386596 -0.20315701 0.23973542 0.10507866 -0.0072596516 0.0818079 -0.081159435
0.00680839 0.18562643 -0.109349445 -0.24233948 0.11985859 0.09882654 0.12540472 -0.30002233
-0.00293081 0.2539045 -0.1811349 -0.08752696 -0.15790688 -0.15407917 0.27977994 0.18925929
0.21296117 0.17527916 -0.039742853 -0.2427138 -0.13749494 0.12237355 0.22712938 0.19242238
0.1278225 0.2638326 0.10537521 0.14607072 -0.13020794 0.17269765 0.025833273 0.21904571
0.00017171443 0.03198756 0.0047595436 0.12465549 -0.072332144 -0.049646787 0.16555275 0.11632904

conv1.bias f4 [32]
00000000: f1bd 7e3e 0e05 3dbe 4b79 b63d 77bd 22be
00000010: 4fa1 713e 4962 643e e57b 82be 13e9 fb3c
00000020: bd4a 823d e9b2 203d 58fc 843e 4340 6b3e
00000030: be5f 403d 61df 3fbe c3b5 06be f891 ffbd
00000040: f068 ac3c 669f 483e a663 a23d 9533 3d3e
00000050: 9695 bc3d f24c adbd acfb b33d ce80 7d3e
00000060: 1804 553e 472a 3d3e 2357 6e3e 3e99 403e
00000070: 6230 cfbd 47c4 64be 4c85 45be 78e5 45be
0.24877144 -0.1845896 0.089098535 -0.15892588 0.2359669 0.22303118 -0.2548515 0.030750787
0.063619114 0.039233122 0.25973773 0.22973733 0.046966307 -0.18737556 -0.13155274 -0.12479013
0.021046132 0.19592056 0.07929163 0.18476708 0.09208219 -0.08461942 0.08788237 0.24756166
0.20802343 0.18473159 0.23275428 0.18808457 -0.1011665 -0.22340499 -0.1928913 -0.19325817

bn.weight f4 [32]
00000000: 3a86 7b3f ca5b 803f 3bfe 7f3f c349 7c3f
00000010: 0926 7d3f c7b5 803f 60f1 7e3f c885 803f
00000020: 5b19 803f c9b0 7f3f 02a9 813f 6ed8 7c3f
00000030: aeae 7e3f 2707 7f3f d234 7e3f e174 803f
00000040: 534a 823f 4749 7e3f 4c45 803f d8f1 7f3f
00000050: edbf 7e3f 91e2 7f3f 514e 803f 74d1 7c3f
00000060: 67aa 7f3f 9d25 7e3f 668f 7d3f d2e2 7d3f
00000070: 4edb 7e3f 64db 7f3f 5de2 7d3f e191 803f
0.9825169 1.0028012 0.999973 0.9855005 0.9888616 1.0055474 0.9958706 1.0040827
1.0007738 0.9987913 1.0129702 0.98767745 0.9948529 0.9962029 0.9929935 1.0035669
1.0178932 0.9933056 1.0021148 0.999784 0.99511606 0.9995509 1.00239 0.987571
0.9986939 0.99276143 0.99046934 0.99174225 0.9955338 0.9994414 0.9917353 1.0044519

bn.bias f4 [32]
00000000: 2be3 12bc 6ddb ed3b 93f8 7b3c 57c0 babb
00000010: 6c78 e5bb 2e2d 813c cc8e 8fbb 2efa 053b
00000020: aa0d 57bb 720f d23b 39ac 503c 9f3b dfb9
00000030: 0620 f6bb e949 03bc 5c61 123c 1ce7 083a
00000040: f2aa 1dbc 3990 8fbc a6ab c23b a20e 28bc
00000050: 8c6a ea3a 267f 403c a3f3 f6bb 8c19 5bbc
00000060: 48e6 69bc e1d2 a3bc 7a71 153b 2750 f1ba
00000070: 0546 3dbb 7e4c 02bc 2a22 66bc 39f4 af3c
-0.008965294 0.0072588236 0.015379089 -0.005699198 -0.007002881 0.015768614 -0.0043810364 0.0020443308
-0.003281454 0.0064105326 0.012736374 -0.00042578296 -0.0075111417 -0.008013227 0.008934345 0.0005222426
-0.009623276 -0.017524825 0.0059408722 -0.010257395 0.0017884537 0.011749065 -0.007536368 -0.01337279
-0.014276095 -0.019998016 0.0022803233 -0.0018410728 -0.0028880846 -0.0079528075 -0.014046231 0.02147876

bn.running_mean f4 [32]
00000000: 2cd4 473e 6764 a3bd 6c28 4b3c 19d2 3bbe
00000010: 222f 033d 1ecc ac3d 77f5 debe 1365 44bd
00000020: 2a8a e63d 7803 743e 9d39 b23d 6eba b83e
00000030: a25a 103e c80b 7abe 8c9e 23be b0fe 1fbe
00000040: dde4 063e 408a 983e 4648 893d c25b c23e
00000050: b8dc c23e c86f ebbd f200 abbd 2004 873e
00000060: 2e85 6e3e b950 b9bb 5f8e b33e 5599 8d3e
00000070: c652 173d 5fc3 38be 8711 b8bd 93ac 103d
0.19514531 -0.079781346 0.012399774 -0.18341865 0.03202737 0.0843737 -0.4354665 -0.047947954
0.112568215 0.23829448 0.08702395 0.36079735 0.14097074 -0.24418557 -0.1597845 -0.156245
0.13173242 0.29792976 0.06703238 0.3796063 0.3805902 -0.1149593 -0.0834979 0.26370335
0.23292992 -0.005655375 0.35069558 0.27656046 0.036944173 -0.18043278 -0.08987718 0.03532083

bn.running_var f4 [32]
00000000: 88f4 7e3d 745e b43d 78e0 ac3d 414d 593d
00000010: 2919 bc3d 6464 843d 9908 5b3d 037b 8b3d
00000020: 6480 473d af86 a33d e62a 8a3d 96fe 3a3d
00000030: 7822 913d 7ce8 943d da85 8e3d edac b53c
00000040: 8e5d 783d 8e3c 923d a4ca 843d ba8b b23d
00000050: 87bf ea3c cfac 443d 82d0 b43d 4e92 943d
00000060: 9c28 963d a48e 363d 92bc ea3c 1b2b bc3c
00000070: fc70 863d 5034 103e b005 333d 9319 843d
0.062244922 0.08807078 0.084412515 0.05305219 0.091844864 0.064644605 0.053474996 0.06810572
0.048706427 0.07984673 0.067464635 0.04565295 0.070866525 0.072709054 0.06959124 0.022177184
0.060636096 0.07140456 0.06483963 0.08718057 0.02865578 0.048016366 0.08828832 0.07254468
0.073319644 0.044569626 0.02865437 0.022969773 0.06564519 0.14082456 0.043706596 0.064501904

residual_layers.0.conv1.weight f4 [32, 32, 3]
00000000: 3363 be3d ab7d 81bc 1ae9 be3d c8f4 013c
00000010: 3ec1 b63d 7eba 93bd f9b7 8ebd 554a b1bd
00000020: 6a45 93bd 39c5 633d e20b f0bc 9a29 bf3d
00000030: 0e2f 613d 7500 073d b7fa 2a3c 7b34 d13c
00000040: 9cc8 8039 c765 8f3d c7d6 303d 6559 9fbd
00000050: 8b6f 00bd 8ecf 3bbd 2ffa 093c a734 ab3d
00000060: 462b 51bc 2f0a 05bd 036d b03d e1bf f4bc
00000070: fa62 c83d 895b da3c 1169 95bc d4d3 e93c
00000080: f2ae d03d 77a3 cebd 892f aabd 457b 983d
00000090: 3bfe 5a3d 789f 3c3c a656 eabc 6454 a2bd
000000a0: 4445 aabd 5c9b a83d b587 92bd 10d2 d6bc
000000b0: 4541 a43d 24d5 8dbd af2a 303d 7ed0 d5bc
000000c0: a5c7 493d 993d e93c cf49 833d 0cf0 b4bd
000000d0: 1de6 5d3d 79c8 76bd 3f7b 09bd 8f81 fe3c
000000e0: a374 c53d 20c8 083d 016a 44bd cfe6 2dbd
000000f0: 2e45 973d a14d 18bd ad94 cabd bf29 753d
00000100: 924d 933d 5ee4 c0bd bac4 64bd d3ff 8cbd
00000110: 4e54 22bd 21de 05bd c670 183d 4884 94bc
00000120: f09e 963d 4ecd bbbb b837 983d 7d28 a4bb
00000130: 6b8d 533c a755 a5bd 07f9 c0bd 1598 24bb
00000140: 9b7c cdbd 3945 523b 0c41 a9bd 31ed 88bd
00000150: 0e7c c63c ef2c b5bd c91c d83d 1526 7abd
00000160: db02 8e3d a5ae 0e3d 51c1 413c 7303 853d
00000170: 9479 b53d fafc 89bd 5f38 7abd 46b6 07bb
00000180: deaa 4d3d 5450 7c3d aed0 963c 6c8e c4bd
00000190: 44fb 823d e19f 7abc 978a d43d ab6e b6bb
000001a0: 0389 183c a76f 66bd 0c76 873b e3ee b03d
000001b0: 2209 2b3d a277 a0bd e378 1bbd 9a4e 13bd
000001c0: 678d 7abd 543d 00bd c47f 6b3c a974 babd
000001d0: 70e6 80bd f465 ba3d 1dcb bd3d b70d 69bd
000001e0: 2df0 d63c 1d7f 363d a892 283d f8bd 4bbd
000001f0: 3fd5 b73d 5d61 86bd 39d3 f33c 4ab7 a1bc
00000200: e794 39bd 65c5 f73c 0de0 35bd 9cbd 00bd
00000210: f506 94bd 6d93 8c3d 7c15 bbbd a9ae 3f3d
00000220: 137e a23c cd25 d5bd 379a 19bd 5363 853c
00000230: 6df3 0cbd c6f9 8c3d f71a c5bd b6bc 9b3d
00000240: 0189 f4ba 831a 403d f3eb 2dbc 06c8 983d
00000250: 9247 d3bd 3c4b 4dbd bfcb ab3b 1fb7 9dbd
00000260: 4ae2 a0bd 7e7c 4a3d 34a3 683d 9919 a6bd
00000270: a108 9dbc d882 383d 5769 37bd 866f 823d
00000280: 7e9c 643d 425e 89bd 580b 963d 3f41 dc3d
00000290: bb39 c03c 8276 213c e411 87bd efb1 953d
000002a0: 0b87 a23c 9620 143d 266c b2ba d43b 5e3d
000002b0: 0f5e 183d 2550 383d 9001 c6bc 0edc 6c3d
000002c0: 5b4b b33c 7439 623b 6d14 3f3c 54e7 b6bc
000002d0: 0212 bdbd 6a45 41bd b4d7 45bd 31f7 573d
000002e0: e58c 6d3b 7e7f ce3d 777c da3d 38c5 c5bd
000002f0: d193 1a3c 8d4d a4bd 699c acbd e4b4 59bd
00000300: e57e 45bb 5fe0 f53b bbd3 233d 0c10 9fbd
00000310: ea57 c1bd a0b0 ce3c d9bd da3c 42da 113d
00000320: 5abe 9dbd f1ab 643c 844b bf3c 063b afbd
00000330: cfe1 c33d b416 003d 1538 8ebc 0dc9 543d
00000340: 2046 d53b 60ef 49bd 1e21 32bb 868c d0bd
00000350: 720d c1bd 0f31 8f3d 4766 8d3d 3b73 5ebc
00000360: 18a3 33bd f339 a1bd bb9b 233a 3704 c9bd
00000370: 6636 213d 3764 543c 2860 463d cae3 943d
00000380: deb4 f83c c645 acbc 6736 ee3c 169f 513d
00000390: 6751 ab3c eb61 b0ba ef76 4ebd 87cb 87bd
000003a0: 86ee 13bc 53d7 6dbd 5306 cabd 3200 c2bd
000003b0: 9dee 83bd 479a 73bd 5d76 a3bb cd3d 653d
000003c0: 9ea5 b9bd a402 c7bc e3ae 0f3d 9487 b23d
000003d0: 95eb b4bc ee79 d7bc f0b6 6ebd 175a 803d
000003e0: e8e0 c03c 252f c93d fc4a 533d 2c45 f53c
000003f0: 5874 ee3c 586f 4f3c 372f b5bd be85 ae3d
0.092962645 -0.015806993 0.09321804 0.007931896 0.08923577 -0.07213305 -0.06968684 -0.08656756
-0.07190974 0.055608008 -0.029302541 0.09334107 0.054976515 0.03295942 0.010435752 0.02553772
0.00024563528 0.07001834 0.043173578 -0.077807225 -0.031356376 -0.045852236 0.008421465 0.08359652
-0.012766665 -0.032480415 0.08614542 -0.029876651 0.09784503 0.026654975 -0.018238576 0.02854339
0.10189618 -0.10089772 -0.08309848 0.07445387 0.05346511 0.01151263 -0.02860577 -0.079262525
-0.083139926 0.082327574 -0.0715479 -0.026223212 0.08020262 -0.06925419 0.043009456 -0.026100393
0.04926266 0.028471755 0.06410562 -0.08834848 0.05417453 -0.06024978 -0.033564802 0.031067638
0.09641387 0.03339398 -0.047952656 -0.042456444 0.07386242 -0.037183408 -0.09891639 0.059854265
0.0719253 -0.094185576 -0.055851676 -0.06884732 -0.03963118 -0.03268254 0.037216924 -0.018129483
0.07354534 -0.0057312613 0.074325025 -0.0050097094 0.012912135 -0.080729775 -0.09422498 -0.0025115062
-0.10033532 0.0032084717 -0.0826436 -0.06685866 0.024229076 -0.08846461 0.10552365 -0.061071474
0.069341384 0.034834523 0.011825875 0.064947985 0.0886108 -0.067377046 -0.061088916 -0.0020708009
0.05021178 0.061600044 0.018410053 -0.09597477 0.06395581 -0.015296907 0.103779964 -0.005567392
0.00931001 -0.056258824 0.0041339453 0.08639314 0.041756757 -0.07835318 -0.037957083 -0.035963632
-0.061170008 -0.031308487 0.014373723 -0.091042824 -0.062939525 0.09101477 0.092672564 -0.056897845
0.026237572 0.04455482 0.041155487 -0.049741715 0.0897622 -0.06561539 0.029763805 -0.01974072
-0.04530802 0.030245492 -0.044403125 -0.031430826 -0.072278894 0.06864057 -0.09134957 0.04679743
0.019835507 -0.104076006 -0.037500586 0.016282713 -0.034411836 0.06883578 -0.09624284 0.07604353
-0.0018656553 0.046900284 -0.010615337 0.074600264 -0.10316385 -0.050120577 0.0052427943 -0.07700943
-0.07855661 0.04943513 0.056796268 -0.08110351 -0.019169154 0.045046657 -0.044778194 0.06368928
0.055813305 -0.067074314 0.073263824 0.10754632 0.023465028 0.009854915 -0.06595209 0.07309329
0.019839784 0.03616389 -0.0013612553 0.054256275 0.037199076 0.044998307 -0.024170667 0.057827048
0.021886518 0.0034519108 0.011662585 -0.022327103 -0.0923195 -0.04718534 -0.048301414 0.052725974
0.003624731 0.10082911 0.10668271 -0.09656757 0.009434656 -0.08022604 -0.0842827 -0.053151026
-0.003013545 0.0075035538 0.039996844 -0.077667326 -0.094405964 0.025230706 0.026701855 0.035608537
-0.07702322 0.01395701 0.023351438 -0.0855618 0.09564554 0.03127165 -0.017360726 0.05194955
0.0065086037 -0.04930055 -0.0027180384 -0.10183053 -0.094263926 0.06991779 0.069042735 -0.013577278
-0.04385671 -0.07872381 0.0006241162 -0.09815257 0.03935852 0.012963346 0.048431545 0.0727001
0.030359682 -0.021029364 0.029078675 0.051177107 0.02091284 -0.0013456916 -0.050406393 -0.06630617
-0.009029036 -0.058066677 -0.098644875 -0.094726935 -0.06441996 -0.059473302 -0.0049884752 0.05596714
-0.09064792 -0.024293251 0.035078894 0.08717266 -0.02208499 -0.026303258 -0.05827993 0.06267183
0.023544744 0.09823445 0.051585183 0.02994021 0.029108211 0.012660824 -0.08846896 0.08521603

residual_layers.0.conv1.bias f4 [32]
00000000: a6cf 803d d963 963b a3b4 9cbd 5f7d 853d
00000010: b806 053d 2d88 fe3b 3edd 303d 2bbe 77bd
00000020: 4165 b23d a17f a63b 140b c5bd 8101 4f3d
00000030: 8783 223d 9670 bcbd 272b 1dbd 86f8 1f3b
00000040: 9ad5 4bbd e3a5 7ebb 34fb 10bd 26b2 3fbd
00000050: 2a70 923d 8072 87bd 974e bcbc b03f 78bd
00000060: 91d7 97bd 281a 94bd 2192 10bc f9b0 bd3d
00000070: 8bf1 89bd 7e9c 95bd a9e2 f43c 9a4f 943d
0.06289606 0.0045895395 -0.07651641 0.06518053 0.03247711 0.0077676983 0.043179743 -0.060484093
0.08710719 0.0050811325 -0.096212536 0.050538544 0.039676215 -0.092011616 -0.03837123 0.0024409606
-0.049764253 -0.00388562 -0.035395816 -0.046800755 0.071503 -0.06613636 -0.022986693 -0.060607612
-0.07414163 -0.072315514 -0.008823902 0.092622705 -0.06735524 -0.07305239 0.029893236 0.07241745

residual_layers.0.bn1.weight f4 [32]
00000000: 1ee1 7f3f ef48 7f3f 9bc7 7f3f f2ca 7e3f
00000010: fee5 803f 35d0 803f e72b 803f b5a7 803f
00000020: f7c9 803f b290 7e3f e496 7f3f c921 803f
00000030: b962 7f3f 6968 7d3f 396b 803f d758 7e3f
00000040: 87ef 7e3f dd70 803f 94b0 7d3f 35e0 7d3f
00000050: cdf9 7f3f f9f1 803f a52f 7d3f d24b 813f
00000060: 232a 7e3f ff5f 813f d7ae 803f f666 7f3f
00000070: 839e 7f3f 29c7 7f3f dc6b 813f c1f9 7e3f
0.99952877 0.9972066 0.9991395 0.9952842 1.0070188 1.006354 1.0013398 1.005118
1.0061635 0.9943954 0.99839616 1.001031 0.99760014 0.9898744 1.0032722 0.9935431
0.9958424 1.0034443 0.9909756 0.9917024 0.9999054 1.0073844 0.98900825 1.0101264
0.99283046 1.0107421 1.0053357 0.9976648 0.99851245 0.9991327 1.0111041 0.99599844

residual_layers.0.bn1.bias f4 [32]
00000000: 9833 003c 2db9 1fbc 7642 ed3b 82a1 293b
00000010: 5d93 323c 4b26 61bc 67ab 273b e42f 283c
00000020: 9f35 eb3b 4c2e 12bc c921 fdbb b301 40bc
00000030: e066 d939 91bd 22bc ad59 36bc b8b0 cf3b
00000040: aea8 9cbb 0c8b 483a 0273 07bb 243e 733a
00000050: 3635 58bc acd5 2d3c 59d4 de3c 6cee 4e3c
00000060: 4ba8 40bb 0f17 873c 69fd dd3a 031e 18ba
00000070: 866a 2dbc 9400 8a3a 8bd6 2dbb 6433 fbbb
0.007824801 -0.009748739 0.007240589 0.002588362 0.010899392 -0.01374204 0.0025584341 0.010265324
0.007178023 -0.008922171 -0.007724975 -0.011719155 0.00041466113 -0.0099328915 -0.011129779 0.006338205
-0.0047808504 0.0007650114 -0.0020667915 0.0009278974 -0.01319628 0.010610025 0.027200865 0.012630086
-0.0029397185 0.016490487 0.0016936484 -0.0005802812 -0.010584479 0.0010528737 -0.0026525583 -0.0076660383

residual_layers.0.bn1.running_mean f4 [32]
00000000: f42b 7e3d 9919 18bc b678 b7be b2e9 85be
00000010: b0f7 ab3d 30ec a83e 086e b83e 7e47 db3d
00000020: a5c3 053f 1e66 6b3e 6c9c 133e 1bd3 863e
00000030: 8443 14be 0af5 07bd 5cfb 2f3c 9e06 2bbc
00000040: 0c83 9abe 1abb 57be 54c3 443e 9b45 383e
00000050: 3125 ca3e 1241 8f3b c21c a23e 03ea 16be
00000060: c8d0 5bbe 9836 d23d f93a 90be c820 3f3e
00000070: f5ed c93d f464 ffbe d8ae bfbd 429c bc3e
0.062053636 -0.009283447 -0.35834283 -0.26154858 0.08396852 0.32992697 0.36021447 0.107069954
0.52251655 0.22988173 0.14415139 0.26332936 -0.1447888 -0.03319267 0.010741081 -0.010438589
-0.30178106 -0.21067467 0.19215137 0.17995302 0.394815 0.0043717707 0.31662565 -0.14737706
-0.21466362 0.10264319 -0.28169993 0.18664849 0.0985984 -0.4988171 -0.09359521 0.36837965

residual_layers.0.bn1.running_var f4 [32]
00000000: 4ef3 4c3e 5042 253e a268 b63d a748 f53d
00000010: 8b92 e33d 5de5 993d 9637 ef3d 4826 b73d
00000020: 3986 e63d ce0a cf3d cf40 a03d dec0 be3d
00000030: d074 363e 2051 613d 7de7 3a3e 47b2 c33d
00000040: d915 963d 3c4c 313e e4c2 053e 96cd ad3d
00000050: 52c6 ca3d 2128 0e3e bf47 2b3e 408a 0a3e
00000060: 1e03 d03d 982e 243e 2700 063e 41b2 d73d
00000070: 8954 8f3d 9023 0a3e 471c a23d dab2 f23d
0.20014688 0.16138577 0.08906676 0.11976748 0.11111935 0.07514451 0.11680524 0.089428484
0.1125607 0.10109483 0.07824861 0.0931413 0.17817998 0.055009007 0.18252368 0.09555488
0.07328386 0.17314237 0.13062626 0.08486478 0.09901108 0.13882495 0.16726588 0.135293
0.101568446 0.16033399 0.13085996 0.10532046 0.06998546 0.13490129 0.0791555 0.118505195

residual_layers.0.conv2.weight f4 [32, 32, 3]
00000000: 8c2b c03d 60f0 76bd 8cd8 6c3c 7cb5 5bbc
00000010: abff e03b 904e c6bc e32a c93c 605b 923d
00000020: a81a ff3c 33d3 513d 7fc5 9d3c 5a72 c63c
00000030: d20f 953d 0026 83bc a28c 0a3d c3ce f93c
00000040: 9934 b3bd 5fcc a73c cfcd 223d 42c0 403d
00000050: 9d15 9b3d e7cb 793d a515 41bd 3476 85bd
00000060: 93fc 9d3b efa2 f2bc ce4a 2a3d 8fe8 a6bd
00000070: fb5c ed3c 76f1 26bd 84b4 26bc 5035 8bbd
00000080: 7a79 9cbd 1bba 533d ea7d 343d 6713 2dbd
00000090: 9e21 02bd 85a7 fbbb a02a 2dbd 1cb1 60bd
000000a0: 544e f23b b360 36bd a26e c1bd 6c82 ba3d
000000b0: b0b3 d3bd 509d 003c 4bde 95bd c033 79bc
000000c0: 065d 823d 7fef 993d 3e64 91bd 512a 093d
000000d0: 3f9a 893d 9f0c c13c 73cc 24bd be13 2ebd
000000e0: af9f c9bc 49e7 ddbd 65ca cbbd f5da bf39
000000f0: 9be4 3b3d 414e 9a3d 48cd 723d 63c1 6b3d
00000100: 1408 d93c a402 adbd 79b1 44bd 1813 2e3d
00000110: 8ab2 93bd 850c e6bb e6e6 cf39 b7da a6ba
00000120: 802f 303d 4f21 9c3d ca8a 1bbd 1660 8f3d
00000130: 9db2 8c3d 6c44 9c3c fc18 c83d d60d 63bd
00000140: 3ca9 59bd 0065 35bd 7ae5 bebc c1a5 bebd
00000150: af0d 94bd fa4a dfbd f2d0 2f3c ba3d 5bbb
00000160: a32a 973b be14 7ebd b8ae bebd 6da4 b63d
00000170: bb78 bd3d 7836 4e3c 126a c53d e498 113d
00000180: da0a 403d 7304 8e3d 26fd 93bd fc00 6b3d
00000190: 61f4 94bd e7e4 203d 7acb 3a3d 04f7 883d
000001a0: cfd5 5c3d 9b6a e3bc f42c 8cbd 1d5b f93c
000001b0: 9032 5f3d 6a22 b0bd fef6 3c3d ecb6 be3c
000001c0: 5b4a a93d f024 33bd 7197 97bd b3e8 3dbc
000001d0: 0138 a53d f602 3f3d 4530 c33d 9b19 133d
000001e0: e7b1 6c3d c7f7 b73d c903 8bbd afbf 8fbc
000001f0: ea73 893c 3f86 39bd 0385 abbd ae76 cabd
00000200: 5abc 3b3c 5bc4 3abd 34af 24bd a1a2 a2bd
00000210: 934a c7bd e6fd efbb 816a bbbd 0968 76bd
00000220: dde2 bc3d dbb8 643c 729e 903d a208 12bd
00000230: 7b83 313c 529c 833d d250 96bc c85e 6ebd
00000240: 6cbd 1fbd a5a1 92bd 61cc 49bc 6f14 ae3d
00000250: 0f72 c63c 99dd 96bd d346 32bd 6522 7cbd
00000260: 86e4 a93d 7385 003c c6a2 a23d 8861 8c3d
00000270: dbd6 5e3d 88ad 65bb 0242 cebd 444d 1d3c
00000280: e7e5 13bd 626e bbbb 285e d23a da47 be3d
00000290: b6b2 d0bd fb62 5ebd b92e 913d 6bcb 743a
000002a0: 4083 92bd 3f86 0b3d 865f 043d 11cc 17bd
000002b0: e205 ecbb 23cd 21bd a24f 89bd 977c 2dbd
000002c0: 0334 593d feb2 42bd 11db a2bd 61cc 91bd
000002d0: 4687 bebd bfca aebd df18 52bd 6971 663d
000002e0: 9a37 963c ce27 2d3c 1d4e bcbd 57f0 813d
000002f0: ba25 cdbd 69e7 973d e7f3 10bc 4b49 72bc
00000300: fc7d 82bd 5e5b e5bd 356a 80bd 0a39 833c
00000310: edc9 683a d9f4 93bb 394f 333d 0de0 10bd
00000320: 0893 b83d fbca a5bd dd9b bf3c ce95 90bc
00000330: c514 483d d580 a9bd 7947 71bd ba73 0abd
00000340: e4ee c83c ad85 9cbd eb5d febc ecd7 bd3d
00000350: 795d 46bd 5260 af3d f099 b23a e003 a53d
00000360: 96a3 973d 30cd 6ebd 6d37 5cbd b4d4 71bd
00000370: 919d c7bd 9cae 19bd 62a1 973d 2d84 91bc
00000380: b570 cdbd a912 e43c 0bd0 b0bd 53f0 973d
00000390: 2c47 5ebc 335b 82bc e63c 31bc 2b43 ba3d
000003a0: e30a 88bd 45d4 2bbb 9102 e0bd 9b3f 563c
000003b0: 1a70 da3d cabc 513d 3d35 a83c a9a6 473d
000003c0: b4d6 8cbd d789 bd3d 5dc3 92bd 086f 4abd
000003d0: 3f09 f83c ab1d a23d 1fbc 793c f938 49bc
000003e0: 89a9 833d 0ea2 7ebc 26c6 17bd d18b e53c
000003f0: f835 a63d 335f 89bc 6fd8 39bc c503 553d
0.09383306 -0.060287833 0.014455926 -0.013409968 0.0068664155 -0.024207383 0.024556583 0.07146335
0.03114064 0.051226806 0.019259213 0.024224449 0.07278408 -0.01600933 0.033825524 0.0304941
-0.087502666 0.020483194 0.039747056 0.04705835 0.07572482 0.060985472 -0.047139782 -0.06516686
0.004821369 -0.029618708 0.041575246 -0.08149826 0.028975 -0.04075762 -0.010174874 -0.06797278
-0.07640357 0.051691156 0.044065394 -0.04225483 -0.03177034 -0.007679882 -0.04227698 -0.054856405
0.0073945913 -0.044525813 -0.0944493 0.09106907 -0.10337007 0.007850006 -0.0731779 -0.015210092
0.06365399 0.075163834 -0.07099198 0.03348762 0.06718873 0.023565589 -0.04023404 -0.042499296
-0.024612276 -0.1083513 -0.09950713 0.00036593495 0.045872312 0.07534457 0.059277803 0.057557475
0.02649311 -0.08447769 -0.048020814 0.042498678 -0.07211788 -0.0070205354 0.0003965415 -0.0012729977
0.04301405 0.076235406 -0.037974156 0.07000749 0.06870005 0.019075595 0.097703904 -0.055433117
-0.05313991 -0.044285774 -0.023302782 -0.09308959 -0.072291724 -0.109029725 0.010730969 -0.003345354
0.004613237 -0.0620315 -0.09310669 0.089180805 0.09251543 0.012586229 0.09639372 0.0355462
0.04688535 0.06934442 -0.072260186 0.057373986 -0.07273174 0.0392808 0.045604207 0.066877395
0.05391484 -0.027760794 -0.06844512 0.030438954 0.05449158 -0.08600314 0.046133988 0.023280583
0.08266135 -0.0437364 -0.07401932 -0.011591124 0.080673225 0.046633683 0.09530691 0.03591309
0.05778685 0.08982807 -0.06787831 -0.017547457 0.016778905 -0.045294043 -0.08374979 -0.098859176
0.011458481 -0.045597415 -0.04020615 -0.07941175 -0.09731021 -0.007323968 -0.091511734 -0.06015781
0.09222958 0.013960089 0.07061471 -0.035652764 0.01083457 0.064263 -0.018349085 -0.05819586
-0.038999006 -0.071597375 -0.012316794 0.08499991 0.02422431 -0.07366485 -0.043524574 -0.06155624
0.082955405 0.007844317 0.07941203 0.0685454 0.05440412 -0.003504606 -0.10071184 0.009600941
-0.036107924 -0.0057199458 0.0016049789 0.09291048 -0.101903364 -0.054293614 0.0708899 0.0009338173
-0.0715394 0.034063574 0.03231766 -0.037059847 -0.0072028497 -0.039502274 -0.06704642 -0.042355146
0.053028118 -0.04753398 -0.0795194 -0.0711906 -0.09303145 -0.085347645 -0.05129325 0.0562605
0.01833706 0.010568572 -0.091945864 0.06344669 -0.100169614 0.07417185 -0.008847213 -0.014787982
-0.06371686 -0.111990675 -0.062702574 0.01601841 0.0008880187 -0.004515272 0.043776724 -0.03536992
0.09012419 -0.08095356 0.023389751 -0.017649557 0.048847932 -0.08276526 -0.058906052 -0.03380177
0.024527974 -0.07642684 -0.031050643 0.092696995 -0.048428986 0.085632935 0.0013626199 0.0805738
0.074042484 -0.05830115 -0.053763796 -0.05904074 -0.0974685 -0.037520036 0.07403828 -0.017763222
-0.10031263 0.02784093 -0.08633431 0.07418885 -0.013566773 -0.015912628 -0.010817742 0.090948425
-0.066427015 -0.0026219052 -0.109379895 0.013076688 0.10665913 0.051205434 0.020533198 0.048742924
-0.06876889 0.092548065 -0.07166169 -0.049422294 0.030277846 0.07915815 0.0152426055 -0.01228165
0.06428821 -0.015541567 -0.037054203 0.028020771 0.081157625 -0.016769027 -0.011343106 0.052005548

residual_layers.0.conv2.bias f4 [32]
00000000: b48c abbd 9401 39bd e944 9c3d cc4c 803d
00000010: 6216 2cbd 53e0 88bd 1ec3 8abd 5aaa b3bd
00000020: 6269 783d fdb7 073d d6c2 483d 8ee6 1f3d
00000030: 6146 1c3d 0601 acbd e68b 303c db5e 9dbd
00000040: 4d96 843d 9235 96bd c907 56bd 1957 b1bd
00000050: da9d cdbd 03a6 cd3c b035 c0bd 20a1 b3bd
00000060: 03d6 7cbd bc01 c0bd bd9c c3bb 2979 2abd
00000070: f987 95bd ab63 cd3d 4c8b 33bc dbfa d8ba
-0.08376446 -0.04516752 0.07630331 0.06264648 -0.042013533 -0.066834114 -0.06775497 -0.08772726
0.060647376 0.03313445 0.049013935 0.039038233 0.038153056 -0.08398633 0.010775542 -0.07684108
0.0647398 -0.073344365 -0.05225352 -0.08659191 -0.100398734 0.025103575 -0.0938524 -0.087709665
-0.061727535 -0.09375331 -0.0059696124 -0.041619454 -0.07301325 0.10028776 -0.010958504 -0.0016554253

residual_layers.0.bn2.weight f4 [32]
00000000: cba3 7b3f fb2c 7a3f e954 803f 1614 7a3f
00000010: 7a3c 7d3f b231 7f3f 093c 813f 719e 803f
00000020: 6486 7d3f bd81 7f3f 3f74 7e3f 7920 7c3f
00000030: 1d02 7c3f 5e54 7e3f aef6 783f 55f8 7f3f
00000040: b637 803f be9b 7b3f 7809 7c3f 1f04 7d3f
00000050: dafc 7d3f 9a5f 803f 5ad3 7b3f adb1 793f
00000060: 7896 7d3f ce1c 7b3f 83bf 7d3f 2c7b 803f
00000070: 9697 803f 612d 7f3f f5c1 7d3f f13a 7c3f
0.98296803 0.97724885 1.0025913 0.976869 0.98920405 0.99685204 1.0096446 1.0048352
0.9903319 0.9980734 0.9939613 0.9848705 0.98440725 0.99347484 0.97251403 0.999883
1.0017002 0.9828452 0.9845195 0.98834413 0.99213946 1.0029175 0.9836937 0.97536737
0.9905772 0.9809083 0.9912035 1.0037589 1.004626 0.9967862 0.9912408 0.9852744

residual_layers.0.bn2.bias f4 [32]
00000000: 6f40 02bd d713 a9ba 630a 673b 076c 66bc
00000010: a3e6 8bbc 698a db3c e7e1 4dbb 17de 993c
00000020: df0d 65bc 6a2f 57bc b96e 9c3c 0f4f b3bc
00000030: e659 eabb 07a6 1fbc 8d48 96ba 91da 833b
00000040: 70f2 173b d28f 86bc 2306 dcbc 2d13 80bb
00000050: 9b6d 8dba 5d21 86bc 132e 8d39 426f 36bc
00000060: 1d44 89bc 0093 3fbc 25b7 ad3a 09ef 123c
00000070: 886b ba3b 27e8 a73a 9c4d d0bc d64a 0437
-0.03179973 -0.001289959 0.0035253994 -0.014063842 -0.01707775 0.026799398 -0.0031415166 0.018782659
-0.013980358 -0.013133863 0.019095765 -0.021888284 -0.00715183 -0.009744174 -0.0011465714 0.004023858
0.0023185275 -0.016426 -0.026858395 -0.003908536 -0.0010790111 -0.01637333 0.00026927944 -0.011134924
-0.016756112 -0.011692762 0.0013253434 0.008968123 0.0056890883 0.0012810276 -0.025427632 7.885237e-06

residual_layers.0.bn2.running_mean f4 [32]
00000000: ccdf ebbd 43f5 8fbe 2772 d2bd 95b0 923e
00000010: 5381 543e 91df ddbc 6f72 cc3c ae99 c0bd
00000020: 3a2c a43d 80dc 683c 2004 e73e 32a7 913c
00000030: d694 593d 722d 92be 6c50 b93e c1b6 b23c
00000040: 4184 53be 151c 92be 242f a43d a65d d3bc
00000050: 3026 cebd 20a6 be3d 690f 2bbd 6219 92be
00000060: d48f 48bd 8de9 053e 1405 dabc 99a4 1bbe
00000070: 2259 82be 67a3 033f 19f8 36be 463b 23bd
-0.11517295 -0.28116807 -0.10275679 0.28650346 0.20752458 -0.027084144 0.02495691 -0.09404312
0.08016248 0.014212728 0.45120335 0.01777992 0.053120457 -0.28550297 0.3619417 0.02181566
-0.2065592 -0.2853705 0.08016804 -0.025801491 -0.100658774 0.093090296 -0.041762743 -0.2853499
-0.04896529 0.13077374 -0.02661375 -0.15199508 -0.25458628 0.5142121 -0.17868079 -0.03985145

residual_layers.0.bn2.running_var f4 [32]
00000000: bcde 9b3d 849d 1a3e 925d f63d d3c7 003e
00000010: d8f2 e23d 0f69 d73d 1615 d93d dd9d e23d
00000020: 8a21 213e 3716 a23d 51da 223e 5dc8 063e
00000030: e682 fb3d 1cb8 e23d 5ceb 983d c8d0 c13d
00000040: 4df6 1e3e 9082 f33d 87bc b43d a5b5 123e
00000050: 443f c03d d8c6 fe3d 00ea 3a3e b230 c93d
00000060: 565d 223e 479d d53d 8e37 193e bcfe 2d3e
00000070: 12bd 343e f6ec d23d 2e0c a63d 05e0 093e
0.076108426 0.1509915 0.12029566 0.12576227 0.11081475 0.10518085 0.10599725 0.11065266
0.1573545 0.079143934 0.15903594 0.1316237 0.12280826 0.11070272 0.07466766 0.0946365
0.15523644 0.11890137 0.08825021 0.14327104 0.09387067 0.1244027 0.18253326 0.09823741
0.15855917 0.10430389 0.14962599 0.16991705 0.1765025 0.10299103 0.08107792 0.13464363

residual_layers.1.conv1.weight f4 [32, 32, 3]
00000000: f28d bebd 0fa2 c2bd 5ebf c0bd 5013 85bd
00000010: 89d4 09bd 425c 1f3d e023 483d fb34 0c3d
00000020: 77d4 ca3b 97ac 11bd 6890 a7bc 14f3 043d
00000030: 1120 a9bb 43ea 54bd 8b8c 003a 16e9 65bd
00000040: 5492 d43c 4897 49bb da9b e63c d4d0 b1bd
00000050: a642 3ebb f75a ac3d c321 013d bf62 a7bb
00000060: a100 c4bb 5085 65bd 3b3a 4bbd 1829 d03d
00000070: c615 863d ae26 d03c 37fd 0b3d 6017 dbbc
00000080: 2243 d43d 59b9 d83b 583d 2f3d 5ee9 d13d
00000090: fb03 32ba a1e2 483c 1ca7 a1bc 5668 95bc
000000a0: bb9f c5bc cbf6 39bd b7a6 893d 67b8 bc3d
000000b0: 4aad cfbd e82e 6f3d 69b4 763d 2c35 773d
000000c0: b8c7 043d 2aaf 85bd aef9 cabb ba68 163c
000000d0: e850 213d 5041 6abd eea0 abbd f521 b83c
000000e0: b699 6f3d 22bc 7b3c 9c8f 923d 8298 b0bd
000000f0: 00bf d5bb d927 77bd a0d7 b43d 13f8 9cbd
00000100: fa2d 3c3d 246e e13d 8dff babd 08da 063d
00000110: 8bab d6bb 22f3 5fbd 3492 613d 8058 4bbd
00000120: 042a 15bd f10a 943d 110e 1dbd c1e7 26bd
00000130: 89a3 b73d 4f7e 7bbc 1c6c 55bd b517 dabd
00000140: d95d 94bd bd2a 363d c15f ccbb 5ee8 5e3b
00000150: 2f08 343d 5a4f 363d 80cd fc3c d1f2 91bd
00000160: 243c 093b 00ba 8dbd 9ba1 b4bd 85e1 92bb
00000170: 7459 8abd 97df 553d 3e2e 1dbd c31f 033d
00000180: 6f81 c3bb f811 a8bd f47c a23d c96f 893d
00000190: 250f 543d 9d03 f4ba 7a93 8e3d 6634 1fbd
000001a0: bcc0 d03b 2883 63bc b2f3 b23d b6b8 b7bd
000001b0: 3433 503d 85e6 a63c 51f4 cabd c9a8 b23c
000001c0: 8966 e4bc f3c0 85bd bc61 d03c 2c9b 403c
000001d0: 8f23 c03d 9718 403c 0710 03bd 660e be3d
000001e0: 2f05 0cbd 008e c23d 97cd bcbd 79aa 823d
000001f0: 545b 3abd 5fe4 8abd d771 88bd 4ef0 3d3d
00000200: f527 7a3d 2340 4b3d 46a6 94bd daf6 9e3d
00000210: ea70 95bd 9d6b 283d ea49 14ba 21cc e4bc
00000220: 4168 90bd 5366 b5bd 2244 293d c561 a03d
00000230: 7d85 b3bd 9183 003d 88ee a13d 4d75 833d
00000240: eef4 8bbd 6075 583d d7c2 b4bd a458 b43b
00000250: c65e 20bd a6c2 5ebc d0aa 773d 9f3c 6a3d
00000260: 162b 903d 5e76 d0bd 6c5d 183d f4fc 20bd
00000270: 51ed 413d 2d28 b43c 997e d93c 87ac c83d
00000280: d372 963d 37e5 4c3a 54d1 adbd 27aa 4f3d
00000290: bde7 163c 9ec9 0dbd 845b fa3c adb1 8d3d
000002a0: 9025 8dbc ce13 42bd c580 5abd e291 8c3d
000002b0: 9099 1abd b842 dcbd 6874 44bd 28a5 4dbc
000002c0: 51db 98bd c392 b23c 614e b73b 5d14 96bc
000002d0: c619 d4bd 4333 873d 7224 24bd 4a1a 7b3d
000002e0: e16f 883b 6373 b73d dbc5 85bc 277f dc3b
000002f0: f09e cabb 9e4b b9bd fae2 e0bc 92a8 24bd
00000300: 16e0 e03b 6ee0 013d 5c7f 2abd b169 49ba
00000310: 8af1 babd e6ea 733c 4f99 1fbd 871f 7f3d
00000320: dad5 343c 74bc 3b3d 7c61 4b3d b50f 64bd
00000330: 811d 42bc b6fb b63d 4229 d2bb b685 26bd
00000340: 1a42 0fbc 8efe c23d 6500 213d 7abd 40bd
00000350: e84d dd3d 2ef0 09bd c51c 07bd cddf 9b3d
00000360: 3569 383b 3a29 323c 9653 b83d 7f71 d33c
00000370: 8b0c 143b 800c d1bd e205 7cbd f56c a43d
00000380: 30ac 9c3d c99f 98bd 976c 883d c1da 7a3d
00000390: 25ca 91bb fe96 593d d381 2dbd 5c6c c4bd
000003a0: ed4c bd3d 226a 5b3d 16e9 5bbd d711 30bd
000003b0: b621 b3bc 20b0 94bd 94d5 8a3d 0c55 b63b
000003c0: 1e02 a93d bdd6 87bd 2c2c 2c3d 0833 51bc
000003d0: 26b6 f6bc 6609 23bd fa7d b0bb 1543 8cbd
000003e0: bb2e c43b f29b 9a3c adb1 83bd 3ee6 9d3c
000003f0: 040c ae3d 0a3c 8abd f057 93bd 7f94 81bd
-0.09304418 -0.095035665 -0.094115004 -0.06497824 -0.033649955 0.038906343 0.048862338 0.034230214
0.0061898786 -0.035564985 -0.0204546 0.03245838 -0.0051612933 -0.051981222 0.0004903755 -0.05613049
0.025948681 -0.0030760337 0.028150488 -0.08682409 -0.0029031425 0.08415788 0.03152634 -0.005108207
-0.0059815203 -0.05603534 -0.04961608 0.10164088 0.06547122 0.025409069 0.03417703 -0.026744545
0.10364367 0.006613892 0.04278311 0.102495894 -0.0006790754 0.012261064 -0.019733004 -0.018238228
-0.024124017 -0.045401376 0.067212515 0.092148595 -0.10140474 0.058394343 0.060230646 0.060353443
0.03241703 -0.065275505 -0.006194315 0.009180242 0.0393838 -0.057191193 -0.08380304 0.02247713
0.0584962 0.015364679 0.071562976 -0.086228386 -0.006523013 -0.060340736 0.0883019 -0.07664504
0.045942284 0.11007336 -0.09130774 0.032922775 -0.0065512112 -0.05467523 0.05507107 -0.049644947
-0.036417022 0.072286494 -0.038343493 -0.04074836 0.08966739 -0.0153499385 -0.052105054 -0.10649053
-0.072444625 0.044474352 -0.0062370007 0.0034013013 0.043953117 0.04450927 0.030859709 -0.07126392
0.0020940388 -0.06920242 -0.08819886 -0.0044824504 -0.06755343 0.052215185 -0.038374178 0.032012712
-0.0059663574 -0.08206552 0.07933989 0.067107745 0.051772255 -0.00186168 0.06961723 -0.03886833
0.006370632 -0.013886251 0.087378874 -0.08970778 0.05083008 0.020373592 -0.09909881 0.021808999
-0.027880924 -0.06530943 0.025437228 0.011755746 0.09381782 0.011724613 -0.031997707 0.0928009
-0.03418463 0.094997406 -0.09218901 0.06380171 -0.045497254 -0.067818396 -0.06662338 0.04637175
0.061073262 0.049621712 -0.07258277 0.07761927 -0.07296927 0.041118253 -0.0005656766 -0.027929367
-0.07051135 -0.088574074 0.041324742 0.07831148 -0.08765695 0.03137547 0.07906824 0.06418858
-0.06833826 0.052846313 -0.08826225 0.005503731 -0.039152883 -0.0135962125 0.060465634 0.05718672
0.07039468 -0.10178827 0.03719847 -0.039303735 0.047345463 0.021991814 0.026549624 0.09798532
0.0734612 0.0007816138 -0.08487192 0.05069938 0.009210524 -0.034616105 0.030561216 0.069186546
-0.017229825 -0.04738217 -0.05334546 0.068637624 -0.037744105 -0.10754913 -0.047962576 -0.012551583
-0.07463706 0.021798497 0.0055940603 -0.018320257 -0.103564784 0.06601574 -0.04007382 0.061304368
0.0041637276 0.08957555 -0.016329696 0.006729025 -0.0061834976 -0.09047626 -0.02745198 -0.040199824
0.0068626506 0.031708173 -0.041625366 -0.0007683291 -0.09128101 0.014887547 -0.038964566 0.062285926
0.011037314 0.04583402 0.049653515 -0.055679042 -0.011847855 0.08934729 -0.0064136097 -0.04065486
-0.008743787 0.09521209 0.039307017 -0.0470557 0.10805875 -0.03367632 -0.03298642 0.07611046
0.002813888 0.010874087 0.09000318 0.025810955 0.0022590484 -0.10207462 -0.061529048 0.080285944
0.0765003 -0.074523516 0.06661337 0.061243776 -0.0044491463 0.053122513 -0.04236014 -0.095909804
0.09243188 0.053568013 -0.053689085 -0.042985763 -0.02186666 -0.07260156 0.06779018 0.0055643376
0.08252357 -0.06632755 0.042034313 -0.012768514 -0.030116152 -0.039803885 -0.0053861113 -0.068487324
0.005987016 0.018873189 -0.06430373 0.019274827 0.084983855 -0.06749733 -0.07194507 -0.063271515

residual_layers.1.conv1.bias f4 [32]
00000000: fbd2 b8bd 708f 393d d514 4b3d d862 9fbd
00000010: f791 0e3d 4cc4 123d 0c54 b2bd 8242 233d
00000020: d949 aabd 9e44 9d3d 82ab 96bd a7a4 5fbc
00000030: 1323 3b3d aa21 193d 294f 9e3d f83f 73bd
00000040: f12c b0bc 0d4c aabc c93e 673d 469b 05bd
00000050: 0936 a2bd cb23 8e3c 6738 7ebd 0ab9 9cbd
00000060: 5c6b c33d d4ca f4bc e93f 823d 983b 2b3d
00000070: 6e7b 71bc 9ef9 76bd 8899 9b3d f45c 6cbd
-0.09024616 0.04530281 0.049580414 -0.07782525 0.03480717 0.035831735 -0.08707437 0.03985835
-0.083148666 0.07679103 -0.07356931 -0.013650096 0.045687746 0.03738562 0.07729942 -0.059387177
-0.021505805 -0.020788217 0.05645636 -0.032618783 -0.07920463 0.017351052 -0.06206551 -0.07652481
0.095419616 -0.029881872 0.06359846 0.04180488 -0.014738901 -0.060296647 0.07597643 -0.057705835

residual_layers.1.bn1.weight f4 [32]
00000000: c675 813f d18a 7d3f 5508 803f 0445 803f
00000010: a67e 7f3f 27c0 803f 534e 803f d70f 7e3f
00000020: 71a0 7e3f 9364 7e3f 13fd 7f3f d195 803f
00000030: fe93 803f ca78 7d3f fd1f 803f 9460 813f
00000040: ce54 813f 3656 813f e7da 803f 1300 803f
00000050: 9b56 803f fb55 7b3f f06b 7c3f 67cb 7f3f
00000060: bd09 7d3f 8505 813f 41ae 803f f4dc 803f
00000070: 445e 803f c946 7f3f 6c7b 7f3f 51f8 7c3f
1.0114067 0.9903994 1.0002543 1.0021062 0.99802625 1.005864 1.0023903 0.9924292
0.99463564 0.99372214 0.99995536 1.004572 1.0045164 0.99012434 1.0009762 1.0107598
1.0104005 1.0104434 1.0066804 1.0000023 1.002643 0.9817807 0.986022 0.9991974
0.98842984 1.007981 1.0053178 1.006743 1.0028768 0.99717385 0.997977 0.988164

residual_layers.1.bn1.bias f4 [32]
00000000: 8c6a 853c 5b54 af3a dd61 dd3b de98 66bc
00000010: e295 3a3c de61 1cbc 65be 4a3c d4a2 74bc
00000020: d61e 743b a68f 153c a55a fa3c c031 5c3c
00000030: 2a29 60bb 0271 25bd fbe3 a63b ca54 22bb
00000040: c448 4e3c 2030 953c 46f3 e6b9 622a 8fba
00000050: e46e 1e3c e023 823b 2198 bb3b 009b e13a
00000060: a030 39bc 0359 9dba 05be 82ba a11d ccbc
00000070: 4218 533c 58b1 653b 6e06 b73b effa 8db7
0.016286157 0.001337658 0.006756051 -0.014074532 0.011388274 -0.009544818 0.012374495 -0.014931399
0.0037249825 0.009128487 0.0305608 0.013439596 -0.0034204223 -0.040390976 0.0050930954 -0.0024769777
0.012590591 0.018211424 -0.0004405027 -0.0010922665 0.009669993 0.003971562 0.0057249223 0.0017212331
-0.011303097 -0.0012004677 -0.0009974843 -0.024916472 0.0128842015 0.0035048332 0.0055854833 -1.692536e-05

residual_layers.1.bn1.running_mean f4 [32]
00000000: fdb9 5ebe e39b 023e a50c bc3e 2ac3 4ebf
00000010: bb32 b2be 7d1f 73be 7dbd cf3e b295 9e3e
00000020: dd70 33be 8771 ddbd 8783 903e d8ae bbbe
00000030: b9ae 3d3e a7d0 adbd 1919 823e 1a4d aa3e
00000040: 296b e8be d8de 8f3e 3ef3 0f3f f422 c33e
00000050: 38c6 b3be 6eeb 03be 57af 56be 4efa 3ebd
00000060: ce4e 61be 2524 d33e ee66 863e 343c 0abf
00000070: 7777 debe 45a2 0bbf 0c82 993c adfb e6bd
-0.21750636 0.12754779 0.36728397 -0.80766547 -0.3480433 -0.2374248 0.40574256 0.30973583
-0.17523523 -0.10812669 0.28225347 -0.36656833 0.18523683 -0.08487063 0.25409773 0.3326195
-0.45394257 0.28099704 0.56230533 0.38112605 -0.35112166 -0.12882778 -0.20965324 -0.046625428
-0.22002718 0.41238514 0.26250404 -0.5399811 -0.4345052 -0.5454448 0.018738769 -0.11278472

residual_layers.1.bn1.running_var f4 [32]
00000000: 11a1 753e 0aa4 643e 2a6e 5f3e 1e48 9b3e
00000010: 5af1 733e d52e 253e 2b04 723e 483f 653e
00000020: cf95 363e a7c1 3d3e 0556 a13e 47ea 773e
00000030: 895b 3c3e 1e42 293e a8c3 533e db25 793e
00000040: ed38 683e 1690 553e 9775 753e 2d6b 9a3e
00000050: 521a b03e 4300 283e 7d21 623e efbf 543e
00000060: 71cb 473e ded1 4a3e 3dca 033e ea78 273e
00000070: 1110 803e 5c4c 603e efa5 233e 438e 383e
0.23987223 0.22328201 0.21819368 0.3032846 0.23822537 0.16131146 0.23634402 0.22387421
0.17830585 0.18530904 0.3151094 0.24210463 0.18394293 0.16529128 0.20680106 0.24330847
0.22677965 0.20855746 0.23970638 0.30159894 0.3439508 0.1640635 0.22083087 0.20776342
0.195112 0.1980662 0.12870117 0.16354719 0.25012258 0.21904129 0.15981267 0.18023019

residual_layers.1.conv2.weight f4 [32, 32, 3]
00000000: 35a3 a63d 0f02 8f3d 0524 c33d c58d a8ba
00000010: 3d25 44bd ee6e 483c 1253 a3bd 5659 63bd
00000020: 1a2e ddbc 9380 c9bd ad37 9ebd af90 c53c
00000030: 508f 263c 7237 db3d e436 bb3d f1bb c0bd
00000040: 1bbb 483d 5964 d2bc 1ec0 4a3d 67c4 593b
00000050: 0b6f c0bd 88cf 57b9 c909 4fbd 2bba ceba
00000060: ba55 c33d 85cc c0bc d69c 10bd 4672 9bbc
00000070: da52 243d 0adc 9dbd 168b 9d3d 78af 803d
00000080: f6ee 603d 0857 313d ef92 813d 8994 babc
00000090: d2cd 89bd 95d9 3f3d 3c5c bebd 0734 68ba
000000a0: 7e93 c03d dd0a a9bd 7155 833c 4ede 5fbd
000000b0: 3197 913d ee0d 913d 5124 e3bd fde4 8abd
000000c0: 8bfb e3bb a211 bf3a 16b4 363d 0cc6 c0bd
000000d0: 411c b0bc fb05 81bd 8acb f0bc 4cc8 4b3d
000000e0: 3b54 28bd 9694 a1bd c8d2 253d 831c 2e3d
000000f0: 6e37 8b39 aefb bc3d 86b4 80bc 8444 39bd
00000100: c44b c93c 2dbc 623c 5238 23bb 12c9 ddbd
00000110: ce67 2cbd 86ab 7ebc 4176 a93d bd9e 743d
00000120: 6feb 67ba cb84 b3bc a671 bf3d 3609 30bd
00000130: caf7 a9bc 46d3 a13c 8a9f 6dbd ae8d 4cbb
00000140: dd29 c13c b53d b73d 26b3 b13c 2374 52bd
00000150: 95a4 dabd 4b3b 6f3d cffd 45bd b246 b4bc
00000160: 123e 843d a651 11bc 2c95 d3bd 7386 a1bd
00000170: 36c8 d3bc 35d6 993d ab18 4bbd cd4f 8e3d
00000180: ad2b 25bd 0388 79bd f218 96bd 4779 5a3d
00000190: a53d a5bd 75e5 80bc 21ff 23bd c9d2 523d
000001a0: e57d 093d ecb2 95bd 4c83 21bd 1bc0 ae3d
000001b0: 25b9 cb3b 31fd 57bd 3fb7 c0bd 5e5e ac3c
000001c0: 6cd8 283d a1a7 8cbd ce36 973d 1f5f 8c3a
000001d0: c2ab 32bd 248c 943d 2fad 4bbd 23e6 9d3c
000001e0: 1362 e6bc 0faf 023d ac93 3cbd 5f90 ff3c
000001f0: b394 cabd 4e45 503d 3912 b83d 030c 3bbd
00000200: 0d07 a93d 52de 6d3d f6c6 4b3d a0e3 a53d
00000210: 6ca1 923d 15b6 bebd 83c7 0b3d 0eab 39bd
00000220: d1ca f23c 9d9d 65bb e1b3 83bc a561 6abd
00000230: 8f68 c8bd e9a1 213d ad3d 083d 30db 903c
00000240: 0b80 8fbc e019 88b9 f72f 843d 6f2b 90bc
00000250: d21a cd3c 2971 fd3c 6b5a cb3c 998c eb3a
00000260: 761f 9e3d 7505 e03d ef9e b0bd b15c c63d
00000270: 2b5b 183d 776e 753d 0065 2f3c 3502 dbbd
00000280: 8494 ad3c 93de 8dbd 6a45 023c 2a4d c3bc
00000290: 70a3 a9bc 763a 223d 9059 9b3d 8a85 c33d
000002a0: 29c1 3a3d 64d5 f03c 369c 5d3c bd04 423d
000002b0: ef5f cb38 350b 723d f081 313d 07cf 67bd
000002c0: beb6 cbbc d89d e2bc 6e7b c9bc ebb9 c53c
000002d0: 11ab 53bc 2be9 bf3d dc7a dd3d 7fbd 91bc
000002e0: 6982 b3bd ef6f 243b 708d bebd d206 b8bd
000002f0: 6618 503d 8f1d a03d d8f9 81bd f911 73bd
00000300: f5d0 c2bc d790 8c3d ec59 81bd 9266 b13d
00000310: 851d c6bd 2a12 79bd 1d05 9a3d eaf3 093d
00000320: 7f43 babd e3f4 51bd e70b a63d c0b1 ba3d
00000330: 5f4d 3fbd 2ab0 953d 5b9b c83c 4137 7fbd
00000340: 3608 fabc 6cf7 56b9 2d24 d83d 54b7 efbc
00000350: e4df 783d 8109 16bd 0b09 433d 1ee6 b93d
00000360: b16e 9a3c b480 483d 194d 2e3c 0b9a a6bd
00000370: 4606 9ebd f294 09bd 7209 93bd ec72 8a3a
00000380: 9538 833d 9910 07bb b3fb 96bb 81ed d83d
00000390: 2d96 153d e060 d43c 558b 3cbd 5bae 053c
000003a0: 6513 90bd 3687 83bd c86e ccbc c4fa 8ebd
000003b0: 644f f93c 64ef 983d 5307 3c3c 016f 8bbd
000003c0: d0c9 343a 83c1 8abd 0ec8 1a3d 22e5 1b3b
000003d0: 47fc 0d3d 4fe8 57bd 74e2 c2bd e333 153d
000003e0: e184 4fbd 84d9 813d 195d ba3b edcb dbbd
000003f0: d8ba fbbc f853 9e3d c668 50bd 53ac 36b9
0.08136598 0.069828145 0.095283546 -0.0012859633 -0.047887076 0.012233479 -0.07974829 -0.05550512
-0.026999522 -0.09838977 -0.07725463 0.024116842 0.010166004 0.10703935 0.09141329 -0.09410847
0.049006563 -0.025682615 0.049499623 0.0033228637 -0.0939618 -0.00020581309 -0.05054644 -0.0015772035
0.095378354 -0.023535023 -0.03530582 -0.018975388 0.040118076 -0.07707985 0.07692544 0.06283468
0.05491539 0.04329589 0.063268535 -0.022775905 -0.0672871 0.04683836 -0.09294936 -0.00088578503
0.09403132 -0.08254025 0.016031953 -0.054655366 0.071089156 0.07082735 -0.11090911 -0.06781957
-0.0069574765 0.0014577399 0.044605337 -0.094127744 -0.021497848 -0.06299969 -0.02939393 0.049751565
-0.041095953 -0.07889669 0.04048422 0.04250766 0.00026553444 0.092276916 -0.01571108 -0.045231357
0.02457226 0.01383881 -0.0024905396 -0.10829367 -0.042091183 -0.015543824 0.08274508 0.059721697
-0.0008847033 -0.021913907 0.093478486 -0.042977534 -0.020748038 0.019754063 -0.058013476 -0.0031212377
0.023579532 0.089473166 0.02169187 -0.051380288 -0.10675923 0.058406156 -0.048337754 -0.022006366
0.064571515 -0.008869564 -0.10331187 -0.07886972 -0.025852304 0.0751156 -0.049584072 0.069488145
-0.040324856 -0.060920727 -0.07328977 0.053338315 -0.080683984 -0.015734414 -0.04003823 0.05147055
0.033567328 -0.07309517 -0.039431855 0.08532735 0.0062171393 -0.052731697 -0.094099514 0.021041092
0.04122202 -0.0686791 0.073835 0.0010709501 -0.043620832 0.07253292 -0.049725708 0.019274777
-0.028122937 0.03190523 -0.04603927 0.031196771 -0.098916434 0.050847344 0.08987851 -0.045665752
0.08253298 0.05807335 0.04975029 0.08100057 0.07159695 -0.09312073 0.034125816 -0.045329146
0.029637726 -0.0035036572 -0.016076984 -0.057222027 -0.09785568 0.03946105 0.033261944 0.017682642
-0.01751711 -0.0002595922 0.06454461 -0.017598836 0.025037203 0.030937748 0.024823388 0.0017970979
0.077208444 0.10938541 -0.08624064 0.09685648 0.03719632 0.0599198 0.010705233 -0.1069378
0.021188982 -0.06927218 0.00795112 -0.023840506 -0.020707816 0.039606534 0.07585442 0.09546955
0.045594368 0.029398628 0.013526013 0.0473678 9.697663e-05 0.05909272 0.04333681 -0.05659392
-0.024867412 -0.027663156 -0.024594989 0.024136504 -0.012919203 0.09370645 0.10814449 -0.017790554
-0.08765108 0.0025091132 -0.09304321 -0.08985676 0.05080452 0.07818138 -0.06346482 -0.059343312
-0.02378128 0.068635635 -0.06315979 0.08662142 -0.09673599 -0.06080834 0.075205065 0.03367988
-0.09094905 -0.051258933 0.08107739 0.09115934 -0.046704646 0.07308991 0.024488142 -0.062308554
-0.030521493 -0.00020500802 0.10553775 -0.029262222 0.060760394 -0.036630157 0.047616046 0.090770945
0.01885161 0.048950866 0.010638499 -0.0813485 -0.0771604 -0.03358931 -0.07179536 0.0010562814
0.064072765 -0.0020609258 -0.0046076416 0.10592175 0.036520172 0.0259251 -0.046031315 0.008159245
-0.07034949 -0.06422274 -0.024955168 -0.069814235 0.030433364 0.07467535 0.011476356 -0.06808282
0.00068965275 -0.06775191 0.037788443 0.0023787697 0.03466442 -0.05271178 -0.09515849 0.036426436
-0.050663833 0.06340316 0.0056873676 -0.10732255 -0.030728742 0.077308595 -0.05088117 -0.00017421068

residual_layers.1.conv2.bias f4 [32]
00000000: c550 14bd 95c7 263c 815a c33d 3a87 07bd
00000010: cff7 2e3c 74d9 65bd b8aa 11bd 5ba3 ba3c
00000020: d3ed a2bd 41a4 72bd 93f1 723d 9b29 a8bd
00000030: 5fec a4bd 4b67 c8bd 99c0 f63c c4f6 cb3d
00000040: 410c 433d 3407 863d f99b f2bc 50fb 223d
00000050: 6b58 b23d 2733 133d 333d 86bc ef90 40bd
00000060: a607 9a3a d32d 9f3d c835 4bbb 837b 7fbc
00000070: bb78 ae3d 558c 13bd 5a49 8dbd cba7 953d
-0.03620984 0.01017942 0.095387466 -0.033087946 0.010679199 -0.056115583 -0.0355632 0.022782972
-0.079555176 -0.059238676 0.059312414 -0.082110606 -0.08052897 -0.097853266 0.030121135 0.09959176
0.047619108 0.06544343 -0.02961539 0.03979045 0.08708271 0.035937455 -0.016386604 -0.04701322
0.0011751547 0.07772412 -0.0031007398 -0.015593412 0.08519121 -0.036022503 -0.06898756 0.073073946

residual_layers.1.bn2.weight f4 [32]
00000000: d4be 803f 672b 7e3f 2aa1 7e3f 9572 7f3f
00000010: 2182 803f 10f6 7a3f 222b 793f 2314 803f
00000020: 135c 793f 7c60 7e3f 203f 803f dce8 813f
00000030: e7ca 7a3f 40be 7e3f b1ab 7a3f 6cbb 7c3f
00000040: 9ebc 803f 274a 7c3f 37b5 7c3f 3fba 7f3f
00000050: 0e88 803f 5449 7b3f e71f 7c3f 5362 803f
00000060: ec90 763f 28d8 7c3f ad94 7f3f f37c 803f
00000070: 0364 823f b8ba 783f 35cc 7b3f 9225 833f
1.0058236 0.99284977 0.99464667 0.99784213 1.0039712 0.9803171 0.9733144 1.0006145
0.9740612 0.99365973 1.0019264 1.0149188 0.97965854 0.9950905 0.9791823 0.98723483
1.0057561 0.9855065 0.9871401 0.99893564 1.004152 0.98158765 0.9848618 1.0030006
0.96314883 0.9876733 0.99836236 1.0038131 1.0186771 0.9715991 0.9835847 1.024584

residual_layers.1.bn2.bias f4 [32]
00000000: 966d cfbc 666e d6bb 3794 fbbc cad5 6a3b
00000010: 1170 05bd ef7f 843c 0362 443b 2849 993c
00000020: 2974 8abb 389a c33a e4bc dd3b ea03 20bd
00000030: 1819 2aba 7942 91bc c084 9abc 9c92 e3bb
00000040: 235b 13bb d897 6fbc ecec 55bc 1130 68bc
00000050: 30ba de3c f9da c83b 7feb a2bc 6e71 b3bc
00000060: d35a c2bc b09d 35bc 3f54 a9bc 26a9 03bc
00000070: d6b3 ca3b fea0 ea3b d270 92bc bc5d 82bc
-0.02532081 -0.0065439222 -0.030710323 0.0035832995 -0.032577578 0.016174285 0.0029965646 0.018711641
-0.004225273 0.001492328 0.0067669023 -0.039066233 -0.00064887246 -0.017731892 -0.018862128 -0.0069449674
-0.0022484742 -0.014623605 -0.013056975 -0.014171616 0.02718839 0.006129619 -0.019887684 -0.021904673
-0.023724949 -0.011084959 -0.020670054 -0.008035934 0.006185989 0.007160305 -0.017876063 -0.015913837

residual_layers.1.bn2.running_mean f4 [32]
00000000: f51c f5bd 69a3 273e 118f 2bbe e89d 173e
00000010: 6d41 8a3d ac32 06bd 8636 2cbc 2fd7 093f
00000020: 4aa0 91be 108e 2bbd f166 f4bc 23cb 62be
00000030: 3f3d adbe acfe dabe a456 b53c 2388 663e
00000040: d0d6 84bd 037e 073e 0e91 553e ce15 2e3d
00000050: 4fee 04be c3e2 62be 2987 4dbe 84db a5bd
00000060: f213 9b3c 8972 8bbe c625 babe 1acd 1d3e
00000070: 01f9 aa3d 2df5 74bd 2b45 58be 4e5e 68bc
-0.11968414 0.1637093 -0.16753794 0.1480633 0.0675076 -0.03276317 -0.010511046 0.5384397
-0.28442603 -0.04188353 -0.029834243 -0.22147803 -0.3383579 -0.42772424 0.02213604 0.2251287
-0.06486285 0.13231663 0.20856115 0.042501263 -0.12981533 -0.22156815 -0.20071091 -0.0809851
0.01893041 -0.2723582 -0.36356944 0.15410271 0.08348275 -0.05980413 -0.21120135 -0.01418264
