ckpts/SpliceAI_SSD/Lactuca_sativa.pth (torch, 557096 bytes, 223 tensors)

conv1.weight f4 [32, 4, 3]
000000 67 76 0a be d2 a1 4b be d2 6b e6 3d e7 21 e9 bd
       -0.1352173 -0.19885948 0.11251034 -0.113834195
000010 c9 09 8a be fe 60 29 3e c7 92 fd 3d ce cd 3d 3e
       -0.2696059 0.16540906 0.12381511 0.1853554
000020 b7 be 87 3d b4 79 54 be 8f 08 f7 3d 8b bb f8 3c
       0.06628173 -0.20749551 0.12062179 0.030362865
000030 e7 d1 13 be 48 84 a3 3c d5 33 e2 3d 57 c5 71 3d
       -0.1443554 0.019960538 0.110450424 0.05902609
000040 78 66 58 3e 09 ff 5f be da dd a7 bd 27 e9 a6 bd
       0.21132839 -0.21874632 -0.08196612 -0.08149939
000050 6d ba 4c be a0 65 92 bc 5e 7c 98 3d 75 19 a3 3d
       -0.19992991 -0.017870724 0.07445596 0.0796384
000060 c8 54 8e be 27 bd 37 3e 91 63 df bd d1 34 82 be
       -0.27799058 0.1794325 -0.10907663 -0.2543092
000070 69 80 3b 3d f1 35 83 3e 1d 83 0b be 0c 64 7f be
       0.04577676 0.25627092 -0.13624234 -0.24940509
000080 30 0d c8 3d 51 2a e4 bd 7e a0 28 3e 2f a4 1b be
       0.0976814 -0.11140884 0.16467473 -0.1519935
000090 0b 7c d2 3d 11 5e 67 ba 58 89 9e 3d 51 ec 65 bd
       0.102775656 -0.00088259677 0.0774104 -0.056133572
0000a0 c8 7c 2d 3d 59 63 80 be 62 fa 4a 3e df d9 0a 3e
       0.04235533 -0.25075796 0.19822076 0.13559674
0000b0 1a 2b 85 3e 5a eb 3a 3e 5d 7f 61 3e d5 36 c9 3d
       0.26009446 0.18253842 0.22021241 0.098249115
0000c0 a5 de c3 3d 09 96 c3 3d 8e 85 93 3d bf 2b 8a 3d
       0.095639504 0.09550101 0.07203208 0.06746625
0000d0 1c 58 45 be f3 4e 05 be d8 5a 13 3e 10 42 6f be
       -0.19271892 -0.13018398 0.14390123 -0.23365045
0000e0 5c 66 18 bd 00 f2 3a 3e b6 20 f2 bd 43 5a 8c 3d
       -0.037206993 0.18256378 -0.11822645 0.068531536
0000f0 cd 71 66 3e 5d d8 fd bc 83 28 8a be fb 56 ca bd
       0.22504349 -0.03098696 -0.26984033 -0.098798715
000100 a4 f4 1a be 61 4c 24 be be 2a bf bd b2 d4 88 3e
       -0.15132385 -0.16044761 -0.09334324 0.26724774
000110 6d 30 33 be 15 de 43 bd 04 1b ca bd 62 67 5e be
       -0.17498942 -0.047819216 -0.09868434 -0.21719125
000120 4d f9 9f 3d 97 35 be bd 66 38 e8 3c 10 6b 0f be
       0.07811222 -0.09287565 0.028347205 -0.14005685
000130 5e c5 7c 3e 64 a7 88 be 2f b3 0e be f1 96 c7 bd
       0.24684665 -0.2669021 -0.1393554 -0.09745587
000140 9f 9b 85 3e 20 e7 6a be ac b1 38 be 4d aa 2a 3d
       0.26095292 -0.2293973 -0.18036526 0.041666318
000150 37 c7 04 be 0a 17 92 3e e0 de 26 be cf 40 07 bd
       -0.1296662 0.28533202 -0.16295958 -0.03302079
000160 68 92 29 bd b8 29 52 3e ce 7f e9 3d ef 1a 04 be
       -0.04139939 0.20523727 0.1140133 -0.129009
000170 46 40 80 3e 7d 2e 86 3e 5b f5 b2 bc 53 08 8e 3e
       0.25049037 0.26207343 -0.02184551 0.27740726
000180 6d 17 20 3e 12 85 b9 bd 03 e8 6a 3e 72 1e c8 3c
       0.15633936 -0.09058584 0.22940068 0.02442858
000190 53 bf 21 3e ef 8c 84 3d d0 0b 8e 3e 0e 9b 12 bc
       0.1579564 0.064721934 0.27743387 -0.008948101
0001a0 b4 c1 96 3d 5e c2 b4 3d 97 0b 30 be c3 13 89 3b
       0.07361165 0.08826135 -0.17191921 0.004183264
0001b0 6e 75 70 bc 93 4d 1b bd 6f 75 81 3e 79 d8 4a 3e
       -0.014676435 -0.037915777 0.25284907 0.1980914
0001c0 e9 33 92 bd e5 f0 4b be 7d 3e 45 be 04 cb 48 be
       -0.07138807 -0.19916113 -0.19262119 -0.19608694
0001d0 8c ad 53 3e 27 f0 54 3e 50 ab 9f bd 90 b1 99 bd
       0.20671672 0.20794736 -0.07796347 -0.075045705
0001e0 2c 93 33 3e 7a 94 c0 3d b0 00 5a bd 43 c4 63 3e
       0.1753661 0.0940332 -0.053223312 0.22242837
0001f0 12 e5 bc 3d 17 7e 98 bd c0 66 0b 3e 0a f9 32 3e
       0.09223379 -0.07445925 0.13613415 0.17477813
000200 37 b6 08 3e 0d fe fa 3d 07 3e 00 be 6c f8 91 bd
       0.1335076 0.122554876 -0.12523662 -0.07127461
000210 f4 b2 55 3e e4 14 13 3e 61 fe 03 3e 37 79 aa bd
       0.20869046 0.14363438 0.12890007 -0.08323901
000220 0c da a0 bc 3c 84 e3 bd 3f 3d e9 bd 8d 3a fd bc
       -0.019635223 -0.11109206 -0.11388635 -0.030911708
000230 ae 1d 6a be 84 ce 79 3e e7 fc e5 bc c8 3d 56 3e
       -0.22862884 0.24395186 -0.028074695 0.20922005
000240 d9 13 66 be 07 dc 83 3e d2 16 61 3d 25 5c 15 be
       -0.22468509 0.25753805 0.054953404 -0.14585932
000250 cb c5 42 be 7c a9 54 bd 17 95 fe 3d b5 9a 64 bc
       -0.19020765 -0.051919445 0.124307804 -0.013952901
000260 3c d4 8e 3e db 70 7e bd ae ca 31 be 27 ff f2 3c
       0.27896297 -0.062119346 -0.17362472 0.029662682
000270 02 98 2f be 75 53 26 3e 1e 38 4f 3e 7c 00 fd 3d
       -0.1714783 0.16242774 0.20236251 0.12353608
000280 17 f2 fc 3c fb c8 a6 3d 75 25 91 3e 51 85 01 be
       0.030877156 0.08143803 0.2834889 -0.12648512
000290 02 a4 04 be 7f 48 aa bc 48 b9 c3 bd a3 4e c1 3d
       -0.12953189 -0.020786522 -0.09556824 0.09438827
0002a0 0c 77 b3 bd 21 e8 38 bd dc 52 26 3e 1d fa 04 3e
       -0.08762941 -0.04514325 0.16242546 0.12986036
0002b0 c2 44 7b be a1 9b 3a be 71 43 f0 3d 63 e4 55 3e
       -0.24537948 -0.1822343 0.117316134 0.20887904
0002c0 de 04 64 be a3 53 4e 3d d3 8e 53 be c1 2f 8c 3e
       -0.22267482 0.05037273 -0.20659952 0.27380183
0002d0 ab e2 03 bd 6f 33 db bd 6c f7 8e 3d 47 75 61 3d
       -0.03219859 -0.107031696 0.06980786 0.055043485
0002e0 b2 a3 09 3e 17 6b da bd 86 a0 17 3e 3d f7 41 be
       0.13441351 -0.10664957 0.14807329 -0.1894197
0002f0 bb 26 67 3e f8 d5 56 3e fa 3d 1b be 30 89 14 3e
       0.22573368 0.2098006 -0.15160361 0.14505458
000300 e9 e4 c2 bd f1 66 c6 bd 42 15 17 3d 5c a2 cf 3d
       -0.095163174 -0.09687603 0.036885507 0.101383895
000310 75 d4 72 3e 32 fa 16 3e a4 6d 72 be 28 2c 22 3e
       0.23713858 0.1474388 -0.23674637 0.15837157
000320 7c ae 75 3e e6 9f 97 bd 4f 9d 6e be c8 cf 66 3e
       0.23992342 -0.07403545 -0.23302196 0.225402
000330 6e c7 e4 bd d0 55 2a 3e 4f 29 30 3e 7f 48 61 3e
       -0.11170851 0.16634297 0.17203258 0.22000311
000340 80 34 8e bd ad 45 3a be 54 1f 0b be d5 ac 7a be
       -0.06943607 -0.18190642 -0.1358617 -0.24479993
000350 b3 96 72 bd e6 df c4 3b 71 75 74 be 47 b8 79 3e
       -0.05922575 0.006008136 -0.23872925 0.24386702
000360 37 bd d8 bc a1 c0 0c bd 6f 73 87 3e f7 b1 e0 3d
       -0.026457412 -0.034363393 0.26455256 0.10971444
000370 d4 13 91 bd 70 ac f7 bd e1 0a 19 be a4 97 1d 3e
       -0.0708386 -0.12093437 -0.14945556 0.15389878
000380 85 20 1e be 88 22 04 3e 33 9f 90 3e 92 9d ec 3c
       -0.15442093 0.12903798 0.2824646 0.02888373
000390 28 af 1c 3e 3a 0b 79 3e ec c3 27 3e 6e 90 0c bc
       0.15301192 0.24320689 0.16383332 -0.008579357
0003a0 43 37 8c bd ab 94 88 3e 3a 99 1b bd 88 93 52 be
       -0.06846478 0.26675925 -0.037987925 -0.20564091
0003b0 e7 66 de bd 76 d5 8e be a1 74 15 3e e5 3b 42 be
       -0.10859471 -0.27897233 0.14595272 -0.1896816
0003c0 85 fe 71 3e a4 59 7e 3e 6a 36 6c 3e 8b 77 1e 3e
       0.23632248 0.24838883 0.23067632 0.1547529
0003d0 4b b5 d2 3c 16 2d 56 be e6 3f 2d be 56 74 42 be
       0.025721213 -0.20915636 -0.16918907 -0.18989691
0003e0 37 f4 a1 3d de ca b3 3d 14 0a 65 3e 73 b9 96 3c
       0.079079084 0.08778928 0.22367126 0.018398976
0003f0 7d e7 f1 bd fd f5 0b 3e 45 66 86 bd f9 f5 26 3d
       -0.11811731 0.13668056 -0.06562475 0.04076192

conv1.bias f4 [32]
000000 79 62 d9 3b 0a 97 e9 3d ae 7c 11 3e f6 b5 38 3e
       0.0066340533 0.114057615 0.14207718 0.18038163
000010 4a 49 c4 3d bb df 6e be 86 05 36 be bb 7f 16 be
       0.09584291 -0.23327534 -0.17775545 -0.14697163
000020 9e 71 df bd 62 7b 05 be 72 d3 64 be ba a6 df bc
       -0.10910343 -0.13035348 -0.22346285 -0.027301181
000030 61 ab fc bb a0 a9 83 3e fc 12 80 3e b1 d2 26 bd
       -0.0077108596 0.2571535 0.25014484 -0.040728275
000040 89 50 9d 3d 56 b1 89 be 58 b4 95 ba a4 af 93 3d
       0.076813765 -0.2689311 -0.0011421544 0.07211235
000050 54 82 d8 bd e9 14 90 3e 56 5f 62 be 9a bf d5 3c
       -0.10571733 0.28140953 -0.2210668 0.02609234
000060 9a ec a1 bd 39 9c 84 3a 32 12 00 be 81 ca b8 bd
       -0.07906456 0.0010117359 -0.12506941 -0.090229996
000070 57 80 0d bd b7 53 66 be b7 95 2a be 6d b8 0d be
       -0.034546223 -0.22492872 -0.16658674 -0.13839884

bn.weight f4 [32]
000000 82 c1 7f 3f 7e 1a 80 3f ed fd 7d 3f 58 e1 7e 3f
       0.99904644 1.0008085 0.99215585 0.995626
000010 97 f0 7e 3f b0 fe 7b 3f 9f 4a 80 3f db e0 80 3f
       0.9958586 0.984355 1.0022773 1.006862
000020 9b eb 7e 3f 50 3d 80 3f 25 00 7f 3f d3 c1 7d 3f
       0.99578255 1.0018711 0.99609596 0.9912388
000030 d1 5a 80 3f f5 c7 80 3f 08 d5 7f 3f 76 af 7e 3f
       1.0027715 1.0061022 0.99934435 0.9948648
000040 3e 00 7e 3f 2a 25 80 3f 31 6d 81 3f 8c 60 80 3f
       0.9921912 1.0011342 1.0111448 1.0029464
000050 10 4c 80 3f c4 8d 80 3f 89 76 80 3f 16 7e 7e 3f
       1.0023212 1.0043263 1.0036174 0.9941114
000060 78 82 81 3f 29 97 80 3f 50 93 7e 3f 4d 26 7e 3f
       1.0117941 1.004613 0.9944353 0.9927719
000070 a0 40 7b 3f 7b 27 81 3f 5e 08 81 3f 04 1c 7f 3f
       0.98145485 1.0090173 1.0080678 0.99652123

bn.bias f4 [32]
000000 fe c5 25 bc ed be 25 bc 76 dd 9d 3b c9 50 6f b6
       -0.010118006 -0.010116321 0.00481766 -3.5660798e-06
000010 ea 49 09 3b 4e fd 00 bc cf 2b 1c bc f3 3d 20 bc
       0.0020948597 -0.007872893 -0.009531929 -0.009780395
000020 ba ec 99 bb 75 af 89 3b 13 43 e0 3a 40 c9 2c 3c
       -0.0046974095 0.0042018243 0.0017109833 0.010546029
000030 b2 c1 5c ba 03 07 84 3b 32 a1 6d 3b 94 c2 19 3a
       -0.0008421197 0.004029156 0.003625941 0.0005865481
000040 70 34 53 bc b0 bc 0f bb 95 79 ca ba 7b ce 98 3c
       -0.01289092 -0.0021932535 -0.0015447611 0.018653145
000050 97 b1 0d bc fa 1a 86 3b cc a1 da bb 5e 4e 68 3a
       -0.008648298 0.0040925713 -0.0066721197 0.0008861775
000060 3c 71 3a bc eb e1 29 3a dc b9 93 bb a7 44 fe 3b
       -0.011379536 0.0006480503 -0.00450824 0.007759649
000070 21 54 2c bc 63 ad 08 bc e5 4c 49 bb 6a e7 ef bb
       -0.010518105 -0.00834212 -0.0030715999 -0.007321288

bn.running_mean f4 [32]
000000 04 09 61 bd e0 6d cc 3d 1b df 0c 3b f9 19 ea 3e
       -0.05494024 0.099818945 0.0021495286 0.4572294
000010 fb bf 21 3e 58 c6 e3 be 84 7b a1 be ec 58 a5 3d
       0.15795891 -0.44487262 -0.31539547 0.08073601
000020 b0 fa 77 3d f3 88 bc bd fa 65 79 bd 9d a8 27 3e
       0.06054181 -0.092058085 -0.060888268 0.16372915
000030 7e 06 38 bd 85 9c b6 3e 38 ad 87 3e 4e b1 46 3d
       -0.044928066 0.3566629 0.26499343 0.048508935
000040 c9 0b e3 3d e9 2c 8c be 23 c9 2a 3e b8 1f f3 3d
       0.11086232 -0.27378014 0.1667829 0.11871284
000050 c2 50 35 3e fc 05 64 3e e8 cf bc be 7a a7 9b 3d
       0.17706588 0.22267908 -0.3687737 0.07600303
000060 3c 32 5c bd c4 3d c6 bd 6f ed 89 3b 1e 6b ee bd
       -0.053758845 -0.096797496 0.0042092125 -0.11641525
000070 3d 76 57 be 6e 26 89 be 59 21 09 be b5 f1 48 be
       -0.21041198 -0.26787132 -0.13391627 -0.19623454

bn.running_var f4 [32]
000000 e8 7a 41 3d 05 e1 0e 3d e2 43 51 3d 90 7a 35 3d
       0.047236353 0.034882564 0.05109013 0.044306338
000010 85 7e c5 3c cf de 25 3d 09 af 6d 3d b5 cc ad 3d
       0.02410818 0.04049569 0.058028255 0.084863104
000020 d6 e1 f4 3c 89 65 69 3d 9a 87 a8 3c 95 e0 6e 3d
       0.029892843 0.056981597 0.020572472 0.058319647
000030 76 ab 7a 3d 78 00 5d 3d 7c 0d 96 3d 3f 7d ff 3c
       0.061198674 0.053955525 0.07326791 0.031187652
000040 4b 06 41 3d 75 22 9b 3d 19 c9 64 3d d3 fd ca 3d
       0.047125142 0.075749315 0.055855844 0.099116944
000050 48 aa 91 3d 72 ad b4 3d 89 af 79 3d 02 31 8a 3d
       0.07112557 0.088221446 0.06095842 0.06747629
000060 b1 99 29 3d e2 c9 65 3d 9b 90 3c 3d a1 6e 91 3d
       0.041406337 0.056100734 0.046036344 0.07101179
000070 ae 0d 43 3d 39 66 99 3d bb a6 53 3d 84 f0 00 3d
       0.047620468 0.074902005 0.05167268 0.031479374

residual_layers.0.conv1.weight f4 [32, 32, 3]
000000 f4 9e 87 bc 21 29 da ba 41 fc db 3c 4e 68 7e 3d
       -0.016555287 -0.0016644337 0.026853682 0.06211119
000010 d2 06 e4 bb e8 00 f6 3c 60 31 b4 bc 5e 67 94 3c
       -0.006958821 0.030029729 -0.0219962 0.018115696
000020 b7 cf 8a bc 0a 65 a4 3d ac b9 cb bd 30 79 13 bd
       -0.01694475 0.08027084 -0.099475235 -0.036004245
000030 b0 62 2c 3b 7c ba 4e bd d9 32 d1 3d 81 7e 99 3d
       0.002630394 -0.050470814 0.102147765 0.07494832
000040 e8 59 01 3d eb 15 93 bd 16 54 0c 3d 95 ec b6 3d
       0.031579882 -0.07181915 0.034259878 0.08931843
000050 89 6a 7d 3d c4 c5 49 3d d9 d4 96 bc 0e 72 95 bd
       0.061869178 0.04926087 -0.01841204 -0.07297145
000060 05 cb a8 bd 30 a1 51 bd 4f 9e a3 bd 00 94 5f 3d
       -0.08241848 -0.05117911 -0.07989179 0.054584503
000070 9c 73 c9 bc e4 05 7c 3d fb 94 c4 3d 4d 6c 5e 3c
       -0.02459126 0.061529055 0.09598728 0.013575626
000080 f5 2e 23 3d ba 10 6b 3d b6 99 c1 bd 93 ca 71 bd
       0.039839704 0.057389 -0.09453146 -0.05903108
000090 72 96 b6 bd 24 ab 84 bd d4 bb 74 bd af aa b1 3d
       -0.08915414 -0.06477955 -0.05974944 0.086751334
0000a0 f5 27 ab bd ca c1 06 3b bb 45 5d bd 1f 31 c3 3b
       -0.083572306 0.0020562285 -0.05402158 0.0059567834
0000b0 95 4a e6 bc 19 ee 97 3d 51 28 6d bb 1e f3 18 bd
       -0.028111735 0.074184604 -0.003618736 -0.03734123
0000c0 5b 98 a8 bd e4 ea 6b bd 0f b9 2c bd a2 90 ab bd
       -0.082321845 -0.057597056 -0.042168673 -0.08377196
0000d0 ef 40 b1 3d 8d db 4d bc 1b e0 cd 3d 79 17 62 3c
       0.08654963 -0.012564552 0.1005251 0.013799542
0000e0 cd 3d 96 3d 23 40 3d 3c 22 55 81 bd d9 89 ca 3d
       0.07336006 0.011550936 -0.06315066 0.098895736
0000f0 5e 91 b2 bd 35 e4 de bb 65 c9 a7 3d 60 87 b2 bd
       -0.08719133 -0.0068021067 0.0819271 -0.08717227
000100 61 21 27 bd ad ac 1e 3d f6 0c 35 bd 37 b0 2f bc
       -0.040803317 0.038738895 -0.044201814 -0.010723165
000110 97 7d 9c bd 67 fb 06 3d ca 85 44 bd 19 e3 13 3c
       -0.07641142 0.0329546 -0.047979154 0.009026312
000120 68 a9 6c bd b2 6e d5 3d d3 42 9c 3d 23 49 ca bc
       -0.057778746 0.10421504 0.07629933 -0.024693077
000130 e1 0a a5 3d 80 0b 7e bc 7d 08 2e b9 0e 39 c6 3d
       0.080587156 -0.0155056715 -0.00016597095 0.09678851
000140 33 5a cb bb a8 66 a6 bd 8d e1 64 bc 44 59 d8 3d
       -0.006205821 -0.08125049 -0.013969791 0.10563901
000150 49 db 59 bc bf 63 a8 bb 01 1f e5 bb db 6a 41 3d
       -0.013296911 -0.005138844 -0.0069922213 0.047221046
000160 3d bb 3f bd 53 ca b8 bb 2a 5e f9 bc 27 d2 b9 3d
       -0.046809424 -0.0056393533 -0.030440409 0.090732865
000170 68 e9 09 bc 14 f3 57 bd 3f 82 3f 3d b0 02 92 3d
       -0.008417465 -0.05272205 0.04675507 0.07129419
000180 65 25 2f 3d 76 a0 9a 3c 1b 39 06 bc 58 e5 81 bd
       0.04276027 0.018875342 -0.008192326 -0.06342572
000190 23 14 9f bd 49 64 a0 bd 4f 1c 42 bd 2f f3 20 bd
       -0.07767513 -0.07831628 -0.04739028 -0.039294418
0001a0 e9 6e 89 3d a7 88 cb bd 61 4a 09 bd 1d c0 56 3b
       0.067106076 -0.09938174 -0.0335182 0.0032768317
0001b0 ca b0 3d 3c aa 09 30 3d 24 07 40 3d 93 ae 1c 3d
       0.011577794 0.042977966 0.04688181 0.038252424
0001c0 f8 75 ac 3d ae 39 83 3d 50 78 d3 bc 9f e8 b3 3d
       0.08420938 0.06407486 -0.025814205 0.08784603
0001d0 34 f7 a8 3d 2b 3a 07 3c 1a a6 a0 bc e9 1d c4 bc
       0.08250275 0.008253614 -0.019610453 -0.023940044
0001e0 d1 23 51 3d f2 9b bd bd 19 91 df 3c 03 e1 81 3d
       0.051059548 -0.0925826 0.027290868 0.06341746
0001f0 c5 28 33 bb 73 4a 30 3d 36 54 02 3d 37 e8 49 3d
       -0.0027337533 0.04303975 0.03181859 0.049293723
000200 f4 b0 b1 bd d9 f2 8f 3d 20 84 c0 bd 2e c3 b0 3d
       -0.08676329 0.070287414 -0.09400201 0.086309776
000210 e6 01 36 bd 1c 43 f5 bc 72 87 a6 3d 50 14 8b 3d
       -0.044435404 -0.029939227 0.08131303 0.06790984
000220 f1 f6 e0 3d f8 82 56 3d e2 7b 4d 3d 9e b0 e1 bb
       0.109846 0.052370995 0.050166972 -0.0068875095
000230 bf f1 80 bd 94 89 b2 3d da d5 9e bd 7a 63 ab bc
       -0.062961094 0.08717647 -0.07755633 -0.020921458
000240 af 50 81 bc 8f 1b ba b9 f2 86 ac bd 4a 16 45 3d
       -0.015785543 -0.00035497217 -0.08424176 0.04811696
000250 ff 73 8b 3d f3 03 10 3c 35 65 5b bd c7 34 fd 3c
       0.06809234 0.008790004 -0.053563315 0.030908955
000260 1e de e3 bd 95 05 81 bd c5 34 8e 3d 6c d1 98 bd
       -0.1112635 -0.06299893 0.06943659 -0.07461819
000270 dc f1 27 3d 94 73 3c bd 70 99 b7 3d 39 b7 9c bc
       0.04100214 -0.04600866 0.08964813 -0.019130336
000280 2a 70 b7 3b f8 77 87 bd 90 1c 54 3d 3b 99 a6 bd
       0.005598088 -0.06614679 0.05178505 -0.08134695
000290 ea c1 e0 3c c6 28 bd 3d b2 a5 eb bd d0 92 81 3b
       0.027436215 0.092362925 -0.11506213 0.003954269
0002a0 14 08 f0 3c 88 76 0b bd d4 a6 9c bd aa e8 8f 3c
       0.029300727 -0.034048587 -0.076490074 0.017566998
0002b0 5e 8e d1 3d 86 93 ba bc 7b 16 04 3c 10 ea d6 bd
       0.102322325 -0.022775423 0.008062 -0.10493863
0002c0 48 b5 8d bd 0a 50 61 3d 78 c7 6c 3d 91 15 ac bd
       -0.06919342 0.05500797 0.057807416 -0.08402551
0002d0 44 1f 19 3d c5 8b 8e bd 1c 71 92 bd 68 5d c7 3d
       0.037383333 -0.06960253 -0.0715048 0.09734613
0002e0 89 79 81 bd a7 c4 58 3b de 58 5d bd 57 60 21 bd
       -0.06322009 0.0033076198 -0.05403983 -0.039398517
0002f0 97 58 5e 3d 6b 6a 47 bd 6c 44 9c bd 2b 85 88 bd
       0.054283705 -0.048685472 -0.07630238 -0.06666025
000300 dc 49 9f bd a2 1d 2c 3d 96 48 3a 3d cf f2 9a bd
       -0.077777594 0.042020448 0.04547938 -0.07565843
000310 3a 2d bb bd 6c e4 ad 3d 2b 51 34 bd ee 25 95 3d
       -0.09139486 0.08490834 -0.04402272 0.07282625
000320 34 99 8f bd 2b 35 21 3d 4f f0 1a 3c 4e c9 30 3d
       -0.07011643 0.039357346 0.009456708 0.04316073
000330 bb 77 af 3c d8 e3 85 bd e3 b7 4f bb 6d 96 c4 3d
       0.021419397 -0.06537598 -0.0031695298 0.09599004
000340 70 7c b0 bd 52 37 ca bc d7 f0 12 bd a5 5a 72 bd
       -0.086174846 -0.024684582 -0.035874214 -0.059168477
000350 2d aa 91 bc 8a d9 85 bc f2 77 85 bd be 9a 12 3d
       -0.017781341 -0.016339082 -0.065170184 0.035792105
000360 5f d6 81 3d 1a 91 b6 3d 76 72 c0 bd 08 6e bd 3d
       0.06339716 0.08914395 -0.09396832 0.092495024
000370 60 29 21 3d 33 02 76 bd e4 bb 88 3d 2f 5b cb 3a
       0.0393461 -0.06006069 0.06676462 0.0015514846
000380 a1 1a 88 bd e8 91 95 bb b4 cc 61 3d 5b be 92 bd
       -0.06645704 -0.0045645125 0.05512686 -0.07165214
000390 3e 22 80 bd a5 d0 50 3d ac bb ce 3d 94 c2 d5 3d
       -0.06256531 0.05098023 0.10094389 0.104375035
0003a0 da 21 81 3c ff 72 57 3d e4 42 9c bd cd 6e 5f bc
       0.015763212 0.052599903 -0.07629946 -0.013637257
0003b0 9d 2a 47 3d 59 cd ac 3d 86 c3 ad bd a6 cf a4 bd
       0.048624624 0.084376045 -0.08484559 -0.08047418
0003c0 08 83 ad 3c 9e 63 a0 bd 01 a6 67 bc 29 41 61 3d
       0.021180645 -0.078315005 -0.0141386995 0.054993782
0003d0 71 c6 d1 bd 62 a6 bc ba ad 0d 6c bd da 9e cb 3d
       -0.10242928 -0.0014392848 -0.05763023 0.09942408
0003e0 d6 1c 35 3d bb 93 34 3c 54 68 a5 3c dd 5a 68 bd
       0.044216953 0.01102155 0.02019135 -0.05672728
0003f0 08 cc 1e ba 39 27 d3 3d e8 8d ef bc 09 b7 76 bd
       -0.00060576247 0.103102155 -0.02924247 -0.06023315

residual_layers.0.conv1.bias f4 [32]
000000 6a ff 1c bd aa a1 96 3c dd 9a 71 3d 8e 92 eb 3c
       -0.03832952 0.018387634 0.05898558 0.028756406
000010 c3 de ba bd f7 fb f6 3c c5 01 45 3c 84 95 a9 bc
       -0.0912452 0.030149443 0.012024348 -0.020701177
000020 39 df 8f 3d a3 76 17 3d 03 b3 06 3d ed 1d a6 bd
       0.07024998 0.036978375 0.032885563 -0.08111177
000030 ad e7 86 3c 48 ae 1f 3c f0 23 2a 3d 80 70 91 bc
       0.016467893 0.009746142 0.04153818 -0.01775384
000040 9a c0 bf bd 6f 29 c5 3c 99 1e 66 3c 15 c7 50 bd
       -0.09362908 0.024067609 0.014045381 -0.05097111
000050 8e e4 64 3c 87 9e 03 3c fa 12 a2 3d 62 eb 35 3d
       0.013970507 0.008033401 0.07913776 0.04441393
000060 6d 83 3f 3d d5 fb bb bd dd b4 74 3c 44 6e 69 3d
       0.046756197 -0.091788925 0.014935699 0.056989923
000070 ed 6a 0b bd 07 07 2f bc 4a 7d 85 3d 04 d2 77 bc
       -0.03403752 -0.010682828 0.065180376 -0.015125755

residual_layers.0.bn1.weight f4 [32]
000000 17 c7 80 3f 26 97 7f 3f 4e 92 80 3f fc 83 80 3f
       1.0060757 0.9984001 1.0044649 1.0040278
000010 50 1f 81 3f 62 b9 7f 3f ce 42 80 3f 18 7c 7e 3f
       1.0087681 0.99892247 1.0020387 0.994081
000020 03 e8 7f 3f 93 55 80 3f 20 23 80 3f 23 3c 7d 3f
       0.99963397 1.0026115 1.0010719 0.98919886
000030 99 de 80 3f 39 89 7d 3f cf 27 81 3f 5c be 7f 3f
       1.0067931 0.9903751 1.0090274 0.9989984
000040 31 92 80 3f ae f2 80 3f e9 da 80 3f 54 e8 7d 3f
       1.0044614 1.007406 1.0066806 0.9918263
000050 4e 09 7f 3f 9a 2c 81 3f ba 4a 7f 3f 87 19 7f 3f
       0.9962357 1.0091736 0.997234 0.99648327
000060 7c 9e 7c 3f a8 45 80 3f a3 32 7f 3f f4 76 7b 3f
       0.9867933 1.0021257 0.9968664 0.98228383
000070 34 48 80 3f b2 3b 80 3f d6 02 7f 3f 53 4d 80 3f
       1.0022035 1.0018218 0.996137 1.0023597

residual_layers.0.bn1.bias f4 [32]
000000 1f 97 68 bc 9c 02 89 ba ae 81 47 3c 14 de b4 3b
       -0.014196186 -0.0010453048 0.012176914 0.005519638
000010 10 c8 ac 3c aa 6a d0 3a b1 7b a2 ba 36 f0 d6 3b
       0.021091491 0.0015900929 -0.0012396482 0.006559397
000020 95 56 0e ba 87 a3 57 3c 1f 35 22 3c 7e 93 4e bc
       -0.0005429772 0.013161547 0.00990036 -0.012608407
000030 4a 1f 81 3c 13 6f 68 bc 41 42 41 bc 3e e2 e9 39
       0.01576199 -0.014186638 -0.011795581 0.00044609787
000040 dd b4 a0 3b a6 ff 34 3c 99 18 7a 3b 67 96 59 3b
       0.004904373 0.011047279 0.0038161634 0.003320122
000050 6e 46 17 bc 30 cc b0 3a c0 3d aa bc b4 da 52 bc
       -0.0092331 0.0013488587 -0.020781398 -0.012869526
000060 cb 68 4d bc c1 7e da 3a b8 48 a7 3b 6c a5 1f ba
       -0.012537192 0.0016669856 0.0051051043 -0.00060900184
000070 14 e3 92 bc fa 64 f8 bc 08 44 c0 3b 1b f9 3b 3c
       -0.017930545 -0.030321587 0.005867485 0.011472966

residual_layers.0.bn1.running_mean f4 [32]
000000 7b 53 0c bc 9c e0 2f bd 94 dc 61 3d 8b 89 30 be
       -0.008564825 -0.042938814 0.055142 -0.17239968
000010 d0 a4 96 be b2 7f 31 be 8f 49 2c bd 17 74 23 be
       -0.29422617 -0.17333868 -0.04206234 -0.15962254
000020 b6 a2 9c be b0 b8 82 3d 0c ee 82 bd f7 a3 d6 3d
       -0.3059289 0.063828826 -0.0639306 0.104804926
000030 7f 3b 05 3e 0f db 2a 3d 2a eb 6b 3d 7b c4 eb bd
       0.13010977 0.041712817 0.057597317 -0.11512085
000040 7d 2c 78 3e e5 88 16 39 55 e9 87 3d 89 61 d6 bb
       0.24235721 0.00014356112 0.066363014 -0.006542389
000050 15 aa 3f be 7d 5c 9f 3d f9 88 83 be 2a ad 21 3e
       -0.18717225 0.077813126 -0.2569044 0.15788713
000060 2f f8 85 bc 5d 50 a1 bc 3c 75 c7 3e 5b e8 28 3e
       -0.016353695 -0.01969164 0.3895663 0.16494887
000070 0a 36 64 be 33 77 86 3e 34 52 15 3f 62 86 b2 bc
       -0.2228624 0.26262817 0.58328557 -0.021792594

residual_layers.0.bn1.running_var f4 [32]
000000 55 86 89 3d 49 90 00 3e 13 7c b7 3d db 84 ec 3d
       0.06715075 0.1255504 0.08959212 0.11548778
000010 8d 40 0e 3e ed 6b ec 3d 41 a2 04 3e e2 5e c7 3d
       0.13891812 0.11544023 0.1295252 0.09734894
000020 c0 4a e1 3d fe bc b6 3d d7 c7 ca 3d b3 85 c2 3d
       0.110005856 0.08922766 0.09901398 0.09498157
000030 c5 9e 81 3d 34 cb 2f 3e 31 aa b1 3d 9f 1e df 3d
       0.06329111 0.1716736 0.086750396 0.108945124
000040 92 a0 b2 3d 34 c9 a4 3d 16 1b 01 3e 46 57 a3 3d
       0.087220326 0.08046189 0.12607989 0.079756305
000050 06 ab 3e 3d 17 78 fe 3d 5e 11 15 3e 72 8c 88 3d
       0.04654982 0.12425249 0.14557406 0.06667413
000060 1d fd 93 3d f3 e3 1b 3e a0 16 cb 3d 4e 14 46 3e
       0.07226012 0.15223674 0.09916425 0.19343683
000070 f8 59 04 3e 60 fc e3 3d e4 74 ef 3d 39 f3 95 3d
       0.12924945 0.11132121 0.11692217 0.07321782

residual_layers.0.conv2.weight f4 [32, 32, 3]
000000 29 45 0a bc a7 9f 88 3b ec f0 33 bd fb 0f b0 bd
       -0.008439341 0.0041694227 -0.043930933 -0.08596798
000010 c5 38 8e 3c f4 8e 87 bd ae 66 4a bd e0 1d 03 bd
       0.017361054 -0.06619063 -0.04941433 -0.032010913
000020 3b 6a 0b ba 11 93 ce 3d 91 ad 34 3d b9 18 2b bd
       -0.0005318259 0.100866444 0.04411084 -0.041771624
000030 4e f9 96 3d 70 91 6a bd f8 c7 2f bd 74 40 88 3d
       0.0737177 -0.057267606 -0.042915314 0.066529185
000040 d1 b7 c9 bd 3a 03 82 3d a9 6b 9c 3d d9 ee 7b bd
       -0.09849513 0.06348272 0.07637722 -0.06150708
000050 2a f0 50 3d 81 af 09 3d da 1e eb 3d 25 f1 a2 bc
       0.05101029 0.03361464 0.11480494 -0.019890377
000060 43 f6 3a 3c 6a 08 ad 3d cc 33 b0 bd 8f 20 37 bd
       0.011411252 0.084488705 -0.086036295 -0.044708785
000070 12 0c c4 3b c4 a9 02 bd ab d6 81 3d 29 b6 cb 3d
       0.005982884 -0.031900182 0.06339773 0.09946854
000080 4e dc 33 3d 6e dc 9a 3d 40 2e a3 3c 29 f1 9a bd
       0.04391127 0.07561575 0.019919515 -0.07565529
000090 01 6d 58 3d 58 0c 4e 3d 5e fc 5e 3d 96 e2 b8 3d
       0.05283833 0.05030474 0.054439895 0.09027593
0000a0 e8 4d b3 bd a3 42 2f 3c 6c a5 2e 3d 74 4a 73 bd
       -0.08755094 0.01069704 0.042638227 -0.059397176
0000b0 93 39 81 bc bb ba cc bd 32 4b c4 bd 8b 65 87 bd
       -0.015774524 -0.099965535 -0.09584655 -0.06611165
0000c0 b6 c8 2a bd b3 7f 9d bd 13 9f 7b 3d a4 38 a1 bb
       -0.04169532 -0.07690372 0.061431002 -0.004920082
0000d0 46 79 87 bd e6 1c 84 bd 95 a8 e8 bd 6e 66 9a 3d
       -0.06614928 -0.064508244 -0.113602795 0.07539068
0000e0 05 8e 50 bc 31 48 db 3c f8 3a d2 3c 29 49 af bd
       -0.012729173 0.026767822 0.025662884 -0.08558876
0000f0 52 28 af 3d e4 b5 b4 bb cf d1 35 bd 7a a2 1d bd
       0.08552612 -0.005514847 -0.044389542 -0.038485028
000100 11 89 45 bc 45 ce a5 3d d7 2e 9f bc 27 74 bc 3d
       -0.012056605 0.080959834 -0.019431515 0.09201842
000110 50 fc c9 bb 5f 22 2b bd b5 79 f4 3a 25 56 2c 3d
       -0.006164111 -0.041780826 0.0018651994 0.04207434
000120 77 c8 5e bd bf 0e f9 bc e8 ed 72 bd 43 86 d2 3d
       -0.054390397 -0.03040254 -0.059308916 0.10279515
000130 5e 06 a8 3d 05 9c 08 3d 83 24 86 bd 86 bb b2 3d
       0.082043394 0.033351917 -0.06549933 0.087271735
000140 6b 98 38 bd 7c af 82 bd c4 f6 11 3d 01 1a 91 3d
       -0.045067232 -0.06381127 0.035635725 0.07085038
000150 01 82 c7 bb f5 29 98 bd 1a d1 d1 bc 3c 43 b7 3c
       -0.0060884957 -0.07429878 -0.025612403 0.022370927
000160 ff d4 92 3d aa 8f de bc 3e 42 8f 3d f4 b2 ad 3a
       0.07169532 -0.027168114 0.069950566 0.0013252185
000170 dd 3d be 3d 52 3c 8f 39 61 9c 5e bd c1 52 92 3c
       0.09289143 0.00027320028 -0.054348353 0.017861726
000180 8e e2 02 bb 1c 5f 08 3d 1a 97 c8 bd e7 bb 87 3d
       -0.0019971463 0.03329383 -0.09794445 0.066276364
000190 65 e5 5a 3d f7 d5 4c bd 98 31 4c 3d 0a ae 29 bd
       0.053441424 -0.05000874 0.049851984 -0.041425742
0001a0 3e 25 89 bd 9f d8 bc 3d be 4e 8c bb 69 5f 64 3c
       -0.066965565 0.09221005 -0.0042818477 0.013938763
0001b0 e4 70 03 bd de 43 6a 3d 25 3b 57 bd 4b 1d 35 bc
       -0.032090083 0.05719363 -0.05254664 -0.011054347
0001c0 f8 43 68 3d 20 a7 99 bc e1 00 75 3d 7b 5a b2 bd
       0.056705445 -0.01875645 0.05981529 -0.08708664
0001d0 c2 30 2b 3c 1c 51 7e bd db 32 5a 3d 53 04 b6 3d
       0.0104486365 -0.06208907 0.053271156 0.088875435
0001e0 84 18 0c 3d 32 45 29 3d dc 6e a9 bd ba 8c d3 bd
       0.034203067 0.041325755 -0.08273098 -0.10329576
0001f0 cf 41 34 ba 0e 00 6d 3d c1 cd 4a 3c bd 46 84 3d
       -0.00068762613 0.05786138 0.012378157 0.06458805
000200 e7 14 a4 3b 90 51 a0 bd 31 64 0a 3d 65 f4 88 3d
       0.0050073746 -0.07828057 0.033786956 0.066872396
000210 8e 0d 20 bd d9 20 11 bd ff 91 b6 bc 08 e4 59 bd
       -0.039075427 -0.035431717 -0.022286413 -0.053195983
000220 35 c6 67 3c a5 22 87 bd ab 7d 95 3d fe d5 da bb
       0.014146377 -0.06598405 0.0729936 -0.006678342
000230 77 64 9a 3c 2a fa 89 bd 89 de 55 bd d8 48 b2 bd
       0.018846733 -0.06737168 -0.05221418 -0.087053
000240 43 c5 80 3d 6c 95 50 bd 04 e5 91 3d f3 b3 ad 3c
       0.06287625 -0.05092375 0.071237594 0.02120397
000250 ad 57 d5 bd ff 9e a2 bd f1 18 c1 3d eb 90 cd 3d
       -0.104171135 -0.07940482 0.09428585 0.100374065
000260 7e de 3d 3d 33 a4 eb bb 2d a7 66 3d 2d de 39 bd
       0.046354763 -0.007191205 0.056311775 -0.0453779
000270 10 68 a4 bd 09 b1 15 bd d8 88 a4 bd 34 3d 80 bd
       -0.08027661 -0.036545787 -0.080339134 -0.062616736
000280 29 e0 da 3c 7d af cb bd e5 d6 7f bc cf 6c cb bd
       0.026718216 -0.09945581 -0.0156152 -0.09932863
000290 e1 d5 fd 3b 6f 4d f9 bc ff da 61 ba b2 52 80 bc
       0.0077464436 -0.030432431 -0.0008615702 -0.015664432
0002a0 79 43 b5 3d 81 6d c8 bd e6 94 ca bc a5 83 6d bd
       0.0885076 -0.09786511 -0.024729203 -0.057986874
0002b0 84 c3 29 bd 60 c3 4a 3d 41 e2 15 3d c3 cb 5e 3d
       -0.041446224 0.04950273 0.036592726 0.05439354
0002c0 55 68 15 3d f2 d9 a3 3d eb 6a 07 3d 94 17 29 bd
       0.036476452 0.08000554 0.03306095 -0.04128225
0002d0 e1 ce 13 bc f8 2d fb 3c 1c af 3e 3d ea 36 93 bd
       -0.009021492 0.030661568 0.046553716 -0.071882084
0002e0 21 9a 6e 3d 6a 77 a6 3d 5b 89 c2 bd d3 d5 a4 bd
       0.058252458 0.08128245 -0.09498855 -0.08048596
0002f0 72 b1 bd 3d 3b f7 a8 3d 5e 1d 10 bd 65 a8 a2 bd
       0.09262361 0.082502805 -0.035184257 -0.07942275
000300 25 58 06 3d 69 9b 40 3d 9a 12 e1 3b 32 e9 b6 bd
       0.032798905 0.04702321 0.0068686726 -0.08931197
000310 55 8d 64 bd a8 d3 ae bd bc 02 c0 bd d3 60 db 3d
       -0.055798847 -0.08536464 -0.093755215 0.10711827
000320 82 ea 7e 3d ff ed f4 38 b1 04 c1 3d eb f6 15 ba
       0.062235363 0.00011679157 0.09424723 -0.00057206926
000330 27 c6 54 bb dd 47 06 bd 21 b2 9c 3d 9e 61 c0 3d
       -0.003246674 -0.032783378 0.07651163 0.09393619
000340 5f 8f 2b bd c2 84 58 3c 10 57 a6 bd c8 bb ec bc
       -0.041884776 0.013215246 -0.081220746 -0.028898135
000350 40 9f c1 bc 7a 66 ec 3c fe e7 bd 3d 30 0a bb 3d
       -0.023635507 0.028857458 0.092727646 0.091328025
000360 1c 38 87 3b ea e3 e3 bc f2 ed 6f 3d 62 aa d5 bd
       0.004126562 -0.027818639 0.05857653 -0.104328886
000370 fd f6 68 bd 12 cf 88 3d a0 7b 13 bc 8a 82 dd ba
       -0.05687617 0.066801205 -0.009001642 -0.0016899866
000380 de d0 99 bd 55 71 c2 3d 5b 0d 95 bd 02 4b 7b bd
       -0.075105414 0.094942726 -0.07277938 -0.06135083
000390 8e ee af bd 70 a6 ac bd 29 d1 b7 3d c0 a4 b6 bd
       -0.085904226 -0.08430183 0.08975441 -0.08918142
0003a0 7f 65 1c bc d2 01 76 3d 8d 2b e5 3c 32 88 b5 3d
       -0.009545683 0.06006033 0.027974868 0.08863868
0003b0 d7 68 7b bc 61 8e b3 3d 89 b2 c4 bd 62 08 92 bd
       -0.01534482 0.08767391 -0.096043654 -0.07130505
0003c0 b2 5d 95 3c 5c 34 98 3d d4 6b a4 bd 27 3a bb 3d
       0.018233154 0.07431862 -0.08028379 0.09141951
0003d0 35 6a 91 3d 27 39 18 bc b1 c0 a1 bd bb a1 ca bc
       0.071003355 -0.00929097 -0.07898081 -0.024735322
0003e0 38 c3 82 b9 85 16 ec bc 4c 43 3a bd fe 41 48 3c
       -0.00024940982 -0.028819332 -0.045474336 0.012222765
0003f0 90 f9 5d bd 2b 9b 97 3d 05 5b 90 3c 74 56 0d bd
       -0.05419308 0.07402643 0.017621526 -0.034506276

residual_layers.0.conv2.bias f4 [32]
000000 1d f0 a4 3d 2d 62 95 bd 58 31 9a bd 27 ef a5 3d
       0.080536105 -0.07294116 -0.07528943 0.08102255
000010 d1 07 19 bd e3 52 ab 3d f6 27 97 3c 37 92 bd 3c
       -0.03736097 0.08365419 0.018451672 0.02314101
000020 7f f2 9f 3d 21 89 a0 bd 55 1d 80 bd 1e bb 65 3d
       0.07809924 -0.07838655 -0.06255595 0.056086652
000030 39 ed 82 3d 46 2b 9c 3d b4 ec b7 bc c2 69 de 3c
       0.06392903 0.07625441 -0.022451736 0.027150039
000040 9d 57 c0 3d 84 de b3 bd 0a 55 8e bd ad 38 ae 3c
       0.09391711 -0.08782676 -0.06949814 0.02126726
000050 1a 47 79 bd eb 77 8c 3d ff c2 c9 bd 8f 8e 86 3d
       -0.060858823 0.0685881 -0.09851646 0.0657016
000060 4b 17 c9 3c 7d 21 97 bb 93 f1 0f 3c e4 fb 6a bd
       0.02454724 -0.0046121464 0.008785623 -0.057369128
000070 62 af 7b 3d 9a 0b 5b 3c 7c ad 29 3d 21 a5 c3 bd
       0.061446555 0.013369465 0.041425213 -0.0955298

residual_layers.0.bn2.weight f4 [32]
000000 8a aa 7a 3f ec 40 7e 3f a8 b7 7d 3f b8 61 80 3f
       0.9791647 0.9931781 0.9910836 1.0029821
000010 0b c7 7c 3f 64 cb 7d 3f 18 50 7f 3f c4 63 7d 3f
       0.98741215 0.99138474 0.9973159 0.98980355
000020 82 73 7d 3f cb a6 7d 3f 50 71 80 3f e5 1f 80 3f
       0.99004376 0.9908263 1.003458 1.0009733
000030 9a 60 7d 3f ae 84 81 3f af 8b 7d 3f 7d 00 80 3f
       0.9897553 1.0118616 0.99041265 1.0000149
000040 d2 10 80 3f cc cd 7b 3f a0 8d 7a 3f f9 6d 80 3f
       1.0005133 0.98360896 0.9787235 1.0033561
000050 b2 18 80 3f 53 c3 78 3f 9a a6 7a 3f 8d 91 7f 3f
       1.0007536 0.9717304 0.97910464 0.9983147
000060 e0 94 7f 3f f8 5c 80 3f 65 26 7f 3f de 89 78 3f
       0.9983654 1.0028372 0.9966796 0.9708537
000070 e2 1d 81 3f 38 19 79 3f 9b b0 7d 3f b1 a7 81 3f
       1.0087245 0.97304106 0.99097604 1.01293

residual_layers.0.bn2.bias f4 [32]
000000 d6 54 e8 bb 68 b8 6c 3c 73 c0 a6 bc 58 c8 66 3c
       -0.0070901914 0.014448263 -0.020355439 0.014085852
000010 c6 d3 33 3b d2 74 e9 bc 42 d3 ab 3b 76 5f 30 bc
       0.002743946 -0.028498087 0.0052436898 -0.010764947
000020 53 45 a4 bc a2 96 c0 bb 7b 99 c3 bb 58 25 b4 3a
       -0.020052588 -0.005877332 -0.005969224 0.001374404
000030 01 2d 35 3b 3f de d7 bb 9a 28 1b bc e9 e8 e7 bc
       0.0027645233 -0.006587773 -0.009470129 -0.028309302
000040 6e 9c 6a bc 75 d5 d8 ba 8a 0e 85 bc 60 87 ad ba
       -0.014319522 -0.0016543107 -0.016242284 -0.0013239197
000050 33 e1 f1 ba ad 29 a3 3c 3c e3 32 3b c2 4b cc ba
       -0.0018453955 0.019917333 0.0027296087 -0.0015586542
000060 e0 5c 7c 3c f1 13 47 bc 1b 29 3a 3c c5 19 ad 39
       0.0154030025 -0.0121507505 0.011362339 0.0003301633
000070 83 72 c6 3c 1e 37 8a 3c c9 78 12 3c e2 d7 3f bc
       0.024224525 0.016871985 0.00893993 -0.011709185

residual_layers.0.bn2.running_mean f4 [32]
000000 ef 4d ff 3d 04 2c 57 be d7 b4 1f 3d 94 98 9a be
       0.124660365 -0.21012884 0.03899082 -0.30194533
000010 6f 0a 5d 3e fc 3c b6 3e b8 9d 1a be 78 ba 6b 3e
       0.21586011 0.35593402 -0.15099227 0.23020351
000020 b6 5e 1e 3e 5d f8 2a 3e 71 05 80 3e 45 de 30 3e
       0.15465817 0.16696306 0.2500415 0.17272289
000030 da e7 80 be 53 d8 2c bd 18 5c 2c 3d 97 c1 c2 3e
       -0.2517689 -0.04219849 0.042080015 0.38038322
000040 e0 a1 eb 3d 8f b2 11 be 82 56 74 3d b4 28 c1 3d
       0.115054846 -0.14228271 0.059652813 0.09431592
000050 87 03 0c 3e ac 34 2e be 60 8d 08 be 17 ed d7 bd
       0.1367322 -0.1701228 -0.1333518 -0.10543268
000060 18 a7 7b 3e c3 cf 3b be ab 2e 45 3e bf 6b 71 3e
       0.2457546 -0.18340974 0.19256084 0.23576258
000070 75 74 67 be ce f7 00 be 56 6f 3b be dc 94 31 be
       -0.22603019 -0.1259453 -0.1830419 -0.17341942

residual_layers.0.bn2.running_var f4 [32]
000000 98 ab 7e 3d ef 71 0b 3e f2 ab 4f 3e 49 f6 8c 3d
       0.062175363 0.13617681 0.20280436 0.06882913
000010 2f a6 25 3e 0c 32 b4 3d 93 75 ef 3d d4 0b db 3d
       0.16176675 0.08798608 0.116923474 0.106956154
000020 62 70 8e 3d 61 5a 1a 3e 5d 6d ff 3d e0 84 c9 3d
       0.06955029 0.1507354 0.12472031 0.09839797
000030 ba ff df 3d f0 b0 31 3e 3c 38 bd 3d ad ff 80 3e
       0.10937448 0.17352653 0.092392415 0.25195065
000040 6f b2 ba 3d 51 64 fb 3d da e9 f3 3d 2c 53 d2 3d
       0.09116065 0.12274993 0.11909838 0.1026977
000050 46 a1 e9 3d de 8b e9 3d 2b 11 1a 3e 73 1b 05 3e
       0.114077136 0.11403631 0.15045612 0.12998752
000060 b3 ed 02 3e 44 d9 ea 3d 1b f8 6c 3e e3 0a e2 3d
       0.12785988 0.114672214 0.2314152 0.11037233
000070 78 b0 d3 3d 28 b6 ac 3d 51 c8 d6 3d 93 ad fa 3d
       0.10336393 0.08433181 0.10487426 0.12240138

residual_layers.1.conv1.weight f4 [32, 32, 3]
000000 3c 1a 8b bd 36 1f 82 3d 15 0b 3e 3d 4b ef bd bd
       -0.06792113 0.06353609 0.046397287 -0.09274157
000010 dd b3 e8 bc fe b2 0b bc 6f 53 c6 3d 66 58 cf 3c
       -0.028406078 -0.008526562 0.096838824 0.025310706
000020 fa 56 bb bd 00 79 b2 bd 48 d3 5a 3d 4c 44 85 bd
       -0.09147449 -0.08714485 0.05342415 -0.06507167
000030 2d 2f d5 bc 01 02 07 3d 72 31 dc bd 23 43 76 bd
       -0.026023472 0.032960895 -0.107516184 -0.06012262
000040 46 68 d1 3d d0 b5 a6 bd 37 ba b3 bd 4c 74 32 3d
       0.10224967 -0.08140147 -0.08775752 0.04356794
000050 97 91 b6 bd d2 65 77 bd a4 46 ac ba 11 57 6c bd
       -0.08914488 -0.060399838 -0.0013143611 -0.05770022
000060 63 c6 dc bb 94 83 cb bc c3 4f ea 3c 8e c2 83 3b
       -0.0067375167 -0.024843015 0.028602486 0.0040209955
000070 48 2f c0 bc 49 1f 8e bc eb b4 87 3d 19 a0 9f 3d
       -0.023460045 -0.017348902 0.06626304 0.07794208
000080 72 db 7e bc 92 95 8a 3d f6 eb 20 3d b3 e3 97 bd
       -0.0155552495 0.067668095 0.03928753 -0.07416477
000090 14 89 a1 bb ee e2 d1 3d ae 00 83 3d df 80 84 bd
       -0.004929671 0.102483615 0.06396614 -0.06469893
0000a0 46 c9 b2 bd 0f de 2d bd a4 8d 9d 3b 1d 37 95 3d
       -0.08729796 -0.0424481 0.0048081446 0.07285903
0000b0 ec 74 c4 3d 44 ee 4c 3c dd 79 57 bb 73 ad 70 3d
       0.095926136 0.012507979 -0.0032879033 0.058759164
0000c0 fd 91 7e 3d 90 21 a5 3c 5a 83 30 bd 03 43 00 bd
       0.062150944 0.020157605 -0.043094017 -0.031313907
0000d0 17 3f 84 3d b0 d1 3e bd 5b 74 a2 bc e1 86 20 3d
       0.06457346 -0.046586692 -0.019830873 0.03919113
0000e0 ba 30 ba bd 23 ab 6e b9 90 2c 68 3c ff 13 e3 3d
       -0.09091325 -0.00022761202 0.014170781 0.11087798
0000f0 79 b4 15 3d a4 30 8e bd 6b 8f 1c 3c 63 56 ff 3b
       0.036549065 -0.06942871 0.009555678 0.0077922805
000100 49 6e 22 3c f6 73 e5 bc 1a 01 ec bc e4 d3 cf bc
       0.009913989 -0.028009396 -0.028809119 -0.025369592
000110 5c 7f da 3d b8 3d 70 bd 6e de b5 3c 69 9f bd bd
       0.10668823 -0.05865261 0.02220079 -0.09258921
000120 c4 7a 57 3d b2 a7 8f bd 5f 9e bd bb 68 47 29 bd
       0.052607313 -0.07014407 -0.0057867016 -0.041327864
000130 6b 5e 12 bd ff ab cb bc ba cf 94 bb 16 a5 76 3d
       -0.035734575 -0.024862288 -0.0045413645 0.060216032
000140 d1 a8 91 3b 0f 94 bb 3c e0 e2 b5 bd bb 6b c3 bd
       0.0044451733 0.022897748 -0.088811636 -0.09542032
000150 9f 5d b6 bc b9 77 41 3d 5f 29 b8 3d ac b9 99 bb
       -0.022261439 0.047233317 0.08992266 -0.0046913233
000160 e1 6d e8 bb 40 0f 82 bd f8 32 b6 3d 6f 37 89 3c
       -0.0070931767 -0.06350565 0.0889644 0.016750066
000170 98 b1 a7 bb 38 ac 9e bd 9b 86 3d bd d2 57 8e 3d
       -0.0051176064 -0.07747692 -0.046270948 0.06950344
000180 66 91 70 bd 75 f8 19 bd cf a9 93 3d 14 b3 87 3d
       -0.058732413 -0.037590463 0.07210123 0.06625953
000190 4a bc c9 bd 58 27 94 3c 61 f1 90 bd f9 fd 73 bc
       -0.098503664 0.018085167 -0.070772894 -0.014892095
0001a0 00 c1 c1 3d 83 43 c6 3d 99 ec aa bd ca 5d d1 3c
       0.0946064 0.096808456 -0.08345909 0.025557417
0001b0 da be fe bb e0 5a b3 3c 59 b9 8e bd e2 4b 71 bc
       -0.007774216 0.021893919 -0.06968946 -0.0147275645
0001c0 78 79 e1 bb 73 d5 11 bd c9 60 8f 3c 2e 06 10 3d
       -0.0068809353 -0.03560395 0.017502205 0.035162143
0001d0 e3 f8 94 3d ae cc a9 bd 44 f6 cb 3a e9 69 93 bd
       0.07274034 -0.08290993 0.0015561064 -0.07197935
0001e0 40 0c 2a bc 31 46 03 3d 33 35 b1 bd 6e 73 8f 3d
       -0.010378897 0.03204936 -0.08652725 0.07004438
0001f0 c9 e4 8b 3d 23 c7 3f bc aa 11 e0 3d fa 03 35 3d
       0.06830747 -0.011705193 0.10940869 0.044193245
000200 ae 04 4e bd d1 53 b9 bd be 00 05 3a 2e d3 11 3d
       -0.05029743 -0.0904919 0.0005073658 0.035601787
000210 1a a2 07 3d 8b 26 44 3d d2 92 20 3d b1 18 90 bc
       0.033113576 0.04788832 0.03920252 -0.017589899
000220 58 86 66 3c 0c e9 e9 bb bd 99 9c 3d 56 63 5c 3d
       0.014070116 -0.007138377 0.07646511 0.05380567
000230 5c 1c 13 3d 17 bd 83 bd b4 37 b2 bc 52 9b f2 3c
       0.035915717 -0.064325504 -0.021755077 0.029615078
000240 94 e1 b0 bd 2b 55 82 bd 11 e9 1f 3d c1 7f 8e bd
       -0.086367756 -0.06363901 0.03904063 -0.06957961
000250 98 9f b7 bd 5f fd a9 bd 58 3e 59 3c 3b f8 86 bd
       -0.08965987 -0.0830028 0.013259493 -0.06590315
000260 fb 6d 12 bc 47 4d 75 bc 96 2a 55 3d 93 4a e0 bc
       -0.008937354 -0.014972038 0.052042566 -0.02737931
000270 91 7c 08 bd de 26 33 bd d3 03 56 bc c8 97 db 3d
       -0.03332192 -0.04373824 -0.013062435 0.10722309
000280 71 b3 9d 3d aa ab af bd e5 5f d7 bd eb 6a 8e 3d
       0.07700241 -0.08577664 -0.10516337 0.06953987
000290 5b 05 ae 3d 98 e6 1f bd e3 28 77 3c 8e ef d6 3c
       0.08497115 -0.03903827 0.015085432 0.026237275
0002a0 87 bd 3d bd 26 f4 77 3c 9f 8d b8 bd e9 b8 be 3d
       -0.046323325 0.015133893 -0.09011387 0.093126126
0002b0 2f 33 c7 bc 01 53 9f 3d 68 55 17 3c d5 5c 70 bc
       -0.024316398 0.077795036 0.009236671 -0.01467057
0002c0 5f 06 12 bd 14 7d 22 bd 71 d0 d7 3d 26 43 13 3b
       -0.035650607 -0.039670065 0.10537804 0.0022470444
0002d0 03 d7 ae 3d cc e0 63 3d 80 fb 46 3d 51 dd 33 3d
       0.08537104 0.055634305 0.048579693 0.043912236
0002e0 99 b5 15 3d b7 3b 60 bc b8 7e c8 bd 20 bb ff bc
       0.03655014 -0.013686112 -0.09789795 -0.031217158
0002f0 3d b0 d2 3c a7 ba 30 bd bc 6d d2 bd ee a6 1a bd
       0.025718803 -0.043146756 -0.102748364 -0.037756853
000300 8f 1d 84 3d e8 c6 61 bd 10 05 ea bc cf 9b ba bd
       0.0645095 -0.055121332 -0.028566867 -0.091117494
000310 87 b9 7e bc 45 88 4f bd 47 51 b1 bd 81 b3 40 bc
       -0.015547163 -0.050667066 -0.086580805 -0.011761547
000320 b4 35 c3 3c 7b 83 0d bd a8 99 76 bc 81 bd 5c 3d
       0.023829319 -0.034549218 -0.015051283 0.053891663
000330 18 d1 32 bd 7e 21 99 3c a4 cc c4 3a 40 62 45 3d
       -0.04365644 0.018692728 0.0015014601 0.0481894
000340 db 4f ad bc 3f c8 f3 bc 9c 81 94 3d 3f 42 b8 bd
       -0.021156242 -0.02975857 0.072512835 -0.089970104
000350 c9 05 2e bd 4a 2a a5 bb 45 ab a7 3d fd 56 e7 3d
       -0.042485986 -0.0050404416 0.08186964 0.112958886
000360 34 14 68 3b f5 25 12 bd 31 68 a5 3c e2 ed 1d bd
       0.0035412433 -0.03568073 0.020191284 -0.03855694
000370 3c 6b c4 3c b1 c8 52 3d 20 bf d5 3d e7 00 b0 bd
       0.023976915 0.051460925 0.10436845 -0.08593922
000380 86 2b ed bc 51 2c 5e bb 6c 12 af bb fb e7 29 3d
       -0.028951418 -0.0033900926 -0.005342772 0.041481
000390 a6 84 db bd 00 1f d4 3c 51 24 3a bc 8a 43 99 bd
       -0.1071866 0.025893688 -0.011361198 -0.07483585
0003a0 64 50 89 3d 06 77 37 3d a4 66 1d 3b 9f 65 e5 bd
       0.067047864 0.044791244 0.0024017477 -0.11201023
0003b0 08 d5 31 bd ae 06 ac 3d 05 15 a0 bd d8 51 3c 3d
       -0.043416053 0.083997115 -0.07816509 0.04597649
0003c0 10 94 8c bd e6 2b 6e bd c8 71 c3 bc 40 8c 06 bd
       -0.06864178 -0.058147334 -0.023857966 -0.032848597
0003d0 08 3e 76 3b cb 62 58 bd 5f ac a8 bd 2f a2 d2 3d
       0.0037573595 -0.05282859 -0.08236002 0.1028484
0003e0 72 0d b3 3d 88 0d 9f bd f4 ec b6 3d 24 bd 0b bc
       0.08742799 -0.07766253 0.08931914 -0.008528981
0003f0 4a e5 0f bd 8c d9 be bd 41 ba cf 3d 88 17 93 bd
       -0.035130776 -0.093188375 0.10142947 -0.071822226

residual_layers.1.conv1.bias f4 [32]
000000 22 f8 9d 3d ab 03 8a bd f2 3b ae 3d b5 b3 a9 bc
       0.07713343 -0.06738981 0.085075274 -0.020715574
000010 ea e4 b7 3c 74 e6 cd 3d b1 d1 f7 3c 5c 66 ba bd
       0.022448022 0.10053721 0.030251356 -0.09101555
000020 84 5b 6a bd 04 38 cf bd 24 8e 80 3d 33 f1 c2 3d
       -0.057216182 -0.10118106 0.06277111 0.09518661
000030 fe 29 4c bc 77 52 5c bd 3c f5 82 3d 7b e8 90 3d
       -0.012461184 -0.053789582 0.06394431 0.07075592
000040 9c 2c 8c bd ac 6d 93 3d 7c 88 4d 3d 37 39 9b 3d
       -0.06844446 0.071986526 0.05017899 0.07579272
000050 10 46 c6 3d c5 66 bb 3b 6f ac 96 3d 0d a9 9e 3c
       0.09681332 0.005719038 0.07357108 0.01936772
000060 a4 ed 45 3d 64 2c 41 3d ec a8 63 3d 0c 21 27 39
       0.048322335 0.047161475 0.05558102 0.00015938672
000070 10 53 58 bd 49 30 2d bd ac 90 0c bd 3a c3 9c bc
       -0.05281359 -0.042282376 -0.034317657 -0.01913606

residual_layers.1.bn1.weight f4 [32]
000000 dd d9 80 3f ec 67 80 3f 57 80 81 3f 2b 6b 7f 3f
       1.0066487 1.0031714 1.0117291 0.997729
000010 73 48 7e 3f fc be 7d 3f 23 2b 80 3f c7 db 7d 3f
       0.993293 0.99119544 1.0013164 0.9916348
000020 a0 da 7e 3f 38 16 80 3f 29 34 7e 3f 6a 8d 81 3f
       0.99552345 1.0006781 0.9929834 1.0121281
000030 16 8a 80 3f a9 c0 80 3f 78 85 7f 3f ac 14 7e 3f
       1.004214 1.0058795 0.9981303 0.9925029
000040 be 42 80 3f 64 e0 7c 3f 1f e0 7f 3f 9c 09 80 3f
       1.0020368 0.9877989 0.99951357 1.0002933
000050 91 0d 80 3f e6 3e 80 3f 36 c2 7f 3f 33 94 80 3f
       1.000414 1.0019195 0.9990572 1.0045227
000060 75 d5 81 3f cd 62 7f 3f b7 eb 7e 3f 39 bf 80 3f
       1.0143267 0.99760133 0.9957842 1.0058357
000070 54 fd 7e 3f ef 2d 80 3f d1 c9 7e 3f b2 05 81 3f
       0.996053 1.0014018 0.995267 1.0079863

residual_layers.1.bn1.bias f4 [32]
000000 39 b0 7f 3b d4 07 8e ba 84 bc a8 3c 31 7a 60 3c
       0.003901495 -0.0010836073 0.020597704 0.013701008
000010 80 91 f5 3b b1 f5 d6 3c 95 81 54 bc b8 b0 b6 3b
       0.0074941516 0.026240202 -0.012970348 0.0055752657
000020 f9 a1 be bb 09 e2 40 bc 94 26 ba 3c 1a 20 c3 bb
       -0.0058176485 -0.011772641 0.022723474 -0.0059547545
000030 83 ce 5d bc 59 7e 57 bc 5c 89 05 bb c7 5d 2e bc
       -0.013538006 -0.013152682 -0.0020376062 -0.010642475
000040 46 f5 48 3c 9c 48 48 bc ef 2e 94 3a ed 00 49 bc
       0.012265509 -0.012224343 0.0011305491 -0.012268287
000050 23 b0 3e bc a5 e1 b0 3c 72 8d 2a bc 8e 04 9d 3b
       -0.011638674 0.02159197 -0.0104097 0.0047918027
000060 1e 0a 1f bc 5b f2 be 3c dc f7 9d 3a 03 87 c2 bb
       -0.009707002 0.023308923 0.0012052017 -0.005936505
000070 c5 5b 3c 3a f0 0c 73 3c e0 a9 1e 3c 92 9f 8f bb
       0.00071853056 0.0148346275 0.009684056 -0.004383036

residual_layers.1.bn1.running_mean f4 [32]
000000 be b9 42 be 01 d3 ec bd c8 28 65 be 89 57 21 3f
       -0.19016168 -0.11563683 -0.22378838 0.63024193
000010 7d c7 16 be 42 7b df 3e 3e 18 8a 3e 31 46 12 bf
       -0.14724536 0.43648726 0.2697162 -0.57138354
000020 ef 00 c1 3e 30 00 dc 3e 1a f8 e9 3e 31 26 d4 be
       0.37696025 0.42968893 0.456971 -0.41435388
000030 d1 ce 5c 3d 75 de 15 be 6d 04 0d 3f 07 8e 5c bd
       0.053908173 -0.14635642 0.5508488 -0.053846385
000040 99 a6 89 bf d7 54 cc 3e 94 a2 b4 be 62 b3 9e 3d
       -1.0753967 0.39908478 -0.35280287 0.07749058
000050 79 cc f8 bd fa 57 c0 be 9a c2 01 3f df a2 a6 bd
       -0.12148375 -0.3756712 0.50687563 -0.08136534
000060 0e 5e eb bc 26 67 c5 3d 97 91 ec 3e 9d d9 41 be
       -0.028731372 0.09638815 0.46204826 -0.18930669
000070 78 25 4d 3e 85 d1 3b bd cb 8f 53 3d 02 71 09 3e
       0.20033824 -0.04585411 0.051650804 0.13422015

residual_layers.1.bn1.running_var f4 [32]
000000 66 fb 68 3e 77 df 41 3e 1a 07 5b 3e e9 4b 5e 3e
       0.22752151 0.18932901 0.21389428 0.21708645
000010 72 1f 38 3e 4a 38 3c 3e 8f 29 5f 3e 63 b4 38 3e
       0.17980745 0.18380848 0.21793197 0.18037562
000020 2e 68 64 3e 53 e2 78 3e 50 36 6e 3e 35 74 94 3e
       0.22305366 0.24305086 0.23262906 0.2899491
000030 6b 46 75 3e 18 86 64 3e b8 7a a4 3e 49 a7 88 3e
       0.23952644 0.22316778 0.32124877 0.26690128
000040 9b 44 45 3e ae 06 91 3e 35 e0 8b 3e 23 de 89 3e
       0.19264452 0.2832541 0.27319494 0.2692729
000050 3c 21 7b 3e 49 f8 3a 3e c7 32 8d 3e 4f 4d 80 3e
       0.24524397 0.18258776 0.27577803 0.25058982
000060 d3 b8 61 3e 79 3c 50 3e bb 60 94 3e 57 c1 49 3e
       0.22043161 0.20335568 0.2898005 0.1970266
000070 4c aa 43 3e 8d fa 77 3e 49 1d 61 3e e1 98 49 3e
       0.19107932 0.24216671 0.21983828 0.19687225
