ckpts/SpliceAI_SSD/Medicago_truncatula.pth (torch, 558475 bytes, 223 tensors)

conv1.weight f4 [32, 4, 3]
0	0x3e529638	0.20565116
1	0xbe044f7f	-0.1292095
2	0x3dd802d1	0.10547412
3	0x3e450b3f	0.19242571
4	0x3e5f891f	0.21829651
5	0x3db89cd7	0.0901429
6	0xbe49081a	-0.19631997
7	0xbd0a5ecf	-0.033781823
8	0x3e2c7986	0.16843233
9	0xbe175469	-0.14778294
10	0xbc90856f	-0.017641751
11	0x3e040c17	0.12895237
12	0xbcf24146	-0.02957214
13	0xbe71fc9c	-0.23631519
14	0xbe6d5672	-0.23177508
15	0x3e967490	0.29385805
16	0xbdcf15b5	-0.10111562
17	0xbe2ee97b	-0.17081253
18	0x3e3f9022	0.18707326
19	0x3e66444f	0.22486995
20	0x3d9ce9d8	0.0766179
21	0x3e81abd7	0.25326416
22	0xbe6115d9	-0.2198099
23	0x3dc8d71b	0.09806653
24	0xbdd77ee0	-0.10522246
25	0x3e30ead0	0.17277074
26	0x3de71fe1	0.11285377
27	0xbe55f362	-0.20893624
28	0x3e0f4541	0.13991262
29	0xbdbbda7e	-0.091725335
30	0xbe919ebb	-0.28441414
31	0x3c651005	0.01398087
32	0xbe9c64c0	-0.30545616
33	0x3e80459e	0.25053114
34	0x3e815eb7	0.25267574
35	0xbda69971	-0.081347354
36	0x3cd64878	0.026157603
37	0x3e9244d2	0.2856813
38	0xbe643ef5	-0.22289641
39	0xbe392d9b	-0.18083803
40	0xbe8d2026	-0.2756359
41	0x3cce1c59	0.025160002
42	0x3ce44691	0.02786568
43	0x3d4b812b	0.04968373
44	0x3d27e80c	0.04099278
45	0x3cffbc61	0.031217756
46	0x3d48d2cf	0.049029168
47	0x3d5918d5	0.053002197
48	0xbda0a13b	-0.07843252
49	0x3e7c64ca	0.24647823
50	0xbd1f673a	-0.038916804
51	0xbe48033f	-0.19532488
52	0x3e330f6c	0.17486352
53	0xbd753509	-0.05986503
54	0xbe36cb66	-0.17851028
55	0xbdc8a5a1	-0.09797216
56	0x3e7a2254	0.24427158
57	0xbca6803c	-0.020324819
58	0xbdfd339a	-0.12363358
59	0x3e24e309	0.16102232
60	0xbe031ae8	-0.12803233
61	0xbdf4b848	-0.11949211
62	0xbdb8aa70	-0.090168834
63	0x3e678c0c	0.22612017
64	0xbe0acb8e	-0.13554212
65	0x3e564434	0.20924455
66	0x3d8691c6	0.06570773
67	0x3cc8aceb	0.024496516
68	0xbd87c456	-0.06629245
69	0x3e6711bb	0.22565357
70	0x3e608d10	0.21928811
71	0xbe4ae4ed	-0.19813891
72	0x3b50c39e	0.0031854878
73	0x3dece256	0.11566608
74	0x3e4e9d30	0.2017715
75	0xbe57a9c3	-0.21060853
76	0xbe632d1a	-0.22185174
77	0xbe808cea	-0.2510751
78	0x3d6186c7	0.055060174
79	0xbe20dcee	-0.15709278
80	0x3de6ac3b	0.11263319
81	0x3e55c71c	0.20876735
82	0xbe666681	-0.2250004
83	0x3e2449b3	0.16043739
84	0x3e9533ec	0.29141176
85	0x3e1d698c	0.15372294
86	0xbe0925e6	-0.13393363
87	0x3e4709fd	0.19437404
88	0xbe49cb9b	-0.19706576
89	0x3e74cf83	0.23907284
90	0xbd0af051	-0.03392059
91	0x3ddad15e	0.10684465
92	0x3dcf353e	0.10117577
93	0xbe4ff71e	-0.20309111
94	0xbe9d157f	-0.30680463
95	0x3e32c735	0.17458804
96	0xbe29a772	-0.16567782
97	0x3dab3013	0.08358779
98	0xbdfd5d13	-0.12371268
99	0x3e8e2c2c	0.27768075
100	0x3e5c9234	0.21540147
101	0x3e80f99f	0.25190446
102	0xbe86c76e	-0.26324028
103	0x3d4ad970	0.04952377
104	0xbe221c45	-0.15831096
105	0x3d5f66d9	0.054541443
106	0x3ddbb3f6	0.10727684
107	0xbe4e6f90	-0.20159745
108	0x3e61925c	0.22028488
109	0x3e0f512f	0.13995813
110	0xbe887ccd	-0.26657715
111	0xbe83027f	-0.25587842
112	0xbe8eda4d	-0.27900925
113	0xbe68193e	-0.22665879
114	0xbea8079a	-0.328183
115	0x3e715fe1	0.23571731
116	0xbe2cc6c4	-0.16872698
117	0x3e58e7e0	0.21182203
118	0x3e09460e	0.1340563
119	0xbb120acc	-0.0022284267
120	0x3e303a32	0.172097
121	0xbe1944ed	-0.149677
122	0xbdf19ed9	-0.11797876
123	0x3e8b4dc6	0.27207774
124	0x3d31e5e7	0.043432143
125	0x3e074929	0.13211502
126	0xbe7d0ad7	-0.24711166
127	0x3d1045bc	0.035222754
128	0x3cac316c	0.02101966
129	0xbdc394c3	-0.095498584
130	0x3dd88430	0.10572088
131	0x3ddfd867	0.10929947
132	0xbd09bb6e	-0.033626013
133	0x3e5ea27d	0.21741672
134	0xbe24fbf1	-0.16111733
135	0xbdd87ce1	-0.10570694
136	0xbe75f61b	-0.24019663
137	0xbe3439aa	-0.17600122
138	0xbe4c903d	-0.19976898
139	0x3e7224ff	0.23646925
140	0xbe01eefd	-0.12688823
141	0xbd838281	-0.06421376
142	0xbdafe710	-0.085889935
143	0x3e069403	0.131424
144	0xbe7515b5	-0.23934062
145	0xbe65f41c	-0.22456402
146	0x3e380534	0.17970735
147	0x3ea9a195	0.3313109
148	0xbe686629	-0.22695221
149	0xbd10d480	-0.035358906
150	0x3e3590ac	0.17730969
151	0xbe54ae01	-0.20769502
152	0x3db09183	0.08621504
153	0xbd7628d4	-0.06009753
154	0xbde1b5c3	-0.110209964
155	0xbdf63bfc	-0.1202316
156	0xbdd0127e	-0.10159777
157	0x3e816651	0.25273374
158	0x3e2848f4	0.1643408
159	0x3e83f09f	0.25769517
160	0x3e0f6cc2	0.14006332
161	0xbe21a391	-0.15785052
162	0xbda1aed2	-0.078946725
163	0x3e549b92	0.2076247
164	0x3e74297c	0.2384395
165	0x3e550cec	0.2080571
166	0x3cb9c931	0.022678943
167	0xbe702aad	-0.2345378
168	0xbe0710a7	-0.13189946
169	0xbe2398ab	-0.15976207
170	0x3e33f0ca	0.17572322
171	0xbe3df0d8	-0.18548906
172	0xbe89a0a9	-0.26880386
173	0xbe1717fd	-0.14755245
174	0xbe19d6dd	-0.1502337
175	0x3e6551bd	0.22394462
176	0x3e8e0703	0.27739725
177	0x3e6f0ff3	0.23345928
178	0xbe3c1156	-0.18365988
179	0xbe0b246d	-0.13588114
180	0x3e63af5d	0.22234865
181	0xbe5dfbb9	-0.21678056
182	0xbdcba67c	-0.09943864
183	0xbe1ae93e	-0.15128037
184	0xbd828c72	-0.06374444
185	0x3e8d3ae1	0.27583984
186	0xbd801d42	-0.062555805
187	0x3cf7dbb2	0.030256126
188	0x3d31e8ed	0.043435026
189	0xbe7ce54f	-0.2469685
190	0xbe91f2b3	-0.28505477
191	0xbd9aa357	-0.07550686
192	0xbd92a70a	-0.071607664
193	0xbe2c61bf	-0.16834162
194	0xbd8713e9	-0.065955944
195	0xbe8aa8e8	-0.2708199
196	0xbcb0f503	-0.021601206
197	0xbdb11d13	-0.086481236
198	0x3e41a6a2	0.18911222
199	0x3ca49bf5	0.020093897
200	0xbe51c2b3	-0.20484428
201	0xbdf0c350	-0.11756003
202	0x3e22725e	0.1586394
203	0xbc1ea376	-0.009682527
204	0x3cc8dc09	0.024518983
205	0xbd081f1b	-0.03323279
206	0xbe7f999e	-0.24960944
207	0x3e7ad5dd	0.24495645
208	0x3e0d221b	0.13782541
209	0xbe54da7b	-0.20786469
210	0x3cd79c05	0.026319513
211	0xbe810057	-0.25195572
212	0x3e9709f9	0.29499796
213	0x3d31b725	0.04338755
214	0xbe00e2a9	-0.12586464
215	0xbe0e5226	-0.13898525
216	0x3dd0c84b	0.10194453
217	0x3d553188	0.05204919
218	0x3e55c4fc	0.20875925
219	0x3bf99aea	0.007617344
220	0xbd449615	-0.047994692
221	0xbe6b07f3	-0.22952251
222	0x3d755a4e	0.059900574
223	0x3e2a4edb	0.16631643
224	0xbcff74a5	-0.03118355
225	0xbd06011b	-0.032715898
226	0xbe9ccafe	-0.3062362
227	0x3e648aa3	0.2231851
228	0xbaf4c6bd	-0.0018674951
229	0xbe75d10d	-0.24005528
230	0xbe655e99	-0.22399367
231	0xbd818876	-0.06324856
232	0xbdb6b06b	-0.08920368
233	0x3e54e30f	0.20789741
234	0xbdcb0c40	-0.09914446
235	0x3e8805f8	0.26567054
236	0xbe24796a	-0.16061941
237	0xbd7db464	-0.061939612
238	0x3e91796a	0.28412944
239	0x3e817791	0.25286534
240	0xbe135849	-0.14389147
241	0x3e63d649	0.22249712
242	0x3e30576d	0.1722085
243	0xbd902098	-0.07037467
244	0xbe3b6f83	-0.18304257
245	0x3e03c7d7	0.12869202
246	0x3c72f538	0.0148289725
247	0x3e851ba2	0.25997645
248	0x3e5e05b9	0.2168187
249	0x3d27ca1f	0.040964242
250	0xbda2e69c	-0.079541415
251	0xbd022b11	-0.031779353
252	0xbd1f30ce	-0.038864903
253	0x3e77d6d2	0.24203041
254	0xbc36f3bb	-0.011166508
255	0x3d0729f8	0.03299901

conv1.bias f4 [32]
0	0xbdfbfde5	-0.12304286
1	0xbc851228	-0.01624401
2	0x3d93cb07	0.07216459
3	0x3c25f600	0.010129452
4	0xbe253518	-0.16133535
5	0xbd3f2c8c	-0.046673343
6	0x3dfc65d3	0.12324109
7	0x3b93acca	0.004506682
8	0xbe8d8c8b	-0.27646288
9	0x3e5b414d	0.21411629
10	0xbe1edda7	-0.15514241
11	0xbc8a0622	-0.016848627
12	0x3df3b88f	0.11900436
13	0xbcb813f9	-0.022470461
14	0xbd0eddd3	-0.034879517
15	0x3e355b71	0.17710663
16	0xbe623c8d	-0.22093411
17	0x3e5fd51d	0.2185864
18	0xbe7c5043	-0.24639992
19	0xbe5eaccc	-0.21745604
20	0x3e2987f1	0.16555764
21	0x3d5fdf8e	0.054656558
22	0x3df4598b	0.119311415
23	0x3e8579bc	0.26069438
24	0xbe473d7d	-0.1945705
25	0xbe5076b4	-0.20357782
26	0xbe1d1efe	-0.15343854
27	0x3e3a5f58	0.18200433
28	0x3e22f7f2	0.15914896
29	0xbde2697f	-0.11055278
30	0xbe010aa6	-0.12601718
31	0x3e3b4066	0.18286285

bn.weight f4 [32]
0	0x3f7d0224	0.9883139
1	0x3f7b190a	0.9808508
2	0x3f7eab5a	0.9948021
3	0x3f76d77a	0.9642254
4	0x3f7f5a70	0.9974737
5	0x3f7ba4c8	0.9829831
6	0x3f7dc6e1	0.9913159
7	0x3f81e0b7	1.0146703
8	0x3f7c2beb	0.98504514
9	0x3f7b63bf	0.98199075
10	0x3f820e8f	1.0160693
11	0x3f7f4811	0.9971934
12	0x3f813ead	1.0097252
13	0x3f7c7da4	0.9862921
14	0x3f7cd736	0.98765886
15	0x3f7dd37f	0.9915084
16	0x3f7d5c15	0.9896863
17	0x3f7db132	0.99098504
18	0x3f7fb4d1	0.9988528
19	0x3f7c77c7	0.98620266
20	0x3f7cd03e	0.9875525
21	0x3f7c5f55	0.98582965
22	0x3f81a286	1.0127723
23	0x3f7610fa	0.96119654
24	0x3f7e9f0f	0.99461454
25	0x3f77e9a2	0.9684087
26	0x3f7b0121	0.980486
27	0x3f7fd0de	0.9992808
28	0x3f7240c9	0.94630104
29	0x3f804468	1.0020876
30	0x3f7c2372	0.98491585
31	0x3f8007d2	1.0002387

bn.bias f4 [32]
0	0xbd1889e7	-0.03724089
1	0x3ae4d8f1	0.0017459673
2	0xbc3ceaa9	-0.011530557
3	0x3b4e07ac	0.0031437678
4	0xbcf2c806	-0.029636394
5	0x3ccc60c4	0.024948485
6	0xbd0b54c9	-0.034016404
7	0x3c4b4225	0.012405907
8	0xbbe34d28	-0.006936688
9	0x3ca33be4	0.019926019
10	0x3c83d6fd	0.016093725
11	0x3a9d27c2	0.0011989998
12	0xbbbc0d32	-0.0057388777
13	0xbc8e38bb	-0.017361036
14	0xbc45b8ef	-0.012068017
15	0x3bc6a63f	0.0060622985
16	0x3c3c05e3	0.011476013
17	0x3c85f303	0.016351229
18	0x3d022685	0.031775016
19	0x3cfaccd6	0.030615252
20	0x3cb36ae8	0.021901563
21	0xbd325e08	-0.043546706
22	0xbcac7c81	-0.021055462
23	0x3cd36f3b	0.025809875
24	0x3ce931ac	0.028466068
25	0xbcdede8d	-0.02720573
26	0xbd3db3a3	-0.046313893
27	0xbbbfc659	-0.0058525023
28	0x3c3d614e	0.011558844
29	0xbc8a68c0	-0.016895652
30	0xbc203147	-0.009777374
31	0x3c87d09a	0.016578961

bn.running_mean f4 [32]
0	0x38bf2166	9.113811e-05
1	0xbd50fd54	-0.051022843
2	0x3e14c0c0	0.14526653
3	0x3cf2a837	0.029621227
4	0xbe077616	-0.1322864
5	0xbcb3eb70	-0.021962851
6	0x3e254e5c	0.16143173
7	0x3d894858	0.067032516
8	0xbe9617d3	-0.2931505
9	0x3e3c0b1b	0.18363611
10	0xbdd39b06	-0.10332303
11	0xbdf55639	-0.11979336
12	0xbd4862e3	-0.04892243
13	0x3e3bdf09	0.183468
14	0xbe143e2f	-0.14476846
15	0xbd279eee	-0.04092305
16	0xbec04157	-0.3754985
17	0x3dd17681	0.10227681
18	0xbe360e0d	-0.17778797
19	0xbe51d6e4	-0.2049213
20	0x3e9303ff	0.28713986
21	0x3db6cde1	0.08925987
22	0x3e74bd12	0.2390025
23	0x3ec3859f	0.38187882
24	0xbd5d2c6e	-0.05399745
25	0xbe624c6a	-0.22099462
26	0xbe9d8df2	-0.30772358
27	0x3e2121db	0.15735571
28	0x3eb16dbf	0.34654042
29	0xbde4bec0	-0.11169195
30	0xbe498a20	-0.19681597
31	0x3e32503a	0.17413417

bn.running_var f4 [32]
0	0x3d39b523	0.04533876
1	0x3d8dc043	0.06921437
2	0x3d8b7698	0.06809729
3	0x3d6b9185	0.057511825
4	0x3d2ddf49	0.04244927
5	0x3d8ce06a	0.06878741
6	0x3d89fe5d	0.06737969
7	0x3ddeb2d7	0.10873955
8	0x3d83fc9d	0.064446665
9	0x3dd104f1	0.102060206
10	0x3d6384bc	0.055546507
11	0x3d61d8ed	0.055138517
12	0x3d77f42f	0.060535606
13	0x3d96edda	0.07369585
14	0x3dc07fe1	0.09399391
15	0x3d8f6855	0.07002322
16	0x3d255712	0.04036624
17	0x3d58de4a	0.052946366
18	0x3d8dae79	0.06918044
19	0x3de5d42a	0.11222108
20	0x3d462910	0.048379004
21	0x3d488321	0.04895318
22	0x3df77a11	0.12083829
23	0x3d91b41f	0.071144335
24	0x3dc7a3b3	0.0974802
25	0x3d5ec60b	0.054388087
26	0x3d9acc71	0.07558525
27	0x3d026917	0.031838503
28	0x3d813804	0.06309512
29	0x3d8971e5	0.06711177
30	0x3d425c1e	0.04745113
31	0x3d144b2c	0.036204502

residual_layers.0.conv1.weight f4 [32, 32, 3]
0	0x3d2afe28	0.04174629
1	0x3c3106fd	0.010804889
2	0xbd7ac021	-0.061218385
3	0xbd7d3c16	-0.06182488
4	0x3db7b1b0	0.08969438
5	0xbc2e6423	-0.010643992
6	0x3dd1fda7	0.102534585
7	0xbdc78064	-0.097412854
8	0x3d8e3194	0.0694305
9	0x3ceb5843	0.02872861
10	0x3dbd2572	0.09235658
11	0xbd2dd23b	-0.04243682
12	0xbac42e30	-0.0014967378
13	0xbd815c99	-0.0631649
14	0x3db6e84c	0.08931026
15	0x3d32c56c	0.043645307
16	0x3d99e42f	0.07514226
17	0x3d3af390	0.045642436
18	0x3dddf85f	0.10838389
19	0x3da3e127	0.08001929
20	0x3d48f78f	0.049064215
21	0x3c9dbe66	0.019255828
22	0xbd111a29	-0.03542534
23	0x3d872706	0.0659924
24	0xbd78e24a	-0.06076268
25	0x3da530bf	0.08065938
26	0x3c8f223b	0.017472377
27	0x3d8b3836	0.06797831
28	0x3d6ed79c	0.05831109
29	0xbd9ed908	-0.07756239
30	0xbd2ab3f4	-0.041675523
31	0xbda63800	-0.0811615
32	0xbd39dbd5	-0.045375664
33	0xbce65fe3	-0.028121894
34	0xbdb3195b	-0.087450705
35	0x3b39e448	0.0028364826
36	0xbd7cb622	-0.061697133
37	0x3d9a6ed8	0.07540673
38	0xbdb82717	-0.08991831
39	0x3b96942a	0.0045952993
40	0xbdd95fba	-0.106139615
41	0x3dc600f0	0.096681476
42	0x3dd92b9b	0.1060402
43	0x3db257e0	0.08708167
44	0xbd423edc	-0.04742323
45	0xbd99f56f	-0.07517516
46	0x3dc99a75	0.098439135
47	0xbdd9b97f	-0.10631084
48	0x3a31c930	0.00067819934
49	0xbd8e0c49	-0.06935937
50	0x3dc96203	0.098331474
51	0xbd92f8b9	-0.07176346
52	0x3d818db2	0.06325854
53	0xbdacf1e9	-0.08444578
54	0xbd95d12f	-0.07315289
55	0x3cdd1527	0.026987625
56	0x3daba5f3	0.08381262
57	0x3d491087	0.049088027
58	0x3d9de9c5	0.077106036
59	0x3da237df	0.07920813
60	0x3d9b094d	0.07570133
61	0x3d8752be	0.06607579
62	0xbcf34d3b	-0.029699912
63	0xbd8e6d6e	-0.06954466
64	0x3cac8c0a	0.02106287
65	0xbd262dd7	-0.04057106
66	0x3c6a8266	0.014313316
67	0xbc9b03df	-0.018922744
68	0xbd1b0039	-0.03784201
69	0xbd3c2c88	-0.045940906
70	0x3cff25d7	0.031145973
71	0x3d480324	0.04883112
72	0xbdf05144	-0.1173425
73	0xbc3409b4	-0.0109886415
74	0xbd115007	-0.03547671
75	0x3b8c06e5	0.004273283
76	0xbce24d13	-0.027624642
77	0x3db55fb8	0.088561475
78	0x3cb66c7a	0.022268523
79	0xbd90ce12	-0.07070555
80	0x3de128b0	0.10994089
81	0xbdbd413e	-0.092409596
82	0xbaec62fb	-0.001803487
83	0xbd1fceaf	-0.03901547
84	0x3da9ed82	0.08297254
85	0x3d7c138e	0.061542086
86	0xbd550dcb	-0.052015107
87	0x3d8a6441	0.06757403
88	0xbdbf46f1	-0.09339703
89	0xbdc3fc2e	-0.09569584
90	0x3cf4762a	0.029841501
91	0x3cf9cc60	0.030492961
92	0xbe03e193	-0.12879018
93	0xbdc9b4e1	-0.09848953
94	0x3d7a7e99	0.06115589
95	0x3d647c84	0.05578281
96	0x3c0f210c	0.008735906
97	0x3d364f3d	0.04450916
98	0x3de63fa0	0.11242604
99	0xbb2810b7	-0.0025644728
100	0xbde2b924	-0.11070469
101	0x3d97f076	0.07418911
102	0xbd1e030d	-0.03857713
103	0xbdb5418c	-0.08850393
104	0xbdf9d4ea	-0.12198813
105	0xbcdb8006	-0.026794445
106	0xbdcc83fa	-0.0998611
107	0xbd164ac7	-0.036692407
108	0xbcb4c987	-0.022068752
109	0x3d634a57	0.055490818
110	0x3daf7add	0.08568356
111	0xbd2fcb66	-0.042918585
112	0x3bad224c	0.0052836295
113	0xbcc7aaef	-0.0243735
114	0x3d83f7c2	0.064437404
115	0x3bf6bd30	0.007529877
116	0x3dd14e10	0.10219967
117	0x3d1a3337	0.0376465
118	0x3d98cd39	0.07461018
119	0xbd8c391f	-0.068468325
120	0xbd85fb45	-0.065420665
121	0xbc9e5d8c	-0.019331716
122	0xbdcc1dcc	-0.09966621
123	0x3d9a7a2d	0.075428344
124	0x3defb0e8	0.11703664
125	0x3d8ece84	0.069729835
126	0x3c3ebad1	0.01164122
127	0x3db5a142	0.08868648
128	0xbd99c31d	-0.07507918
129	0x3db4c411	0.08826459
130	0x3d614ac1	0.05500293
131	0xbd0660b6	-0.032807074
132	0xbccbdd6f	-0.024885861
133	0x3c3ee0d4	0.011650283
134	0xbd9a726f	-0.07541358
135	0xbd28f9f1	-0.041253988
136	0xbdd04501	-0.101694115
137	0xbda439eb	-0.080188595
138	0xbc2ac11e	-0.010422019
139	0xbb5986e6	-0.0033191978
140	0x3c5c14a2	0.013432654
141	0x3ddb39f8	0.10704416
142	0xbd2de8d1	-0.04245836
143	0x3de00640	0.10938692
144	0x3cdbc874	0.026828982
145	0xbbbd2c03	-0.005773069
146	0xbdd1abb3	-0.10237827
147	0xbdb315a7	-0.08744364
148	0xbd68aecf	-0.056807335
149	0x3b1eb7a9	0.0024218357
150	0xbd78e1bb	-0.06076215
151	0xbdff732a	-0.12473138
152	0x3d982119	0.07428188
153	0x3d0ce861	0.0344013
154	0xbd92f388	-0.07175356
155	0xbd811b7e	-0.06304072
156	0xbd16a140	-0.036774874
157	0x3b25dc52	0.0025308323
158	0x3d54c339	0.05194399
159	0x3db1c578	0.08680242
160	0xbd9c636e	-0.07636152
161	0x3d172187	0.03689721
162	0x3d665ede	0.056242816
163	0xbda8de7d	-0.08245561
164	0xbca16648	-0.019702092
165	0xbce1efbf	-0.02758014
166	0xbd2f36f9	-0.042777035
167	0x3de6bfbe	0.11267041
168	0x3df527e9	0.11970503
169	0x3db139d0	0.08653605
170	0x3d766f9a	0.060165025
171	0x3d3eca15	0.04657944
172	0xbd80f6f7	-0.06297105
173	0x3d6ab6c2	0.057303198
174	0x3d9f8c85	0.07790474
175	0xbdcceaaf	-0.100057
176	0x3b85a2f0	0.0040782616
177	0x3d92a0e6	0.07159595
178	0x3c29c691	0.010362283
179	0x3dec392e	0.11534344
180	0xbda4410f	-0.080202214
181	0xbcffaea0	-0.031211197
182	0x3d93f98e	0.07225333
183	0x3dbd65a2	0.092479005
184	0x3c677555	0.014127095
185	0xbd9facb7	-0.077966146
186	0x3c04385e	0.00807008
187	0x3aa5bb51	0.0012644326
188	0xbd96face	-0.07372056
189	0x3dbfee82	0.09371664
190	0xbbb5c7fa	-0.0055475207
191	0xbda3b70c	-0.07993898
192	0xbdae2ae1	-0.08504272
193	0xbb54bea8	-0.0032462273
194	0xbd434c7d	-0.047680367
195	0xbdb2dd97	-0.08733671
196	0xbe0ce93f	-0.13760851
197	0xbd4e58e4	-0.05037774
198	0x3d3c4f84	0.04597427
199	0xbba26797	-0.0049561965
200	0xbd4736b8	-0.04863617
201	0x3d10c1df	0.03534114
202	0xbde6657f	-0.112498276
203	0x3dae61d7	0.08514755
204	0x3dd134a9	0.10215122
205	0x3d595a84	0.053064838
206	0x3d4b2784	0.049598232
207	0x3d728f7b	0.059218865
208	0x3dcef641	0.10105563
209	0xbd3c8274	-0.046022847
210	0x3d99485f	0.07484507
211	0xbc05072b	-0.008119385
212	0x3d1ab44b	0.037769597
213	0xbc849402	-0.016183857
214	0xbd9a3c0f	-0.075309865
215	0xbdf215c6	-0.11820559
216	0x3d6a0d0b	0.057141345
217	0x3c6cedd2	0.014460998
218	0xbc8a40f5	-0.016876677
219	0x3d88b1be	0.06674527
220	0x3d8f05d2	0.06983532
221	0xbd74602e	-0.059662037
222	0xbcdb1c7d	-0.026746983
223	0xbd39611f	-0.045258638
224	0x3da9f23f	0.08298158
225	0xbdbe57fd	-0.09294126
226	0xbd24f088	-0.04026845
227	0xbd2b902a	-0.041885532
228	0x3c031040	0.00799948
229	0x3d78f6a9	0.06078211
230	0xbccc86b5	-0.024966577
231	0xbc3ce426	-0.011529004
232	0xbadcee6d	-0.0016855724
233	0x3defe1b1	0.11712969
234	0x3c0c8d62	0.00857863
235	0xbcac0aff	-0.021001337
236	0xbdb7b79f	-0.0897057
237	0x3d8ffab1	0.070302375
238	0xbceec6ac	-0.029147469
239	0x3d6ff6f5	0.058585126
240	0xbda5aea3	-0.0808995
241	0x3d630e5a	0.05543361
242	0x3d937a22	0.07201029
243	0xbdc9da54	-0.09856096
244	0xbd67cba6	-0.0565907
245	0xbd5387a1	-0.051643018
246	0xbcf50d55	-0.029913584
247	0xbbfef6d1	-0.0077808877
248	0x3ced0e6a	0.028937537
249	0x3d704e25	0.058668274
250	0xbc84a064	-0.016189761
251	0xbaaf47d4	-0.0013372847
252	0x3d08f58c	0.033437297
253	0xbd2c3776	-0.04204508
254	0x3ce7d1e2	0.028298322
255	0xbc750f85	-0.014957313

residual_layers.0.conv1.bias f4 [32]
0	0xbdbf8af3	-0.09352674
1	0x3dbda5d1	0.092601426
2	0x3d19fcf2	0.037594743
3	0xbd98687b	-0.07441803
4	0x3d9b08c7	0.075700335
5	0xbbb5d04a	-0.0055485116
6	0xbdaa38e1	-0.0831163
7	0x3d5f0601	0.054449085
8	0x3d5f5ba3	0.05453075
9	0x3d895ead	0.06707511
10	0xbd508992	-0.050912447
11	0x3d7d67df	0.061866637
12	0x3b3cdbc3	0.0028817512
13	0x3c8dfe88	0.017333284
14	0x3dafe176	0.08587925
15	0xbcafd14d	-0.021462107
16	0x3d374042	0.044739015
17	0x3da853e9	0.082191296
18	0xbd04e468	-0.032444388
19	0x3d387a93	0.04503877
20	0x3d9dc242	0.07703067
21	0xbd9d143f	-0.07669877
22	0xbc9e1078	-0.019294962
23	0x3dbecf3d	0.09316871
24	0xbd96c74d	-0.07362232
25	0x388c9b32	6.7046276e-05
26	0xba7ac1e5	-0.00095656357
27	0x3dc4dabc	0.09612033
28	0x3cc58d5a	0.024115253
29	0xbc122d98	-0.008922003
30	0x3dad9670	0.08475959
31	0x3d66f8ed	0.056389738

residual_layers.0.bn1.weight f4 [32]
0	0x3f818b7a	1.012069
1	0x3f80b5d8	1.0055494
2	0x3f7d597a	0.98964655
3	0x3f803850	1.0017185
4	0x3f81109a	1.0083191
5	0x3f7d73ff	0.9900512
6	0x3f80676e	1.0031564
7	0x3f7dff06	0.9921726
8	0x3f80ead8	1.0071669
9	0x3f802f3f	1.0014418
10	0x3f7e514c	0.993428
11	0x3f825258	1.0181379
12	0x3f7f3829	0.9969507
13	0x3f82bb81	1.0213472
14	0x3f81553e	1.0104139
15	0x3f7fac68	0.99872446
16	0x3f7f67cc	0.99767756
17	0x3f7faee7	0.99876255
18	0x3f7bec18	0.98407125
19	0x3f80c3b5	1.0059725
20	0x3f7fcccf	0.9992189
21	0x3f7d883d	0.9903601
22	0x3f8329bf	1.0247115
23	0x3f815b98	1.0106077
24	0x3f7aca63	0.9796507
25	0x3f7cecac	0.9879863
26	0x3f7de1ec	0.99172854
27	0x3f79b930	0.975482
28	0x3f7f29b2	0.99672997
29	0x3f7efbab	0.99602765
30	0x3f816117	1.0107754
31	0x3f819cd6	1.0125988

residual_layers.0.bn1.bias f4 [32]
0	0x3cad5975	0.02116082
1	0x3c790a5a	0.015200222
2	0x3bf3176f	0.007418565
3	0x3c31a26f	0.01084195
4	0xbc154276	-0.009110084
5	0x3b1b0e8c	0.0023659794
6	0xbc0eea01	-0.008722783
7	0x3b203cb3	0.0024450242
8	0xbc2b7d20	-0.010466844
9	0x3c0cf482	0.008603217
10	0x3d0c9d66	0.034329794
11	0xbc31974b	-0.010839294
12	0x3cad7d2c	0.02117785
13	0x3ca9152f	0.020639984
14	0xbbf479ae	-0.0074607944
15	0xbc987954	-0.018612541
16	0x3caa513b	0.020790687
17	0x3ced943d	0.02900135
18	0x3c9b6e3a	0.018973459
19	0xbc835296	-0.016030591
20	0x3be8a126	0.0070992885
21	0xbc9f358b	-0.019434711
22	0x3cca3611	0.024683984
23	0x3b47b491	0.0030472616
24	0x3c54d219	0.012989544
25	0x3c17d2f2	0.009266602
26	0x3cbdf8fe	0.023190018
27	0x3c39f8e4	0.011350844
28	0x3c57819e	0.013153462
29	0x3c17e738	0.009271435
30	0x3c1cae21	0.009563
31	0x3d28ac27	0.041179802

residual_layers.0.bn1.running_mean f4 [32]
0	0x3d25006a	0.040283598
1	0x3e14e5df	0.14540814
2	0xbdd259ee	-0.10271059
3	0xbd6f86a4	-0.058478013
4	0xbe192477	-0.14955316
5	0xbb6c07c8	-0.003601538
6	0xbe05663e	-0.13027284
7	0x3e07d5b1	0.1326511
8	0x3d8df787	0.06931978
9	0x3e5bac35	0.2145241
10	0x3e4354bf	0.19075297
11	0x3e6982c4	0.2280379
12	0xbe7b4e17	-0.24541508
13	0xbe528595	-0.2055877
14	0x3ec015ea	0.3751672
15	0xbdcafbc9	-0.099113055
16	0xbdc31eb8	-0.095273435
17	0x3d159bcd	0.036525536
18	0xbd674ea3	-0.05647148
19	0x3e28237a	0.16419783
20	0x3e81cba0	0.25350666
21	0xbeb539e4	-0.3539573
22	0x3ed2abb0	0.41146612
23	0xbded9d1e	-0.11602233
24	0xbe9a6a97	-0.30159447
25	0x3dea4b60	0.11440158
26	0x3eecee0f	0.46275374
27	0x3db8ddcb	0.09026679
28	0xbd821c6b	-0.063530765
29	0xbe3d24de	-0.18471095
30	0xbdf0ef34	-0.117643744
31	0xbd514a9a	-0.051096536

residual_layers.0.bn1.running_var f4 [32]
0	0x3e1d8d01	0.1538582
1	0x3df9dd19	0.12200374
2	0x3dc60d20	0.09670472
3	0x3e0fdda0	0.14049387
4	0x3e026c60	0.12736654
5	0x3e3125fa	0.17299643
6	0x3e26ad8b	0.16277139
7	0x3de2a7e6	0.1106718
8	0x3e531efd	0.2061729
9	0x3e174513	0.14772443
10	0x3dece630	0.11567342
11	0x3e4bf240	0.1991663
12	0x3df443eb	0.11927017
13	0x3e61df70	0.22057891
14	0x3e0456fb	0.12923805
15	0x3ddae0a1	0.10687376
16	0x3e3a00a6	0.1816431
17	0x3dbb389c	0.09141657
18	0x3dd66417	0.104683094
19	0x3ddf46f0	0.10902202
20	0x3dd2eca3	0.10299041
21	0x3df3b8e9	0.11900503
22	0x3dc82f86	0.097746894
23	0x3e3a6c8a	0.18205467
24	0x3e075432	0.13215712
25	0x3e5632af	0.20917772
26	0x3e19ae4c	0.15007895
27	0x3e8710b0	0.2637992
28	0x3dcae54e	0.09907018
29	0x3e1e74a4	0.15474182
30	0x3e17c1d4	0.14820033
31	0x3da84848	0.082169116

residual_layers.0.conv2.weight f4 [32, 32, 3]
0	0xbdb64126	-0.08899145
1	0x3c89544b	0.016763827
2	0x3b915a0a	0.0044357823
3	0xbc07f97c	-0.008299228
4	0xbc20e912	-0.009821193
5	0xbdc04c08	-0.09389502
6	0xbdb45171	-0.08804596
7	0xbdc31fd4	-0.09527555
8	0xbd8bce60	-0.06826472
9	0x3dabd19a	0.08389588
10	0x3dd5d17e	0.10440348
11	0xbd69a5be	-0.05704283
12	0xbcfa912a	-0.030586798
13	0xbd1d38ce	-0.03838425
14	0x3d16eae0	0.036845088
15	0xbd253a01	-0.04033852
16	0xbd4986f5	-0.04920097
17	0xbddad28f	-0.10684692
18	0xbd19b93b	-0.037530165
19	0xbdaeeb97	-0.08541029
20	0xbd870c67	-0.065941624
21	0xbd4ae64f	-0.049536046
22	0x3c346264	0.011009786
23	0x3caab2cb	0.020837208
24	0xbd9b1581	-0.07572461
25	0x3cb1b369	0.021691995
26	0xbd142d08	-0.036175758
27	0xbd941245	-0.07230047
28	0x3d222640	0.03958726
29	0xbbf9bbc5	-0.007621261
30	0x3d44e74d	0.048072148
31	0x3d1be73d	0.038062323
32	0x3d980814	0.07423416
33	0x3ddd521f	0.10806679
34	0xbd321079	-0.04347274
35	0x3d692592	0.056920595
36	0x3d4ec012	0.05047614
37	0x3d6f59d8	0.05843529
38	0x3d818218	0.063236415
39	0x3d060409	0.032718692
40	0xbca76d04	-0.020437725
41	0x3db14046	0.08654837
42	0x3c303a0a	0.010756025
43	0xbcae3d3e	-0.021269437
44	0xbcf725f5	-0.030169467
45	0xbcc8efe6	-0.024528455
46	0x3d0be0f7	0.03415009
47	0x3cad7946	0.021175992
48	0xbc87a907	-0.01656009
49	0xbdc660f9	-0.09686465
50	0xbdcb8019	-0.09936542
51	0xbca2f229	-0.019890862
52	0xbd00080f	-0.031257685
53	0x3db25386	0.08707337
54	0x3d6fe165	0.058564562
55	0x3d692209	0.056917224
56	0x3dbe4e7a	0.09292312
57	0xbd9aa4ae	-0.075509414
58	0x3db2ab65	0.08724097
59	0xbe04759b	-0.12935488
60	0xbd9b3d28	-0.07580024
61	0xbd3c41fb	-0.04596136
62	0xbc2f6915	-0.010706206
63	0x3ce5ab7f	0.028035877
64	0xbc9f46e9	-0.019442992
65	0x3d2acfce	0.041702084
66	0x3d98bcf3	0.07457914
67	0x3c09f4f7	0.008420221
68	0xbd8f034b	-0.0698305
69	0x3bc95f1d	0.0061453716
70	0xbbebbe0e	-0.007194287
71	0x3d87489c	0.06605646
72	0xbbb4a601	-0.0055129533
73	0x3c1c5a07	0.009542949
74	0xbc910b74	-0.017705657
75	0x3c884fb8	0.016639575
76	0x3da16a3f	0.07881593
77	0x3cdcce25	0.026953766
78	0xbcf04062	-0.029327575
79	0xbdcee05b	-0.10101386
80	0xbd8086ab	-0.06275686
81	0x3b2272c7	0.002478765
82	0xbdc5574e	-0.09635793
83	0x3d47cf81	0.048781876
84	0xbd71c152	-0.059022255
85	0xbdd0ce9d	-0.10195658
86	0x3d175638	0.03694746
87	0xbd78f437	-0.060779776
88	0xbd76f952	-0.060296364
89	0xbd77cecf	-0.060499962
90	0x3cb99131	0.02265224
91	0x3da003d3	0.078132294
92	0x3bb453c6	0.0055031506
93	0xbd93eb19	-0.07222576
94	0xbd865f39	-0.06561131
95	0x3d8e9648	0.069622576
96	0xbd279700	-0.04091549
97	0x3d1058e2	0.035241015
98	0xbd729c09	-0.059230838
99	0xbdca022c	-0.098636955
100	0x3d890eea	0.06692298
101	0x3cc6d19b	0.02426987
102	0x3dcc944c	0.09989223
103	0x3dc483c4	0.09595445
104	0x3d65764f	0.05602103
105	0xbd8f8af5	-0.07008926
106	0xbb2ff6fc	-0.0026850095
107	0xbcfdd788	-0.030986562
108	0x3c5d02c2	0.013489427
109	0xbdc92abb	-0.09822603
110	0xbd1a7989	-0.03771356
111	0x3cc978f7	0.024593813
112	0xbd9ecfd5	-0.077544846
113	0xbd060168	-0.032716185
114	0x3aaee3c4	0.0013343026
115	0x3d1b698a	0.037942447
116	0x3c9ea671	0.019366475
117	0x3ce91aa4	0.028455086
118	0x3d573818	0.05254373
119	0xbdad276b	-0.08454784
120	0x3da2633c	0.07929084
121	0xbbf03184	-0.0073301215
122	0xbcb5ada5	-0.022177527
123	0x3af259f5	0.0018489944
124	0xbb8f47e3	-0.0043725832
125	0xbd91a891	-0.071122296
126	0xbd50f41c	-0.05101405
127	0x3d199e68	0.037504584
128	0xbd3bddc3	-0.045865785
129	0x3d2d90db	0.042374473
130	0xbcaa91ed	-0.020821536
131	0xbb8761fd	-0.004131554
132	0x3da35c9c	0.07976648
133	0xbc1e7a2a	-0.009672681
134	0xbdacd97a	-0.08439918
135	0x3ce62aae	0.028096523
136	0xbdd1c47e	-0.10242556
137	0x3da92d9d	0.08260653
138	0xbdbab25c	-0.091160506
139	0x3dc19304	0.09451869
140	0xbd1e0c3f	-0.038585898
141	0x3d2becf8	0.041974038
142	0x3d0fc22f	0.035097297
143	0xbd3479de	-0.044061534
144	0xbdb633ef	-0.08896624
145	0xbd905018	-0.07046527
146	0xbd27631a	-0.040865995
147	0x3d410ab5	0.04712935
148	0xbd29dbdc	-0.04146944
149	0x3d094d4c	0.03352098
150	0x3d99138f	0.07474434
151	0x3c64300e	0.013927473
152	0x3d81f471	0.063454516
153	0x3cec53a3	0.028848475
154	0xbd8f33c4	-0.069922954
155	0xbcfe22db	-0.03102248
156	0x3dc737b7	0.09727424
157	0xbcf6cb14	-0.030126132
158	0x3d0b564a	0.03401784
159	0xbbb4e1a4	-0.0055200625
160	0xbdcecbb6	-0.100974485
161	0x3db906cf	0.09034502
162	0xbd3e1bfd	-0.04641341
163	0x3d83dbf2	0.064384356
164	0xbdaf0a20	-0.08546853
165	0x3d92ad0f	0.071619146
166	0x3cd88956	0.026432674
167	0x3cf834f1	0.030298682
168	0xbdb965d3	-0.090526246
169	0xbd5c654a	-0.053807534
170	0x3cf81b64	0.030286498
171	0xbd8eadd3	-0.06966748
172	0xbceaffaa	-0.028686363
173	0x3d8b9f6c	0.06817517
174	0xbd064ebc	-0.03278993
175	0x3cf0dbe4	0.029401727
176	0xbce3472c	-0.027743898
177	0xbd90328d	-0.07040892
178	0xbb0aa2cb	-0.002115416
179	0xbd8c8139	-0.06860585
180	0x3def249e	0.11676906
181	0x3d442c90	0.04789406
182	0x3dc284aa	0.0949796
183	0x3def1a93	0.116749905
184	0x3b9c6282	0.0047724852
185	0x3b1a5a86	0.0023552491
186	0x3d32e099	0.043671224
187	0xbd65582b	-0.055992287
188	0x3db76f16	0.08956735
189	0xbc820a21	-0.01587397
190	0x3dc5bee2	0.09655549
191	0xbdd6bca2	-0.104851976
192	0xbd2e1cd0	-0.042507946
193	0x3dceab0d	0.10091219
194	0xbe09feb3	-0.13476066
195	0x3dc52832	0.09626807
196	0xbcf82e50	-0.030295521
197	0x3dc06b78	0.09395498
198	0x3dc78649	0.0974241
199	0x3d9f6415	0.07782761
200	0x3da61fed	0.08111558
201	0xbd3f1e5b	-0.04665981
202	0xbdee785e	-0.11644052
203	0xbb935540	-0.0044962466
204	0x3db4d646	0.08829932
205	0x3d924d25	0.071436204
206	0xbd7da595	-0.06192549
207	0xbba5d79c	-0.005061103
208	0xbdd97196	-0.10617368
209	0x3d5093d8	0.050922245
210	0xbd97aeb1	-0.074063666
211	0x3d731d70	0.059354246
212	0xbd1a6c18	-0.037700742
213	0x3dae5365	0.08512
214	0xbdbe408c	-0.09289655
215	0xbd20f175	-0.03929277
216	0x3cb288b4	0.0217937
217	0x3b907d32	0.0044094557
218	0x3b71aa9b	0.003687537
219	0xbde7fc1a	-0.113273814
220	0x3d620979	0.055184815
221	0x3c3c5cd3	0.01149674
222	0xbdc2c2ce	-0.09509812
223	0xb9cd8780	-0.00039201602
224	0x3d0540f8	0.032532662
225	0x3cc21d75	0.023695687
226	0x3db56b27	0.08858328
227	0x3d35257b	0.044225197
228	0x3dc00a07	0.093769126
229	0xbccb6b86	-0.024831545
230	0x3ceab759	0.02865188
231	0xbd1a9712	-0.037741728
232	0x3d1afbed	0.03783791
233	0xbd341fa3	-0.043975484
234	0x3d725fcd	0.059173394
235	0xbd41551b	-0.047200304
236	0xbd9d3cf1	-0.07677639
237	0xbd9730cf	-0.073823564
238	0xbc1012a8	-0.0087935105
239	0x3d944b03	0.0724087
240	0x3d4b95c7	0.049703386
241	0x3b3dc012	0.0028953594
242	0xbd36921c	-0.044572935
243	0x3d87eaa0	0.06636548
244	0x3dbf3394	0.093360096
245	0x3d2e416d	0.042542864
246	0xbd48a328	-0.048983723
247	0xbc3593ac	-0.011082571
248	0x3d9e7a3d	0.07738159
249	0x3d1d2132	0.038361736
250	0x3d1f5a80	0.038904667
251	0xbdd90d06	-0.10598187
252	0x3ca0d9e3	0.019635146
253	0xbdac2f73	-0.08407488
254	0xbda3097b	-0.07960793
255	0x3cf68595	0.030092994

residual_layers.0.conv2.bias f4 [32]
0	0x3d0e17d6	0.0346907
1	0xbcc4f714	-0.024043597
2	0xbc928e8e	-0.017890241
3	0xbd271ac4	-0.04079701
4	0xbbbb0121	-0.0057069217
5	0xbd560f83	-0.052260887
6	0x3d9ea023	0.077453874
7	0x3daa21bc	0.083072156
8	0x3d0dd174	0.03462358
9	0x3c8a41cd	0.01687708
10	0x3bca31dd	0.006170495
11	0x3d9a4dd2	0.07534374
12	0xbd23da00	-0.040002823
13	0xbc5b2546	-0.013375586
14	0x3dc51449	0.0962301
15	0x3dbac7f9	0.09120173
16	0xbcb8a016	-0.022537272
17	0xbd913dbb	-0.07091852
18	0xbd0347e3	-0.03205098
19	0xbdcbfb78	-0.09960073
20	0xbd307fa1	-0.043090466
21	0x3d1e8288	0.038698703
22	0x3d2789b6	0.040902816
23	0xbbff97b1	-0.0078000654
24	0xbd3778e5	-0.04479303
25	0xbd90c145	-0.07068113
26	0x3d365965	0.044518847
27	0xbcab4d70	-0.020910949
28	0x3c883dca	0.016631026
29	0xbdaef573	-0.085429095
30	0xbd8f1606	-0.069866225
31	0x3c4dbc4f	0.012557103

residual_layers.0.bn2.weight f4 [32]
0	0x3f71dbbb	0.9447591
1	0x3f76a3b2	0.9634353
2	0x3f7e73a4	0.99395204
3	0x3f776684	0.966408
4	0x3f7d1d68	0.98872995
5	0x3f771dea	0.9653002
6	0x3f76c9fa	0.9640194
7	0x3f7daa63	0.99088115
8	0x3f75a7d1	0.9595919
9	0x3f76140c	0.9612434
10	0x3f7a78f1	0.9784079
11	0x3f81f686	1.0153358
12	0x3f79a8e7	0.9752335
13	0x3f7cb67f	0.98715967
14	0x3f799516	0.9749311
15	0x3f7d7fd7	0.99023193
16	0x3f7db492	0.99103653
17	0x3f7c8124	0.9863455
18	0x3f7d588d	0.9896324
19	0x3f7b5a5e	0.98184764
20	0x3f774a51	0.9659777
21	0x3f803f4e	1.0019319
22	0x3f8064b9	1.0030738
23	0x3f7ec0eb	0.9951312
24	0x3f7896ad	0.97104913
25	0x3f7a81c1	0.9785424
26	0x3f79d771	0.9759436
27	0x3f7cef1e	0.98802364
28	0x3f760664	0.961035
29	0x3f81eb46	1.0149925
30	0x3f7c369f	0.98520845
31	0x3f79fdca	0.97652876

residual_layers.0.bn2.bias f4 [32]
0	0x3d0048d9	0.031319473
1	0x3cbae85b	0.022815874
2	0x3bae4c2d	0.0053191395
3	0xbd6f034f	-0.058352765
4	0x3cb14b2f	0.021642296
5	0xbcc3b448	-0.023889676
6	0xbd3bd407	-0.045856502
7	0x3be359e0	0.006938204
8	0xbbe608d9	-0.0070200977
9	0xba8bd376	-0.0010667879
10	0xbc9e862a	-0.019351084
11	0xbc331d7d	-0.0109323235
12	0x398ec204	0.00027228903
13	0x3c8a8f62	0.016914073
14	0x3aa9c42f	0.0012952144
15	0x3ab5c951	0.0013869201
16	0x3c6a9a45	0.014319007
17	0x3c88ff33	0.016723251
18	0xbaa2e9ad	-0.001242926
19	0xbc333816	-0.010938665
20	0xbc3cec75	-0.011530985
21	0x3c83c27f	0.016083954
22	0xbbdf666d	-0.00681763
23	0x3c0d0945	0.008608167
24	0xbc208497	-0.009797237
25	0xba3e4393	-0.0007257994
26	0xbba941f2	-0.005165332
27	0xbc8c08c1	-0.017094018
28	0xbd081338	-0.033221453
29	0x3bc6f9bc	0.006072251
30	0x3c88efad	0.016715849
31	0xbc2be18d	-0.010490787

residual_layers.0.bn2.running_mean f4 [32]
0	0xbe91360e	-0.28361553
1	0xbc8c7d91	-0.017149718
2	0x3d246463	0.0401348
3	0x3de98e24	0.11404064
4	0xbdc864e0	-0.097848654
5	0xbd15ffae	-0.03662079
6	0xbeaf8a0a	-0.34285003
7	0x3b3575c7	0.002768861
8	0xbf0af8e3	-0.5428602
9	0x3eed5164	0.4635116
10	0xbe900054	-0.2812525
11	0xbd129ef3	-0.035796117
12	0xbe342317	-0.1759151
13	0x3e2cf6b1	0.1689098
14	0xbda62220	-0.081119776
15	0x3e95cdef	0.29258677
16	0xbedadec9	-0.42748097
17	0xbe559ad8	-0.2085985
18	0xbf61f36f	-0.88262075
19	0x3ee2db94	0.4430815
20	0x3e603c84	0.21898085
21	0x3e98d1c7	0.29847547
22	0xbdda0b2f	-0.10646664
23	0x3e603eaa	0.21898904
24	0x3e9d94ef	0.3077769
25	0x3ea1be74	0.31590617
26	0x3d1531e1	0.03642452
27	0xbe0a6e4e	-0.1351864
28	0x3eb8e4f1	0.36112168
29	0xbe846da7	-0.25864908
30	0xbe5aef95	-0.21380456
31	0x3c756ad3	0.014979082

residual_layers.0.bn2.running_var f4 [32]
0	0x3deb22e6	0.11481266
1	0x3dbd35ad	0.092387535
2	0x3de378e0	0.111070395
3	0x3e0d950a	0.13826385
4	0x3e026f55	0.12737782
5	0x3e3fa507	0.18715297
6	0x3e0f76e5	0.14010198
7	0x3e0ef380	0.13960075
8	0x3e071d85	0.13194855
9	0x3df60977	0.12013524
10	0x3df9a198	0.12189025
11	0x3e0772a5	0.13227327
12	0x3e0f061b	0.13967173
13	0x3e474f5d	0.19463868
14	0x3e301bcf	0.17198108
15	0x3e597aa4	0.2123819
16	0x3e30e5d8	0.17275178
17	0x3e14ffe9	0.14550747
18	0x3e394579	0.18092908
19	0x3e184a9b	0.1487221
20	0x3e08783a	0.13327113
21	0x3e353344	0.17695338
22	0x3dda1aa3	0.10649612
23	0x3e1cfcc9	0.15330805
24	0x3e254b6f	0.16142057
25	0x3e4d0b8e	0.20023939
26	0x3e066a4e	0.1312649
27	0x3e4b01ef	0.19824956
28	0x3de95ef2	0.113950625
29	0x3e368669	0.17824711
30	0x3de5b584	0.11216262
31	0x3e1ae06e	0.15124676

residual_layers.1.conv1.weight f4 [32, 32, 3]
0	0x3d1e0816	0.03858193
1	0xbd3176a6	-0.043326043
2	0xbd2abb77	-0.041682687
3	0xbc86d4f6	-0.01645897
4	0xbd9f0660	-0.07764888
5	0xbd4637bb	-0.048392992
6	0xbddd77f3	-0.10813894
7	0xbdbfa658	-0.093578994
8	0xba7d5659	-0.0009664051
9	0x3d0800c3	0.03320385
10	0xbd961fe7	-0.07330304
11	0x3cfd26bf	0.030902265
12	0xbd353e07	-0.044248607
13	0x3c4b949f	0.012425571
14	0xbb8b6c5e	-0.0042548617
15	0xbd973cc2	-0.073846355
16	0xbd674daa	-0.05647055
17	0x39f5f9ff	0.00046916303
18	0xbb75eebf	-0.0037526337
19	0xbd1a8a98	-0.03772983
20	0xbd122c5d	-0.03568684
21	0x3d39228b	0.04519896
22	0xbdab8377	-0.08374684
23	0x3dba205d	0.09088204
24	0xbdc29e89	-0.095028944
25	0xbddf18d8	-0.108934104
26	0x3cd96b8c	0.02654054
27	0x3db59489	0.088662215
28	0xbdbb1345	-0.09134535
29	0x3ba0fb89	0.004912798
30	0x3d2df5c9	0.042470727
31	0x3d4f2ccd	0.050579835
32	0xbdca8fb3	-0.0989069
33	0xbd28577e	-0.041099064
34	0x3da84f09	0.082182
35	0xbb50ecb4	-0.0031879367
36	0x3dd1cc97	0.102441005
37	0x3d2b0041	0.04174829
38	0xbd916bd8	-0.07100648
39	0x3cbf4c1b	0.02335172
40	0xbd85a1e1	-0.065250166
41	0x3cf90827	0.030399395
42	0x3dc3d612	0.09562315
43	0xbd2b5e4f	-0.041837987
44	0x3bb454ea	0.0055032866
45	0x3bcd8eda	0.0062731327
46	0x3d017fd6	0.031616054
47	0xbd662b16	-0.056193434
48	0xbce27286	-0.0276425
49	0xbdf044ff	-0.1173191
50	0x3dc57cc8	0.09642941
51	0xbc20a0c3	-0.009803954
52	0x3c26f53c	0.010190304
53	0xbd6d164e	-0.0578826
54	0x3d6384cc	0.055546567
55	0x3b4a75bb	0.0030892927
56	0x3c31f6e2	0.010862084
57	0x3d9e8332	0.07739867
58	0x3d6b69af	0.057473835
59	0x3c939376	0.01801465
60	0xbdc3968f	-0.09550201
61	0x3cd0e28b	0.02549865
62	0x3d9937b3	0.07481327
63	0xbd986255	-0.0744063
64	0x3d0f231b	0.03494559
65	0x3d99705f	0.07492136
66	0x3c9e109e	0.019295033
67	0x3d0c5139	0.034257147
68	0x3d3a42a6	0.045473717
69	0x3d85bed2	0.06530537
70	0x3dabedc3	0.08394959
71	0xbd059758	-0.032615036
72	0xbc9cbe4d	-0.019133711
73	0xba19fda2	-0.0005874281
74	0xbda2b68f	-0.079449765
75	0x3dd0b490	0.101906896
76	0x3d91496c	0.07094082
77	0xbc3e1422	-0.01160148
78	0xbbfa1a00	-0.007632494
79	0x3de4bda4	0.111689836
80	0xbd40ce47	-0.04707172
81	0xbdbb1238	-0.09134334
82	0x3dc036d3	0.09385457
83	0xbda452d3	-0.0802361
84	0x3d9e4cac	0.07729468
85	0x3c93ad2a	0.018026907
86	0xbc6f4cfa	-0.014605755
87	0xbcba5077	-0.022743447
88	0x3dd646ed	0.10462747
89	0x3b8b1a59	0.0042450842
90	0x3d8b386d	0.06797872
91	0xbbb0072d	-0.005371949
92	0xbd22d5f7	-0.039754834
93	0x3cf47aa1	0.02984363
94	0xbd678505	-0.05652334
95	0x3d9261a1	0.071475275
96	0x3da709a5	0.081561364
97	0x3d00a399	0.03140602
98	0xbcc090b5	-0.023506502
99	0xbbfe1e91	-0.0077551086
100	0x3dc8f9bc	0.09813258
101	0xbbb871e2	-0.0056288103
102	0x3dc1ce0b	0.09463128
103	0x3dc16ec8	0.09444958
104	0x3d547463	0.051868808
105	0xbd241eb8	-0.04006836
106	0xbd223b02	-0.039607055
107	0x3d3ba735	0.045813758
108	0xbd079241	-0.033098463
109	0x3d9f1d1d	0.07769225
110	0xbd6cd100	-0.057816505
111	0xbc3f6718	-0.011682294
112	0xbdafc7c1	-0.08583022
113	0xbdb700ca	-0.089356974
114	0x3cbdc44f	0.023164896
115	0x3bca8845	0.0061807954
116	0x3b9a3dbd	0.004707067
117	0xbd4de4ec	-0.050267145
118	0x3c7e911f	0.015537529
119	0x3bcf3f17	0.0063246596
120	0xbd0c5307	-0.03425887
121	0x3d819e56	0.06329028
122	0xbdcb2331	-0.099188216
123	0x3db9d544	0.0907388
124	0x3dc05ca0	0.09392667
125	0xbdb0aa05	-0.08626179
126	0x3d6e0051	0.05810577
127	0xbd3a6df4	-0.045515016
128	0xbd751e4b	-0.059843343
129	0x3c145ac2	0.0090548415
130	0x3d94de08	0.072689116
131	0xbd2da2ba	-0.042391516
132	0xbd57cd79	-0.05268619
133	0xbd4abc28	-0.049495846
134	0x3d16dd5e	0.036832206
135	0xbddc5623	-0.10758617
136	0xbd2c1669	-0.04201356
137	0x3dd75c4f	0.10515653
138	0xbd0fee2c	-0.035139248
139	0xbd874698	-0.066052616
140	0x3d07ef89	0.033187423
141	0x3dbeb452	0.09311737
142	0xbd2f7c5e	-0.042843215
143	0x3da9462a	0.08265336
144	0x3dc6582b	0.096847855
145	0x3d9348f3	0.07191648
146	0x3dd24e9c	0.102689
147	0xbd9c1795	-0.076216854
148	0x3b4a3553	0.0030854538
149	0xbd7d2c5d	-0.061809886
150	0xbd9f438c	-0.077765554
151	0x3df2e1be	0.11859463
152	0x3d22ad2f	0.039715942
153	0x3d9e3821	0.077255495
154	0x3b1410f3	0.002259311
155	0x3d7e8c40	0.06214547
156	0xbbb5c55b	-0.0055472082
157	0xbdf902c6	-0.12158732
158	0xbdc681da	-0.09692736
159	0xbd9b7df3	-0.07592382
160	0xbd179678	-0.037008733
161	0xbd39f228	-0.045396954
162	0xbd732f62	-0.05937136
163	0x3d78c280	0.060732365
164	0xbc9a7c5a	-0.018858124
165	0xbc886a6b	-0.016652307
166	0xbda6664d	-0.08124981
167	0xbc8ea23a	-0.01741134
168	0xbd0410aa	-0.032242455
169	0xbdceb0e2	-0.100923315
170	0xbd5f1401	-0.054462437
171	0x3d1acad3	0.037791084
172	0x3da9f472	0.08298577
173	0x3d5fa435	0.05459996
174	0xbda94780	-0.08265591
175	0xbda3c363	-0.079962514
176	0xbd6e20b7	-0.058136668
177	0xbd9f47b6	-0.0777735
178	0x3c72327d	0.014782545
179	0x3ce3ebde	0.027822431
180	0xbce0cb35	-0.027440647
181	0x3daf6693	0.08564486
182	0x3d33e2bb	0.0439174
183	0x3dbd2e7f	0.09237384
184	0x3dcc106a	0.09964068
185	0xbd5f7b39	-0.054560874
186	0x3dde23b9	0.10846657
187	0x3cc722e8	0.024308637
188	0xbc8cbbb5	-0.01717935
189	0x3cba53ef	0.0227451
190	0xbd7bef1b	-0.061507326
191	0xbd4e3830	-0.050346553
192	0xba06dc7a	-0.0005144548
193	0xbd398ad0	-0.045298398
194	0x3d636ae5	0.055521864
195	0xbdc01f86	-0.093810126
196	0xbd026d6c	-0.031842634
197	0x3c807783	0.015681988
198	0x3d65df95	0.056121428
199	0xbd860783	-0.065444015
200	0xbd931897	-0.071824245
201	0x3c49f6f4	0.012326945
202	0xbc4a95e1	-0.0123648355
203	0xbdd55d5c	-0.104181975
204	0xbd871e07	-0.06597524
205	0xbdb0a024	-0.086242944
206	0x3bd69c0a	0.006549363
207	0xbbb90a16	-0.0056469543
208	0xbb353b25	-0.002765366
209	0xbcc767bf	-0.024341462
210	0x3d2ea1d7	0.04263481
211	0xbd2391f1	-0.039934102
212	0xbc8f14da	-0.017465997
213	0xbdc1ae05	-0.0945702
214	0x3ca5b50c	0.020227931
215	0xbdba8cba	-0.09108873
216	0xbdba157c	-0.09086129
217	0xbcd4f4b8	-0.025995597
218	0x3dade5cd	0.08491097
219	0xbda3bc07	-0.07994848
220	0xbb33b7ce	-0.0027422789
221	0x3db41635	0.08793298
222	0xbd871f40	-0.06597757
223	0xbd6be9f0	-0.057596147
224	0x3c8fefb5	0.017570356
225	0x3d105bf0	0.03524393
226	0xbc8a6114	-0.016891994
227	0xbd9dd45e	-0.077065215
228	0x3d8f60e2	0.07000901
229	0x3d234e6a	0.039869703
230	0xbc69932a	-0.014256278
231	0xbd2dba1e	-0.042413823
232	0x3ce81c0d	0.028333688
233	0xbc493de4	-0.012282822
234	0x3c9ebeae	0.019378033
235	0xbb63f6a2	-0.0034784456
236	0x3ced17d3	0.028942024
237	0xbc0004cd	-0.007813645
238	0xbd1c74f3	-0.03819747
239	0xbc0bff40	-0.008544743
240	0x3e083487	0.13301288
241	0x3d2a3336	0.041552745
242	0xbd79bc78	-0.060970753
243	0x3c7b722f	0.015347048
244	0xbd436bcc	-0.047710225
245	0x3b0ae8d5	0.0021195908
246	0xbd811647	-0.06303077
247	0xbdca9520	-0.098917246
248	0x3dbcbc9a	0.092156604
249	0xbce4fadb	-0.027951648
250	0x3cccdb60	0.02500695
251	0x3caba360	0.020951927
252	0xbcc1668f	-0.023608474
253	0xbcb7df42	-0.022445325
254	0xbd96407a	-0.07336517
255	0x3d7947ce	0.060859494

residual_layers.1.conv1.bias f4 [32]
0	0xbc84f203	-0.016228681
1	0xbd29b45a	-0.041431762
2	0xbce69e0d	-0.028151536
3	0x3da370a8	0.07980472
4	0x3d45b459	0.048267696
5	0x3d6139c3	0.054986726
6	0xbdc15f70	-0.094420314
7	0xbd286ec4	-0.04112126
8	0x3d300bb5	0.042979915
9	0x3d588a24	0.052866116
10	0xbdb85975	-0.090014376
11	0xbd2a4c99	-0.041576955
12	0x3d27ff84	0.041015163
13	0x3bdd07be	0.0067453077
14	0x3db6428a	0.0889941
15	0x3d09f3ce	0.033679776
16	0x3d7d0206	0.061769508
17	0x3daeffb6	0.08544867
18	0x3d09c3d6	0.03363403
19	0x3d0594f7	0.032612767
20	0x3d9b8ee8	0.075956166
21	0xbd40f05d	-0.04710423
22	0x3d9fa083	0.07794287
23	0x3d6a0bbf	0.05714011
24	0xbda043f5	-0.07825462
25	0x3db09a9d	0.0862324
26	0x3cdc6ed9	0.026908325
27	0xbda9918c	-0.08279714
28	0xbb8e0719	-0.004334342
29	0x3d66031d	0.056155313
30	0xbd86e706	-0.06587033
31	0xbd9a5c38	-0.075371206

residual_layers.1.bn1.weight f4 [32]
0	0x3f80fc10	1.0076923
1	0x3f826a6f	1.0188731
2	0x3f7c55bc	0.9856832
3	0x3f7eced5	0.9953435
4	0x3f808927	1.0041856
5	0x3f8263f2	1.0186751
6	0x3f802d3f	1.0013808
7	0x3f7c394e	0.9852494
8	0x3f7ed435	0.9954255
9	0x3f7acf92	0.9797298
10	0x3f809703	1.0046085
11	0x3f7e8bf1	0.99432284
12	0x3f807882	1.0036776
13	0x3f81dc53	1.0145363
14	0x3f7e8987	0.994286
15	0x3f824ab1	1.0179044
16	0x3f7e5b16	0.99357736
17	0x3f80f14e	1.007364
18	0x3f7f04ce	0.99616706
19	0x3f832463	1.0245479
20	0x3f7e78c7	0.9940304
21	0x3f7f91c0	0.9983177
22	0x3f803e4c	1.0019011
23	0x3f7d2552	0.9888507
24	0x3f80d7c9	1.0065852
25	0x3f810fa8	1.0082903
26	0x3f7fa6b3	0.9986374
27	0x3f8050c2	1.0024645
28	0x3f79c134	0.9756043
29	0x3f80295a	1.001262
30	0x3f77ba87	0.96768993
31	0x3f82b3d6	1.0211132

residual_layers.1.bn1.bias f4 [32]
0	0x3bedf0a0	0.0072613508
1	0xbd306752	-0.043067284
2	0xbc52ce4e	-0.01286657
3	0xbd0129c5	-0.031533975
4	0x3c5fd473	0.013661492
5	0xbb5295a7	-0.0032132657
6	0x3c2abce0	0.010421008
7	0x3c8bc346	0.017060887
8	0x3c9b8282	0.01898313
9	0xbcb1e5d6	-0.02171604
10	0x3d2ad9a8	0.04171148
11	0x3be4bdab	0.006980618
12	0x3d3710ab	0.04469363
13	0xbc69419f	-0.014236837
14	0x3a6e2603	0.00090846437
15	0xbba7e118	-0.005123269
16	0x3aec02ef	0.0018006245
17	0x3cf444e8	0.029818013
18	0xbc3c7594	-0.011502642
19	0xbcdeb7ea	-0.027187306
20	0x3c400ae2	0.011721345
21	0x3cc9532e	0.024575796
22	0xbb860cae	-0.004090867
23	0xbccadacd	-0.024762535
24	0xbc4e2449	-0.012581893
25	0xbc26db6d	-0.010184151
26	0xba5c1a8c	-0.000839629
27	0xbd229801	-0.039695743
28	0xbd0703d6	-0.032962643
29	0x3b58cb06	0.0033079996
30	0x3c60bd1f	0.013716965
31	0xbc94dd9a	-0.018172074

residual_layers.1.bn1.running_mean f4 [32]
0	0xbb10418a	-0.002201172
1	0xbd612b46	-0.05497291
2	0xbebebce6	-0.37253493
3	0xbe87db2a	-0.26534396
4	0xbef24a48	-0.47322297
5	0xbf0df701	-0.55455023
6	0xbf53b065	-0.8269103
7	0x3e3eac39	0.18620385
8	0xbdae5330	-0.085119605
9	0x3f5c554c	0.8606765
10	0xbecc9be7	-0.39962694
11	0xbe3f7594	-0.18697196
12	0x3ee17037	0.44030926
13	0x3d69f511	0.05711848
14	0x3dd009b1	0.101580985
15	0xbe09bdd6	-0.13451323
16	0x3e83a48f	0.25711486
17	0xbe1a5516	-0.1507152
18	0x3c92ec87	0.01793505
19	0x3e1c4eed	0.15264483
20	0x3f208686	0.62705266
21	0x3d5d2abf	0.053995844
22	0x3d92374e	0.07139455
23	0x3f882662	1.0636714
24	0x3ee35525	0.44400898
25	0x3f0b3bbb	0.54388016
26	0x3eced957	0.40400192
27	0x3ebf9f85	0.3742639
28	0xbf808ed9	-1.0043594
29	0xbf01f994	-0.5077145
30	0xbdd5d467	-0.10440903
31	0xbf2fa384	-0.6860888

residual_layers.1.bn1.running_var f4 [32]
0	0x3e5530f4	0.20819455
1	0x3eac49af	0.33649966
2	0x3e0e8af1	0.1392019
3	0x3e51d721	0.20492221
4	0x3e31a3c4	0.17347628
5	0x3e712a59	0.2355131
6	0x3e9c9ea0	0.3058977
7	0x3e98693b	0.29767784
8	0x3e4fcad5	0.20292218
9	0x3e24efd2	0.16107109
10	0x3e33f095	0.17572244
11	0x3e527432	0.20552137
12	0x3e525e31	0.20543744
13	0x3e887ea8	0.2665913
14	0x3e491fda	0.19641057
15	0x3eae49be	0.34040636
16	0x3e8a77d6	0.27044553
17	0x3eaa2a4d	0.33235398
18	0x3e58f314	0.21186477
19	0x3e22f417	0.15913425
20	0x3e5df444	0.21675211
21	0x3ea872c8	0.3290007
22	0x3e78911b	0.24274103
23	0x3e8cefab	0.27526602
24	0x3e97cda5	0.29649082
25	0x3e912e6b	0.28355727
26	0x3ea46aa9	0.32112625
27	0x3e805034	0.2506119
28	0x3e4ce449	0.20008959
29	0x3e70719e	0.23480842
30	0x3e509e09	0.20372786
31	0x3e354df8	0.17705524
