ckpts/SpliceAI_SSD/Pisum_sativum.pth (torch, 556833 bytes, 223 tensors)

conv1.weight f4 [32, 4, 3]
0.22322907 -0.16397299 0.11158617 -0.26744846 0.0030009213 -0.2810476 -0.004067062 0.22534044
0.0039243815 0.109733395 0.07843102 0.052519858 0.090004876 -0.05760563 -0.13550057 -0.100903414
-0.17275517 0.012287802 0.028783808 0.25460327 0.26010668 0.15184537 -0.27574995 0.16841461
0.032368407 -0.07795289 -0.074264675 0.23388523 -0.20161943 -0.24227855 -0.04290785 -0.15072125
-0.2057274 0.26051116 -0.22708786 -0.10164536 0.23797636 0.010559368 0.22932734 0.22568733
0.23285897 -0.08533927 0.07222818 0.120274626 0.27741575 -0.07576 -0.22178394 0.19660395
-0.11406472 -0.11176736 0.15533704 -0.114812486 -0.03380708 0.11004708 -0.10511493 0.26121455
0.056083724 0.22979335 0.16898976 0.26951572 0.25551298 0.2655466 0.06599211 0.2620702
0.0028570073 -0.12059452 -0.038043745 0.05134741 -0.21771081 -0.04822637 0.27094936 0.032043066
-0.06267233 -0.11477247 -0.103571974 0.16033526 0.14025833 0.24899751 -0.23928852 -0.127352
-0.20703898 0.23322049 -0.17978108 -0.1523685 -0.17555934 -0.114694774 0.11133709 0.016786644
0.20561606 -0.13053375 -0.14065887 0.08188576 0.17410275 0.10255028 -0.14531283 -0.23216857
0.019861717 -0.09692265 -0.121763475 0.11158652 0.20415412 0.031414893 0.027499711 -0.20544177
0.28552398 -0.079563394 0.07276819 -0.13564822 0.16937466 0.22411083 0.2138692 -0.12702961
-0.04891582 0.16855541 -0.1354274 -0.1596462 -0.19807799 0.045858093 -0.14328569 -0.084363945
-0.0013570868 -0.23065291 0.20405535 -0.1016796 0.184837 -0.0176261 -0.15262967 -0.18553571
-0.042910635 -0.24657324 -0.06648572 0.11654142 -0.005193484 0.23454809 0.16231494 -0.16158779
0.029036487 -0.03446068 -0.22357665 0.10739411 0.0322368 0.2676963 -0.18510698 0.1035009
-0.18635954 0.2058289 0.24480766 -0.093352795 0.1378337 0.22170208 -0.10510692 0.20227739
0.01773546 -2.477937e-07 0.24380182 -0.26576436 0.22013053 0.20759653 -0.060657002 -0.031902358
-0.2223512 -0.1754097 0.20729193 -0.06821992 -0.09996889 -0.17502587 -0.07842453 -0.1098257
-0.24223906 0.06927136 0.1347976 -0.16876507 0.10618482 -0.08521367 -0.21856636 0.15849853
0.025173225 0.28839022 0.12810779 -0.010245512 0.1611995 0.1487648 0.06568439 -0.14259873
-0.092105895 -0.08990663 0.11040538 0.09817652 -0.18461776 -0.10303239 -0.19252852 0.22137974
-0.27592322 -0.07269462 -0.118375845 -0.16257551 0.1697003 0.23907262 0.24403742 -0.0068921903
-0.12160543 -0.2729258 -0.109331585 0.17443497 0.19254082 0.021858105 -0.23326594 -0.058614127
-0.27547434 0.118811324 0.26386324 -0.09143604 -0.18171434 0.22220868 0.22625065 0.051197827
-0.15369135 -0.15979691 0.05592159 0.18059394 0.2219131 0.212706 0.13724788 0.031589612
0.15923594 0.26239783 0.078685366 0.053173628 -0.26072443 0.14021221 -0.302814 0.1409108
-0.06645739 0.004740573 0.07232821 0.19581105 0.2345191 0.074985445 -0.022389302 0.041677285
0.03902222 -0.123328045 0.047099497 -0.11558022 -0.20054924 0.14468108 -0.062852204 0.06966932
-0.26029095 0.039100163 -0.23747838 0.22367738 -0.1191232 -0.0821055 0.20188278 -0.28417236
00000000: 2996 643e 89e8 27be 4a87 e43d 01ef 88be
00000010: 1bab 443b 79e5 8fbe fd44 85bb a5bf 663e
00000020: 1998 803b e7bb e03d 71a0 a03d 101f 573d
00000030: 7a54 b83d e2f3 6bbd a9c0 0abe 73a6 cebd
00000040: bbe6 30be c752 493c 05cc eb3c 5c5b 823e
00000050: b42c 853e 5a7d 1b3e 192f 8dbe e174 2c3e
00000060: bc94 043d c4a5 9fbd 1418 98bd 9c7f 6f3e
00000070: 5375 4ebe de17 78be 24c0 2fbd ac56 1abe
00000080: 34aa 52be b861 853e b889 68be 712b d0bd
00000090: 13b0 733e 3301 2d3c c9d4 6a3e 941a 673e
000000a0: 9572 6e3e 5bc6 aebd 5eec 933d 8b52 f63d
000000b0: 7009 8e3e 0f28 9bbd 541b 63be 8c52 493e
000000c0: c49a e9bd 49e6 e4bd ac10 1f3e cf22 ebbd
000000d0: 4b79 0abd 5d60 e13d 7f46 d7bd eabd 853e
000000e0: 0cb8 653d f34e 6b3e a70b 2d3e f7fd 893e
000000f0: 99d2 823e b9f5 873e df26 873d 112e 863e
00000100: a13c 3b3b 42fa f6bd c2d3 1bbd a951 523d
00000110: 95ef 5ebe 0489 45bd e0b9 8a3e 973f 033d
00000120: 5a5a 80bd d40d ebbd 8b1d d4bd ed2e 243e
00000130: e19f 0f3e 34f9 7e3e 0d08 75be 9068 02be
00000140: 0702 54be 5ad1 6e3e 8818 38be 7d06 1cbe
00000150: d4c5 33be 18e5 eabd b304 e43d 2584 893c
00000160: 048d 523e a4aa 05be e108 10be b9b3 a73d
00000170: fe47 323e e205 d23d e3cc 14be 99bd 6dbe
00000180: 0ab5 a23c 627f c6bd 215f f9bd 7987 e43d
00000190: c70d 513e e7ac 003d 1347 e13c 545f 52be
000001a0: 3330 923e 22f2 a2bd 7d07 953d 5ee7 0abe
000001b0: 8d70 2d3e 4f7d 653e 8700 5b3e 0d14 02be
000001c0: f45b 48bd ca99 2c3e 7bad 0abe 4b7a 23be
000001d0: f5d4 4abe b2d5 3b3d 7cb9 12be 01c7 acbd
000001e0: 47e0 b1ba 4730 6cbe e3f3 503e 653d d0bd
000001f0: e945 3d3e 9c64 90bc f44a 1cbe 13fd 3dbe
00000200: 10c3 2fbd b27d 7cbe aa29 88bd 45ad ee3d
00000210: 1a2e aabb 602d 703e e335 263e 4577 25be
00000220: eddd ed3c a426 0dbd 47f1 64be 71f1 db3d
00000230: bc0a 043d 7d0f 893e af8c 3dbe 48f8 d33d
00000240: 09d5 3ebe d0c4 523e dcae 7a3e c02f bfbd
00000250: 4724 0d3e df05 633e 4c42 d7bd ce21 4f3e
00000260: f549 913c 8208 85b4 2fa7 793e 4412 88be
00000270: e669 613e 2f94 543e 7a73 78bd 0cac 02bd
00000280: 08b0 63be 9a9e 33be 5644 543e e3b6 8bbd
00000290: 7dbc ccbd fb39 33be 0a9d a0bd 4cec e0bd
000002a0: 840d 78be 25de 8d3d 6208 0a3e c0d0 2cbe
000002b0: 6d77 d93d 8184 aebd dccf 5fbe 704d 223e
000002c0: 1438 ce3c e2a7 933e b02e 033e cbdc 27bc
000002d0: 7b11 253e cd55 183e 8a85 863d 6705 12be
000002e0: 04a2 bcbd f820 b8bd 371c e23d c510 c93d
000002f0: 700c 3dbe a502 d3bd 3226 45be 5fb1 623e
00000300: cf45 8dbe ebe0 94bd 096f f2bd 327a 26be
00000310: eac5 2d3e 74cf 743e f2e4 793e e2d7 e1bb
00000320: 450c f9bd eebc 8bbe 3de9 dfbd 159f 323e
00000330: 6c29 453e c50f b33c 44dd 6ebe 5e15 70bd
00000340: f90a 8dbe 5a53 f33d 1519 873e d242 bbbd
00000350: 5313 3abe ac8a 633e 40ae 673e d0b4 513d
00000360: 4461 1dbe cda1 23be 0a0e 653d 9eed 383e
00000370: 303d 633e 9acf 593e b58a 0c3e 1c64 013d
00000380: bf0e 233e 0259 863e cb25 a13d 97cc 593d
00000390: ac7d 85be ca93 0f3e 700a 9bbe ec4a 103e
000003a0: d01a 88bd cf56 9b3b d020 943d b182 483e
000003b0: c625 703e f891 993d c569 b7bc cdb5 2a3d
000003c0: c3d5 1f3d 6a93 fcbd 67eb 403d 53b5 ecbd
000003d0: c85c 4dbe 4727 143e a8b8 80bd caae 8e3d
000003e0: db44 85be 7e27 203d 882d 73be af0b 653e
000003f0: ddf6 f3bd ee26 a8bd 5cba 4e3e 0a7f 91be

conv1.bias f4 [32]
0.057390947 0.21096678 0.15666886 -1.618653e-05 0.288686 -0.22401953 -0.017684607 -0.11620048
-0.23142394 0.08720124 0.25063482 -0.15934743 -0.005004644 -0.081256114 0.12595068 0.22672637
-0.113622025 -0.14932549 -0.23114501 -0.048796535 -0.034294624 -0.07178989 -0.029749563 -0.17835519
-0.124264464 0.040348753 0.101641715 0.008702755 -0.20421888 -0.26455417 0.05395339 0.094606
00000000: c512 6b3d ad07 583e cd6d 203e 4fc8 87b7
00000010: a7ce 933e 6065 65be 4fdf 90bc 84fa edbd
00000020: 66fa 6cbe 9096 b23d 3553 803e f92b 23be
00000030: fffd a3bb 9b69 a6bd 37f9 003e f52a 683e
00000040: aab2 e8bd c8e8 18be 47b1 6cbe e0de 47bd
00000050: 8578 0cbd 9406 93bd 5bb5 f3bc bea2 36be
00000060: 5e7e febd bc44 253d 8829 d03d 0096 0e3c
00000070: c11e 51be a573 87be 3bfe 5c3d cac0 c13d

bn.weight f4 [32]
0.9908992 0.99655735 0.9972931 1.0019922 0.98961014 1.0062649 0.99300194 1.0070809
0.99201477 0.99475986 1.0019926 1.0104738 0.9968491 1.0028172 0.99345917 1.0101289
1.0008476 0.99673903 1.0028925 0.99028295 1.0090315 0.99868834 0.998057 0.9992668
1.0032173 1.0017323 0.992596 0.9887314 1.0044852 0.9935468 0.99576014 1.0026568
00000000: 92ab 7d3f 621e 7f3f 9a4e 7f3f 4841 803f
00000010: 1757 7d3f 4acd 803f 6035 7e3f 07e8 803f
00000020: aef4 7d3f 95a8 7e3f 4b41 803f 3557 813f
00000030: 8131 7f3f 505c 803f 5753 7e3f e74b 813f
00000040: c61b 803f 4a2a 7f3f c85e 803f 2f83 7d3f
00000050: f227 813f 0aaa 7f3f aa80 7f3f f3cf 7f3f
00000060: 6d69 803f c438 803f c51a 7e3f 801d 7d3f
00000070: f992 803f 1559 7e3f 23ea 7e3f 0f57 803f

bn.bias f4 [32]
0.006605532 0.002529889 0.0031847327 -0.0028859235 0.0009645282 -0.009376255 0.0098692095 0.0006382714
-0.0054543633 -0.009699052 -0.0006147897 -0.006940977 0.00010650548 -0.007300524 -0.002267425 -0.0062574944
-0.00081119104 0.0050654635 0.008804792 -0.00093472225 0.013043993 -0.0028853018 0.009412497 0.008852928
-0.0059055192 -0.012595374 -0.004977138 0.0011618843 -0.0018061862 0.0062909517 0.0024001105 0.0076178913
00000000: 3873 d83b 7fcc 253b f3b6 503b c321 3dbb
00000010: 64d8 7c3a dd9e 19bc 77b2 213c ab51 273a
00000020: 84ba b2bb c6e8 1ebc d729 21ba 2371 e3bb
00000030: b25b df38 3c39 efbb 1499 14bb ab0b cdbb
00000040: 1ca6 54ba 30fc a53b f941 103c 2608 75ba
00000050: 79b6 553c 5517 3dbb e036 1a3c df0b 113c
00000060: 1683 c1bb d45c 4ebc 4217 a3bb 5e4a 983a
00000070: 8dbd ecba 5424 ce3b 2c4b 1d3b 819f f93b

bn.running_mean f4 [32]
0.13588886 0.23790178 -0.007845084 0.26659122 0.5120229 0.04186657 -0.14387408 -0.22922431
-0.2653156 0.14315186 0.12484245 -0.013157751 0.1394802 -0.14633943 0.21441257 0.27406925
-0.27268413 -0.03143573 -0.0266878 -0.058998924 -0.11021925 -0.11480991 -0.0530625 -0.1671595
-0.16542514 0.13931713 0.12809122 0.05525672 0.045462575 -0.32671818 0.104451746 0.15052588
00000000: 7326 0b3e 869c 733e ab88 00bc a57e 883e
00000010: ef13 033f 487c 2b3d ba53 13be c7b9 6abe
00000020: 72d7 87be 6796 123e 66ad ff3d 9c93 57bc
00000030: e6d3 0e3e 01da 15be f88e 5b3e ce52 8c3e
00000040: 419d 8bbe c1c2 00bd 60a0 dabc dba8 71bd
00000050: a1ba e1bd 7521 ebbd 1058 59bd dc2b 2bbe
00000060: 3565 29be 26a9 0e3e 582a 033e df54 623d
00000070: f736 3a3d 9b47 a7be ccea d53d 7523 1a3e

bn.running_var f4 [32]
0.06945306 0.06351142 0.023196282 0.061456516 0.059067484 0.048871383 0.07031246 0.06100976
0.045535494 0.07279873 0.040239863 0.067264736 0.054493345 0.0635363 0.06427969 0.06313309
0.0697968 0.065547094 0.057541043 0.0750383 0.041214578 0.038108468 0.05655532 0.06650929
0.051199984 0.088897556 0.086664304 0.037422936 0.089849815 0.062367592 0.0635922 0.067430474
00000000: 683d 8e3d 4612 823d 2106 be3c d4b9 7b3d
00000010: bff0 713d 5c2d 483d fbff 8f3d 5fe5 793d
00000020: 6d83 3a3d 8017 953d 8ed2 243d 18c2 893d
00000030: 6a34 5f3d 521f 823d 12a5 833d ec4b 813d
00000040: a0f1 8e3d 8e3d 863d 28b0 6b3d aead 993d
00000050: 9ed0 283d a017 1c3d 8da6 673d 0636 883d
00000060: 13b7 513d ec0f b63d 0e7d b13d cb48 193d
00000070: 2e03 b83d 2975 7f3d a13c 823d fd18 8a3d

residual_layers.0.conv1.weight f4 [32, 32, 3]
-0.070498414 0.026534071 -0.07136595 0.028035179 -0.0747167 -0.056658927 0.011109824 -0.05409179
0.058982376 0.0035736074 0.093864575 0.07824257 -0.069261305 0.06205139 0.09110746 -0.033278145
-0.017714653 -0.0068542934 -0.004698473 0.089466535 0.0011864011 -0.010021844 -0.048760872 -0.03565376
0.027983297 -0.028847964 -0.055605374 0.089788064 0.07412995 0.05007796 -0.021362426 0.10146344
-0.017285213 0.101138055 -0.07382295 0.09182051 0.121053316 -0.00072040927 -0.09423085 -0.0026186437
0.011064196 -0.039915968 -0.08696747 -0.007516062 -0.07743664 0.07241129 -0.057602774 0.07858014
-0.025752177 0.013664097 -0.00942352 0.027883798 -0.04087295 0.06383329 0.06360798 -0.09984878
0.04915763 0.01773469 0.016916815 0.07220171 0.032861233 -0.06552094 -0.046950508 -0.09539663
0.03242874 -0.038185295 -0.06344234 0.09764782 -0.041451134 0.056806605 0.06246607 -0.10240141
0.052467078 0.023778688 -0.08130227 0.04682168 0.07075604 0.090402156 -0.046381578 -0.040170904
0.023661511 -0.04362012 -0.04840514 -0.05196128 -0.01282498 -0.076382115 -0.08197293 -0.10501532
-0.07809094 0.005765519 -0.102511086 -0.015282921 0.022182047 -0.08809768 0.024608325 0.022988794
-0.025828497 -0.036353778 -0.029683154 0.0030558663 -0.06447671 0.017404065 0.054111615 0.018057449
0.0027697727 -0.06633361 -0.114132024 0.059555694 0.061478328 -0.070410155 -0.007895935 -0.012537532
0.037365697 -0.08552339 -0.039692987 -0.06343386 0.06839273 0.016679501 -0.050127517 -0.05565665
-0.10217303 -0.0325659 0.00045973225 -0.041239105 0.09404062 0.0049571805 0.09410225 -0.042077735
-0.09003972 -0.054022145 0.086327024 -0.07889656 -0.023504827 0.047007285 0.08111272 0.0294487
-0.013778668 -0.005658157 -0.05855306 0.054714438 0.030631587 0.046723284 0.015866425 -0.083928436
-0.0053575053 0.00021915806 0.014181762 0.028901324 0.023924604 0.03362337 0.09176384 -0.008482321
-0.069419935 0.08714295 -0.0056335977 0.049080156 0.042017967 0.054195467 0.04905048 0.04353424
-0.018554416 -0.049204905 0.08069136 0.0891783 -0.0936599 0.024362769 0.053764015 0.035923693
-0.10665353 0.08953637 -0.025250014 0.020831117 -0.079405986 -0.01497792 0.064252086 -0.022382779
-0.095259294 0.08049604 0.051574267 -0.057327885 0.05765802 0.026420694 0.06481524 0.021289723
0.023886185 0.034234416 -0.09984384 -0.015229264 0.036213238 -0.04271549 0.09119375 -0.00345251
0.0006443415 0.030794377 0.012013909 -0.045213636 0.06621443 -0.05721756 -0.08199635 0.04895048
0.031252597 0.08514448 0.06414946 0.0059645725 0.07925918 -0.07136705 0.076508395 -0.1089248
0.035540026 0.047375787 -0.010994262 0.087922744 -0.003358275 0.07224849 -0.09180774 0.08762623
0.079745494 0.058217306 -0.079674356 0.02662981 0.026008097 -0.07571556 -0.047768172 0.052286536
-0.06751064 -0.08890562 0.013614345 0.007905233 -0.023975374 -0.06899468 -0.07777577 0.01732686
-0.10910141 0.06613973 -0.077333994 -0.050434705 0.08711511 -0.08957726 0.05944942 -0.064260535
-0.048219685 -0.037941553 0.09330195 0.07330559 -0.09699413 -0.008858856 -0.04544497 -0.020749103
-0.0024073587 0.08719942 0.01174207 -0.065685995 -0.031579465 -0.0679731 0.054392077 -0.092978604
00000000: 7961 90bd fb5d d93c 5028 92bd 08aa e53c
00000010: 1205 99bd 3113 68bd fb05 363c 5a8f 5dbd
00000020: 8197 713d 2f33 6a3b 123c c03d a43d a03d
00000030: dfd8 8dbd 9929 7e3d 8c96 ba3d aa4e 08bd
00000040: 521e 91bc fb99 e0bb a6f5 99bb 3b3a b73d
00000050: 0481 9b3a a932 24bc 7bb9 47bd ad09 12bd
00000060: 3a3d e53c 9152 ecbc 76c2 63bd cee2 b73d
00000070: 71d1 973d 8c1e 4d3d 4100 afbc 10cc cf3d
00000080: b899 8dbc 7821 cf3d 7d30 97bd 640c bc3d
00000090: cdea f73d d9d9 3cba 1bfc c0bd 8d9d 2bbb
000000a0: 9a46 353c ed7e 23bd 001c b2bd 4c49 f6bb
000000b0: 1a97 9ebd 5f4c 943d e3f0 6bbd a0ee a03d
000000c0: 3bf6 d2bc 60df 5f3c 1c65 1abc 906c e43c
000000d0: 656a 27bd 07bb 823d e744 823d 847d ccbd
000000e0: 8359 493d 5748 913c 2295 8a3c 7dde 933d
000000f0: 8099 063d d82f 86bd 2d4f 40bd 4f5f c3bd
00000100: 00d4 043d 2f68 1cbd 0fee 81bd 95fb c73d
00000110: aac8 29bd 0bae 683d 6cdc 7f3d d5b7 d1bd
00000120: b8e7 563d 86cb c23c ce81 a6bd 17c8 3f3d
00000130: 8be8 903d c424 b93d 9cfa 3dbd 3f8a 24bd
00000140: c9d5 c13c 03ab 32bd 7844 46bd 5ad5 54bd
00000150: dd1f 52bc 3a6e 9cbd 6ce1 a7bd 4612 d7bd
00000160: 25ee 9fbd aeec bc3b 55f1 d1bd 3765 7abc
00000170: 20b7 b53c 8e6c b4bd 6697 c93c ff52 bc3c
00000180: 4996 d3bc b3e7 14bd 162a f3bc ee44 483b
00000190: 5e0c 84bd f892 8e3c 24a4 5d3d 37ed 933c
000001a0: 1385 353b ead9 87bd 0dbe e9bd acf0 733d
000001b0: b3d0 7b3d 3333 90bd f45d 01bc 386a 4dbc
000001c0: c60c 193d e326 afbd 1d95 22bd 9de9 81bd
000001d0: 7d11 8c3d 73a3 883c 8352 4dbd 3af8 63bd
000001e0: 1840 d1bd d263 05bd 3808 f139 56ea 28bd
000001f0: 5e98 c03d d86f a23b aeb8 c03d b459 2cbd
00000200: bf66 b8bd 5346 5dbd 39cc b03d 8594 a1bd
00000210: 328d c0bc b68a 403d 6d1e a63d 663e f13c
00000220: ecbf 61bc 1068 b9bb 55d5 6fbd 3f1c 603d
00000230: 18ef fa3c ea60 3f3d 4efa 813c ace2 abbd
00000240: 038e afbb cbcd 6539 9f5a 683c 78c2 ec3c
00000250: 88fd c33c a9b8 093d aeee bb3d 6ff9 0abc
00000260: 0a2c 8ebd 0178 b23d 0b9a b8bb 4608 493d
00000270: 081b 2c3d 11fc 5d3d 28e9 483d f650 323d
00000280: 6eff 97bc 158b 49bd 8341 a53d 1da3 b63d
00000290: c3d0 bfbd 6e94 c73c a837 5c3d b924 133d
000002a0: 2a6d dabd d85e b73d 1ed9 cebc 05a6 aa3c
000002b0: 9b9f a2bd f365 75bc 9996 833d 175c b7bc
000002c0: 4e17 c3bd 1cdb a43d 8a3f 533d a5d0 6abd
000002d0: d12a 6c3d 3670 d83c dabd 843d c967 ae3c
000002e0: f6ac c33c 6339 0c3d ed7a ccbd 2a84 79bc
000002f0: 5554 143d 70f6 2ebd cac3 ba3d 8243 62bb
00000300: 07e9 283a 7d44 fc3c fdd5 443c ef31 39bd
00000310: 6e9b 873d f65c 6abd b4ed a7bd 4c80 483d
00000320: b902 003d 3b60 ae3d cb60 833d 7672 c33b
00000330: a352 a23d e328 92bd 6fb0 9c3d f713 dfbd
00000340: 6b92 113d 1d0d 423d 4721 34bc d710 b43d
00000350: 8116 5cbb 04f7 933d b205 bcbd 6275 b33d
00000360: 9b51 a33d 4575 6e3d 4f2c a3bd c226 da3c
00000370: ef0e d53c c210 9bbd 8fa8 43bd 682a 563d
00000380: 0543 8abd 2614 b6bd b40e 5f3c f384 013c
00000390: 0168 c4bc 154d 8dbd e748 9fbd 0ff1 8d3c
000003a0: 8f70 dfbd 4474 873d 4961 9ebd 9f94 4ebd
000003b0: 6869 b23d 4874 b7bd 3c81 733d 079b 83bd
000003c0: 0182 45bd 9a68 1bbd 1815 bf3d 3e21 963d
000003d0: dca4 c6bd bc24 11bc 8124 3abd 06fa a9bc
000003e0: c7c4 1dbb 9c95 b23d d061 403c 6186 86bd
000003f0: 7859 01bd 7b35 8bbd 3aca 5e3d 916b bebd

residual_layers.0.conv1.bias f4 [32]
-0.06805854 0.06944856 0.08641295 0.020232381 0.06279347 0.035448067 0.0146340765 -0.08841036
0.03388662 0.07575377 0.005986419 -0.10083801 -0.03481521 0.042456508 -0.04111546 -0.09993592
0.014026366 0.014002166 -0.0031183441 -0.07528535 0.039393075 0.055066537 -0.08737784 -0.07429826
-0.087372206 0.07074122 0.042637188 0.014648975 0.043230627 -0.067463964 -0.051991697 0.026744744
00000000: 4762 8bbd 0c3b 8e3d 46f9 b03d 61be a53c
00000010: dd99 803d fe31 113d c4c3 6f3c 7e10 b5bd
00000020: b2cc 0a3d cb24 9b3d b929 c43b 2984 cebd
00000030: 659a 0ebd e0e6 2d3d af68 28bd 34ab ccbd
00000040: d8ce 653c 5769 653c 225d 4cbb 352f 9abd
00000050: a25a 213d 738d 613d 27f3 b2bd b029 98bd
00000060: 33f0 b2bd c6e0 903d 55a4 2e3d 4102 703c
00000070: 9912 313d 8c2a 8abd 3ff5 54bd cb17 db3c

residual_layers.0.bn1.weight f4 [32]
1.01087 1.0013919 1.0053226 1.0035409 1.0009327 1.000025 0.995589 0.988878
1.0023844 1.0103655 0.99572015 0.9880642 1.0064061 1.0081342 0.9979472 0.9886288
1.00695 1.0021678 0.9960408 1.0000056 1.0047677 0.9996364 0.994954 0.99131507
0.992502 0.9993675 0.9978241 1.0033051 0.99827164 1.0149268 0.9963161 0.99793476
00000000: 3064 813f 9c2d 803f 69ae 803f 0774 803f
00000010: 901e 803f d200 803f ecde 7e3f 1c27 7d3f
00000020: 224e 803f a853 813f 84e7 7e3f c7f1 7c3f
00000030: ead1 803f 8b0a 813f 7879 7f3f c716 7d3f
00000040: bde3 803f 0947 803f 88fc 7e3f 2f00 803f
00000050: 3a9c 803f 2ce8 7f3f 4eb5 7e3f d3c6 7d3f
00000060: 9c14 7e3f 8cd6 7f3f 6671 7f3f 4d6c 803f
00000070: bb8e 7f3f 1fe9 813f 920e 7f3f a778 7f3f

residual_layers.0.bn1.bias f4 [32]
-0.008988763 -0.0020644001 0.0076524033 0.0018950953 0.0039016467 -0.002027536 0.0014660389 -0.0059645344
0.0015977904 -0.0012668646 0.0067264168 -0.005797128 0.01048474 -0.012483095 -0.0003880592 0.0052596754
0.0062924805 -2.9496987e-05 0.005140788 -0.008165403 0.0039462345 -0.006515952 0.0044321474 0.005578187
0.0049877926 -0.0028094393 0.009291714 0.009797095 -0.00888571 0.002000836 -0.008056677 0.02007266
00000000: 9b45 13bc e34a 07bb 03c1 fa3b d964 f83a
00000010: c5b2 7f3b 69e0 04bb 1a28 c03a 2472 c3bb
00000020: f36c d13a ec0c a6ba 4669 dc3b d6f5 bdbb
00000030: 30c8 2b3c e585 4cbc 6d74 cbb9 5b59 ac3b
00000040: 2731 ce3b 4c70 f7b7 0e74 a83b 2fc8 05bc
00000050: 6a4f 813b c483 d5bb 8c3b 913b 39c9 b63b
00000060: a370 a33b 921e 38bb 463c 183c ff83 203c
00000070: 5e95 11bc 7520 033b 2700 04bc 6b6f a43c

residual_layers.0.bn1.running_mean f4 [32]
-0.17727469 0.17289913 -0.034286883 0.122899435 -0.13586257 -0.2688904 -0.2709057 0.12919481
0.11754876 0.026572619 0.08472612 -0.6337542 0.02999268 -0.15711112 -0.35351354 0.23502554
-0.21902806 -0.28529957 0.03678471 -0.096859515 -0.047033254 -0.17779157 -0.31639817 -0.5542644
-0.2074704 -0.2228666 0.16175734 -0.13486785 0.17482886 0.023944288 0.36125004 -0.06042436
00000000: 7f87 35be 780c 313e 6770 0cbd b3b2 fb3d
00000010: 8f1f 0bbe 01ac 89be 27b4 8abe a54b 043e
00000020: 67bd f03d d2ae d93c e384 ad3d b73d 22bf
00000030: 35b3 f53c bde1 20be baff b4be 89aa 703e
00000040: e448 60be c912 92be 90ab 163d 485e c6bd
00000050: f1a5 40bd fe0e 36be f1fe a1be 46e4 0dbf
00000060: 1f73 54be 2437 64be b7a3 253e cc1a 0abe
00000070: 5606 333e d026 c43c c4f5 b83e 897f 77bd

residual_layers.0.bn1.running_var f4 [32]
0.1787246 0.10282586 0.09788968 0.11299408 0.099838756 0.05050178 0.06964227 0.083981305
0.049439736 0.11915847 0.10707311 0.06514165 0.11982309 0.10544595 0.19684224 0.15494893
0.11945866 0.09984571 0.20423444 0.100795284 0.2175967 0.10469851 0.074026294 0.0857598
0.04903553 0.07768569 0.124236144 0.123314396 0.09562872 0.17949106 0.08251257 0.09800763
00000000: 9503 373e 5d96 d23d 627a c83d 7169 e73d
00000010: 4378 cc3d f4da 4e3d 9ba0 8e3d 64fe ab3d
00000020: 5281 4a3d 5b09 f43d 2649 db3d fc68 853d
00000030: cf65 f53d 0cf4 d73d 0391 493e efaa 1e3e
00000040: bea6 f43d e87b cc3d d522 513e c26d ce3d
00000050: abd1 5e3e 2c6c d63d 199b 973d d6a2 af3d
00000060: 7bd9 483d ad19 9f3d 856f fe3d 428c fc3d
00000070: fed8 c33d 81cc 373e 5afc a83d 39b8 c83d

residual_layers.0.conv2.weight f4 [32, 32, 3]
0.04359119 0.013327784 0.026002323 -0.04585668 -0.02177802 -0.099714555 -0.011013863 -0.069036454
0.009635368 -0.01612278 0.06272139 -0.07301636 -0.08167369 -0.09032994 0.06132272 0.023337254
-0.043114096 -0.06289311 -0.0055222693 -0.02334788 0.05653829 0.09391046 -0.0034644376 0.06913459
-0.020537421 0.091787614 -0.03637459 -0.06809382 0.09006248 -0.028767537 -0.10057128 -0.059023827
0.060293846 0.09683782 0.062739566 0.037670523 -0.040108275 -0.026408134 -0.07318556 0.080901645
0.08926947 -0.062151168 -0.04601505 0.039552823 -0.04903992 0.06698874 -0.035818256 0.034453854
-0.04234075 -0.03978651 -0.059988122 -0.01469115 -0.07182264 -0.07989463 -0.07424032 -0.040185668
-0.028434698 0.035135638 -0.07466845 -0.081734404 0.0018788283 0.05737459 -0.045628782 -0.0740526
-0.018727066 -0.041817226 -0.017666493 0.00085449463 0.09040172 -0.035259157 -0.008062296 -0.06961577
-0.030422825 0.10630569 0.042181045 0.039807215 0.07808961 0.048124902 -0.009971581 -0.046630148
0.038212813 0.11343554 -0.090440884 0.042833697 -0.042874016 0.07186627 -0.049270578 0.063589364
-0.03798192 -0.084375605 -0.04340375 -0.12116376 -0.020042468 -0.021094412 0.07612477 -0.034800638
0.02393896 0.100182325 -0.07212046 -0.022749195 -0.06293525 -0.039084353 -0.1030268 -0.005831578
-0.05243838 0.052479252 0.05078389 -0.078734286 0.00976814 0.10784375 0.07745994 -0.070966445
0.008153181 -0.027085736 -0.08304718 0.08048169 -0.003281406 -0.09229597 -0.09536681 -0.0127704255
-0.07748169 -0.06542128 0.064810105 -0.12468351 -0.05945655 0.092867464 -0.09906763 0.014773783
0.102586955 -0.07216366 -0.06418059 0.045819025 0.08879237 0.104349114 -0.065551534 -0.049543157
-0.002406688 0.037433118 0.05568742 -0.00982537 -0.0052008596 0.06961724 -0.08274386 0.076889984
-0.039911035 0.05684151 -0.05112027 0.07987437 0.07587457 -0.08709211 -0.08584182 0.08120924
-0.02574003 -0.042520497 0.09731867 0.045150034 0.07698733 0.023437016 0.109196246 -0.025225775
-0.0077755717 0.07414229 -0.11189005 -0.013449078 0.025758633 -0.0643308 0.07833526 -0.085279286
0.03135571 -0.00039944018 -0.063337244 -0.037257552 -0.09563912 -0.07122919 0.083427444 -0.032544244
-0.095178284 0.07228442 -0.080619544 -0.10040952 0.030259259 -0.0026352354 0.018064788 0.052076615
0.01608675 0.047853447 0.04370712 0.061676133 -0.029087838 0.018712737 -0.022878626 -0.08249449
0.039709993 0.02547165 -0.0014505334 0.045157596 0.022111595 -0.04089671 -0.0629426 -0.08290685
0.004194689 0.06470074 -0.08932594 0.08273077 -0.10524242 -0.03493632 -0.006450195 -0.08749955
-0.032609425 0.05610132 -0.09486598 0.06739534 -0.06811586 0.043491308 -0.026057132 0.0016770294
-0.02687794 -0.06629639 0.059808917 -0.103367746 0.038461782 -0.027182627 0.08127008 0.07898502
0.028587423 0.0024414575 0.08733381 0.014813978 -0.08069684 -0.042948015 0.088284165 -0.09738705
0.07052436 0.097010925 0.015082013 0.08971566 -0.033259515 0.01674137 0.052986134 -0.057436306
0.021604339 -0.078981884 -0.05704598 0.0637783 0.09865601 0.049832337 0.091809124 0.030192865
0.025349312 -0.029079715 -0.022663528 0.091853976 0.017479476 -0.047045942 0.017888537 -0.10757918
00000000: ad8c 323d c75c 5a3c d302 d53c 37d4 3bbd
00000010: d167 b2bc 2537 ccbd 7d73 34bc fc62 8dbd
00000020: aadd 1d3c ec13 84bc 1274 803d 9a89 95bd
00000030: 8944 a7bd e7fe b8bd 882d 7b3d c52d bf3c
00000040: 6898 30bd 1ace 80bd 27f4 b4bb 0e44 bfbc
00000050: b294 673d 2154 c03d 9e0b 63bb 7096 8d3d
00000060: 183e a8bc 25fb bb3d 86fd 14bd c674 8bbd
00000070: ad72 b83d e6a9 ebbc 51f8 cdbd f8c2 71bd
00000080: aef6 763d e852 c63d 9a7d 803d 684c 1a3d
00000090: 9348 24bd df55 d8bc 50e2 95bd c3af a53d
000000a0: e9d2 b63d 3992 7ebd 477a 3cbd 2402 223d
000000b0: 15de 48bd 6431 893d 2ab6 12bd 7c1f 0d3d
000000c0: 7f6d 2dbd 2ef7 22bd 1bb6 75bd 26b3 70bc
000000d0: c017 93bd cc9f a3bd 4f0b 98bd ba99 24bd
000000e0: e2ef e8bc 63ea 0f3d c6eb 98bd 5e64 a7bd
000000f0: 0443 f63a 9e01 6b3d 3fe5 3abd e4a8 97bd
00000100: 8169 99bc 8a48 2bbd 52b9 90bc 2a00 603a
00000110: 8924 b93d e86b 10bd b817 04bc b692 8ebd
00000120: 4a39 f9bc ccb6 d93d 08c6 2c3d e40c 233d
00000130: 72ed 9f3d 9e1e 453d d85f 23bc 41ff 3ebd
00000140: 0a85 1c3d e450 e83d 1239 b9bd 6372 2f3d
00000150: aa9c 2fbd 9f2e 933d f2cf 49bd 243b 823d
00000160: ee92 1bbd 1ecd acbd 21c8 31bd b524 f8bd
00000170: 1a30 a4bc 30ce acbc 4ee7 9b3d 1d8b 0ebd
00000180: a31b c43c 642c cd3d e4b3 93bd 855c babc
00000190: 32e4 80bd ea16 20bd b7ff d2bd d216 bfbb
000001a0: a0c9 56bd 7cf4 563d c502 503d 713f a1bd
000001b0: 8c0a 203c 2fdd dc3d 51a3 9e3d db56 91bd
000001c0: eb94 053c e8e2 ddbc a414 aabd 96d3 a43d
000001d0: db0c 57bb ab05 bdbd ad4f c3bd 0c3b 51bc
000001e0: b8ae 9ebd 98fb 85bd 29bb 843d 115a ffbd
000001f0: b688 73bd 4c31 be3d f8e3 cabd bd0d 723c
00000200: 1c19 d23d 8aca 93bd 1d71 83bd bbac 3b3d
00000210: c6d8 b53d fdb4 d53d e23f 86bd c4ed 4abd
00000220: 86b9 1dbb 7853 193d 7e18 643d 97fa 20bc
00000230: f96b aabb 7c93 8e3d 9d75 a9bd 7f78 9d3d
00000240: c179 23bd a5d2 683d 7d63 51bd 2c95 a33d
00000250: 2064 9b3d 595d b2bd d6cd afbd 0851 a63d
00000260: c1dc d2bc f929 2ebd 034f c73d 3eef 383d
00000270: 89ab 9d3d fcfe bf3c 48a2 df3d 49a6 cebc
00000280: 39ca febb ead7 973d 9c26 e5bd 8659 5cbc
00000290: c503 d33c debf 83bd 3d6e a03d e8a6 aebd
000002a0: d86e 003d f46b d1b9 f5b6 81bd 609b 18bd
000002b0: 71de c3bd 9ce0 91bd 02dc aa3d 1d4d 05bd
000002c0: d5ec c2bd db09 943d dc1b a5bd 82a3 cdbd
000002d0: 44e2 f73c eab3 2cbb 9bfc 933c 4a4e 553d
000002e0: 5cc8 833c fa01 443d 3d06 333d 1da0 7c3d
000002f0: 9e49 eebc 744b 993c f56b bbbc dff2 a8bd
00000300: f2a6 223d eca9 d03c d31f beba 2cf7 383d
00000310: 6023 b53c 4f83 27bd 0de8 80bd 11cb a9bd
00000320: 9a73 893b d281 843d 85f0 b6bd c06e a93d
00000330: 5789 d7bd 6319 0fbd 285c d3bb f732 b3bd
00000340: 7691 05bd 7fca 653d 1849 c2bd 9106 8a3d
00000350: 5480 8bbd f123 323d c475 d5bc c5cf db3a
00000360: 202f dcbc 67c6 87bd 32fa 743d 78b2 d3bd
00000370: 1a8a 1d3d 1aae debc ed70 a63d e6c2 a13d
00000380: 2c30 ea3c dc00 203b 12dc b23d 54b6 723c
00000390: 6344 a5bd 42ea 2fbd 54ce b43d dd72 c7bd
000003a0: 136f 903d aaad c63d 8c1a 773c d8bc b73d
000003b0: 213b 08bd 3325 893c fd07 593d 5542 6bbd
000003c0: 95fb b03c 41c1 a1bd 0ca9 69bd 339e 823d
000003d0: 2a0c ca3d fe1c 4c3d 6c06 bc3d 0757 f73c
000003e0: 5ca9 cf3c 9538 eebc dda8 b9bc f01d bc3d
000003f0: 1e31 8f3c 3fb3 40bd fb8a 923c 7952 dcbd

residual_layers.0.conv2.bias f4 [32]
-0.035891313 -0.07560912 -0.085175365 0.02612561 0.009782004 -0.0010813442 -0.06025802 -0.040337704
-0.074518986 -0.09525063 -0.08686055 0.059637457 -0.094258994 -0.07138116 0.0910489 -0.03880307
0.061587244 -0.020767212 0.054999743 0.032665107 0.013705391 -0.08423997 -0.058263708 0.09398253
-0.020124152 0.08241169 0.027575087 0.08758819 0.09579715 -0.02798586 0.08928302 0.0006488138
00000000: c502 13bd f4d8 9abd 6c70 aebd 6005 d63c
00000010: b344 203c e4bb 8dba 1dd1 76bd 2639 25bd
00000020: 699d 98bd c312 c3bd f2e3 b1bd 6846 743d
00000030: dc0a c1bd 4930 92bd d877 ba3d f8ef 1ebd
00000040: e842 7c3d 0020 aabc 6947 613d d9cb 053d
00000050: 948c 603c 0186 acbd eda5 6ebd ea79 c03d
00000060: 68db a4bc 76c7 a83d 26e5 e13c 7061 b33d
00000070: 4c31 c43d 9a42 e5bc 04da b63d 2815 2a3a

residual_layers.0.bn2.weight f4 [32]
0.97873455 1.0046381 0.9852476 1.0021137 1.0011433 0.99637735 1.0021918 0.99748766
0.99079657 0.9928819 1.0013819 0.98479325 0.9858829 0.9880621 0.97701156 0.99284506
0.9848273 0.9999714 1.0005214 1.0083779 1.004435 0.9845644 1.0002137 0.9934454
0.996323 0.98033077 0.9955874 1.0004287 1.002553 0.9912255 0.9852472 1.0062056
00000000: 598e 7a3f fb97 803f 3039 7c3f 4345 803f
00000010: 7725 803f 9612 7f3f d247 803f 5a5b 7f3f
00000020: d8a4 7d3f 822d 7e3f 482d 803f 691b 7c3f
00000030: d262 7c3f a3f1 7c3f 6e1d 7a3f 182b 7e3f
00000040: a41d 7c3f 20fe 7f3f 1611 803f 8712 813f
00000050: 5391 803f 6a0c 7c3f 0107 803f 7052 7e3f
00000060: 060f 7f3f f5f6 7a3f d1de 7e3f 0c0e 803f
00000070: a853 803f f4c0 7d3f 2939 7c3f 58cb 803f

residual_layers.0.bn2.bias f4 [32]
-0.011684255 -0.007965383 -0.01759984 0.009586707 -0.005442305 -0.026468016 0.0022949271 0.008530854
0.021988308 0.0040965104 0.009852338 -0.012676552 -0.008546498 -0.0036747614 -0.0008389533 0.01343514
0.009579246 0.012121848 -0.00063223526 0.0012798908 -0.0052377046 -0.016701767 0.0035490287 -0.0059231664
-0.0129941 0.006207078 -0.011431921 0.014593333 -0.0046609547 -0.018326137 -0.006397964 -0.004326127
00000000: 516f 3fbc 3d81 02bc 8a2d 90bc 9011 1d3c
00000010: 5d55 b2bb 74d3 d8bc 7d66 163b ffc4 0b3c
00000020: d320 b43c 053c 863b b36b 213c 50b1 4fbc
00000030: 9c06 0cbc 44d4 70bb 34ed 5bba 101f 5c3c
00000040: 45f2 1c3c b79a 463c 97bc 25ba 02c2 a73a
00000050: 0da1 abbb 25d2 88bc d296 683b 1f17 c2bb
00000060: 35e5 54bc bf64 cb3b f44c 3bbc e018 6f3c
00000070: ecba 98bb b220 96bc 03a6 d1bb 2fc2 8dbb

residual_layers.0.bn2.running_mean f4 [32]
-0.33165714 -0.23179929 -0.055197485 0.3807347 -0.11320486 -0.011765553 -0.16660303 -0.15733446
-0.24760494 0.025993204 -0.08854251 0.3532655 -0.17599809 -0.27696902 0.34817788 -0.21307692
0.52134764 0.14438996 0.2780569 0.38737395 -0.03453232 -0.13486835 -0.031038228 0.20927417
-0.28892586 0.060099233 0.044457033 0.011239199 0.15547223 0.063409306 0.21543159 0.079988874
00000000: f7ce a9be cb5c 6dbe c216 62bd a9ef c23e
00000010: f3d7 e7bd 4ec4 40bc fc99 2abe 491c 21be
00000020: 268c 7dbe b3ef d43c c755 b5bd 37df b43e
00000030: d838 34be e2ce 8dbe 5f44 b23e d630 5abe
00000040: 0a77 053f f6da 133e 795d 8e3e e155 c63e
00000050: c371 0dbd ee1a 0abe e243 febc f84b 563e
00000060: 17ee 93be 9d2a 763d 9418 363d 9e24 383c
00000070: 1d34 1f3e bddc 813d 199a 5c3e 35d1 a33d

residual_layers.0.bn2.running_var f4 [32]
0.08287085 0.12635341 0.12604529 0.09799383 0.11855797 0.07989828 0.083674274 0.08651893
0.092218615 0.07268205 0.12435194 0.1541317 0.0748528 0.078524396 0.13259582 0.0908346
0.13649853 0.12761411 0.13576952 0.1561725 0.13877225 0.13142669 0.12391527 0.10630326
0.09010245 0.10486382 0.124315776 0.12797374 0.10334305 0.10077743 0.09966446 0.118270256
00000000: 31b8 a93d ca62 013e 0412 013e fdb0 c83d
00000010: 85ce f23d b6a1 a33d 6b5d ab3d d630 b13d
00000020: 1ddd bc3d 54da 943d 3bac fe3d b3d4 1d3e
00000030: 6d4c 993d 66d1 a03d 33c7 073e 7e07 ba3d
00000040: 45c6 0b3e 46ad 023e 2a07 0b3e afeb 1f3e
00000050: 501a 0e3e b894 063e 4ac7 fd3d 86b5 d93d
00000060: a287 b83d d8c2 d63d 4599 fe3d 8c0b 033e
00000070: 85a5 d33d 6664 ce3d e11c cc3d ad37 f23d

residual_layers.1.conv1.weight f4 [32, 32, 3]
-0.10142947 0.09782221 0.0035939948 -0.004194455 -0.03153035 0.04669096 -0.003939225 -0.06361528
-0.02723455 0.017175782 0.034838226 -0.045402367 -0.10503983 -0.047543272 -0.021996621 -0.0060915533
-0.00064702565 0.010852778 0.059145298 -0.061216578 0.0792263 -0.06674469 0.030217173 -0.07414494
-0.008128335 0.019761613 0.02135684 0.098239884 -0.041731607 -0.05499683 -0.027941948 -0.054994278
-0.027637748 -0.05084225 -0.08543002 -0.049775347 -0.089064755 0.09558319 0.01050364 0.08969337
-0.031461246 -0.0727599 0.058294404 0.08219894 -0.0825033 0.061985478 -0.053073574 -0.07056678
-0.068794616 -0.039857484 -0.034399703 0.08367301 -0.08934552 0.093334384 0.08771897 -0.021120898
-0.106204614 0.016249225 0.05667467 -0.033784643 -0.03860109 0.012844519 -0.1102443 0.09306696
-0.014792507 0.068196826 -0.024982315 0.09598319 0.023016512 -0.051189825 0.017975772 -0.06777761
-0.043979194 0.034362216 -0.061365604 0.05259106 -0.06112953 -0.068729475 0.0051858085 0.04805461
-0.025659263 -0.052790016 0.016406612 0.049981467 -0.08843433 -0.027272342 -0.0053831344 -0.0066900123
0.08501908 -0.027055878 -0.04803592 0.06149378 0.09178979 0.05791617 0.09973821 -0.084002234
-0.07767218 0.0040216697 -0.017845262 -0.10032774 -0.067493446 0.031746317 -0.088273786 0.050830785
0.07613666 0.008629959 -0.08148164 0.079997696 0.0931167 -0.008183463 0.075491086 0.08595867
0.0016257004 0.0012235898 -0.09047395 -0.025663763 0.046138782 0.043972775 -0.08553515 -0.08760381
-0.07992639 -0.02551477 -0.001091962 0.0088197095 0.035575535 0.031274453 -0.0533953 -0.09552028
0.10768095 0.08953588 -0.047015645 -0.036234796 0.037180737 -0.022746742 -0.04242055 0.042407826
0.09318713 -0.06640679 0.007100263 0.061701413 0.091943525 -0.06285802 -0.03209713 0.08153078
-0.0014300668 -0.018505802 -0.026289614 -0.083517395 -0.027059449 -0.04736997 0.028079858 -0.067558266
-0.016915271 0.061659932 0.061307106 0.041354556 -0.020431418 0.029026562 0.040110357 -0.0056815776
0.06283726 -0.079730354 -0.085142024 -0.09481607 0.011439451 0.06463398 0.08258528 -0.07321954
-0.054217696 -0.033701565 -0.016006153 0.08530727 0.10606974 0.03317029 0.002447429 0.09021332
0.032740723 -0.08847831 0.016197987 0.046085976 -0.015440444 0.014643614 -0.03917259 0.03474639
-0.067222014 -0.02746069 -0.051854722 -0.089368716 0.02341046 0.045991547 -0.02418563 0.0215558
-0.028947217 0.019584382 -0.043240707 -0.02499329 0.032531448 -0.11839591 -0.059497755 0.03642886
0.02257107 0.027206454 0.097373255 0.09743991 -0.0016149586 -0.0036337774 0.07886554 -0.08097324
0.082411356 0.0046217875 0.020052558 -0.0057863 0.06349781 0.06935639 0.044858355 0.060607534
-0.04825748 -0.006693759 -0.050097402 0.09726198 0.08416679 0.01606939 -0.05622044 -0.029017616
-0.029650452 0.03683568 -0.05836269 0.09741289 0.047934983 0.0817554 -0.089292064 -0.016992602
0.062962584 -0.01314591 -0.08928367 -0.0354825 0.04540845 0.09010837 -0.03560671 -0.036052648
-0.006091493 0.09064009 0.054072287 0.041542035 -0.078033015 0.04812569 0.07884463 -0.06288821
-0.08546958 -0.014052338 -0.05674979 0.09684139 -0.08635045 0.027826674 0.055133704 0.046742857
00000000: 41ba cfbd 0357 c83d 3a89 6b3b a471 89bb
00000010: f825 01bd 053f 3f3d 9d14 81bb ba48 82bd
00000020: fe1a dfbc 3ab4 8c3c 87b2 0e3d d5f7 39bd
00000030: 1f1f d7bd bcbc 42bd 4232 b4bc a79b c7bb
00000040: 289d 29ba dacf 313c 5742 723d 3cbe 7abd
00000050: 6641 a23d 71b1 88bd 018a f73c 4dd9 97bd
00000060: b52c 05bc 1be3 a13c 8af4 ae3c fe31 c93d
00000070: c3ee 2abd 5b44 61bd 83e6 e4bc ae41 61bd
00000080: 8f68 e2bc f73f 50bd eff5 aebd 3ce1 4bbd
00000090: 9567 b6bd 1fc1 c33d 7617 2c3c 28b1 b73d
000000a0: 82dd 00bd 2403 95bd 1dc6 6e3d eb57 a83d
000000b0: 7df7 a8bd 7ce4 7d3d ad63 59bd 5185 90bd
000000c0: 31e4 8cbd 9a41 23bd b4e6 0cbd c15c ab3d
000000d0: c9fa b6bd 1926 bf3d 01a6 b33d bc05 adbc
000000e0: ce81 d9bd 181d 853c b323 683d c461 0abd
000000f0: 2d1c 1ebd d171 523c c3c7 e1bd e499 be3d
00000100: 455c 72bc c7aa 8b3d b6a7 ccbc d692 c43d
00000110: 208d bc3c 6cac 51bd ed41 933c fdce 8abd
00000120: 8723 34bd 65bf 0c3d 805a 7bbd b969 573d
00000130: f562 7abd 0ac2 8cbd b7ed a93b e9d4 443d
00000140: 6033 d2bc 583a 58bd 2967 863c 5eb9 4c3d
00000150: 0f1d b5bd 3f6a dfbc 0165 b0bb e437 dbbb
00000160: 7c1e ae3d 4aa4 ddbc 50c1 44bd e7e0 7b3d
00000170: 49fc bb3d 8239 6d3d 8c43 cc3d 5d09 acbd
00000180: 9812 9fbd 36c8 833b 3a30 92bc a178 cdbd
00000190: 013a 8abd 6d08 023d e3c8 b4bd f133 503d
000001a0: 8aed 9b3d ac64 0d3c d9df a6bd d5d5 a33d
000001b0: f8b3 be3d ee13 06bc 129b 9a3d 190b b03d
000001c0: 7415 d53a dc60 a03a 684a b9bd d03c d2bc
000001d0: 05fc 3c3d cc1c 343d 0d2d afbd a069 b3bd
000001e0: 72b0 a3bd 5a04 d1bc 2a20 8fba 8b80 103c
000001f0: a7b7 113d a419 003d 08b5 5abd 23a0 c3bd
00000200: d487 dc3d 965e b73d 7a93 40bd f06a 14bd
00000210: d44a 183d 6057 babc 2cc1 2dbd d4b3 2d3d
00000220: e5d8 be3d 4800 88bd 53a9 e83b 9fba 7c3d
00000230: e34c bc3d b5bb 80bd 4878 03bd 9cf9 a63d
00000240: 1471 bbba 7b99 97bc 515d d7bc 2b0b abbd
00000250: c7ab ddbc 0307 42bd bb07 e63c fd5b 8abd
00000260: e591 8abc 208f 7c3d 291d 7b3d 6563 293d
00000270: ca5f a7bc 1dc9 ed3c c24a 243d 872c babb
00000280: d2b0 803d ab49 a3bd f15e aebd ed2e c2bd
00000290: 896c 3b3c d25e 843d 7922 a93d 20f4 95bd
000002a0: 6013 5ebd a70a 0abd 561f 83bc 94b5 ae3d
000002b0: 183b d93d 92dd 073d 0c65 203b c3c1 b83d
000002c0: 231b 063d 1e34 b5bd a4b1 843c a6c4 3c3d
000002d0: ebf9 7cbc c5eb 6f3c 7073 20bd 3b52 0e3d
000002e0: b2ab 89bd 3ef5 e0bc 9e65 54bd f206 b7bd
000002f0: 4bc7 bf3c a261 3c3d f120 c6bc ca95 b03c
00000300: b722 edbc 6d6f a03c 2b1d 31bd babe ccbc
00000310: b23f 053d 8e79 f2bd ebb3 73bd 6e36 153d
00000320: f7e6 b83c 12e0 de3c a16b c73d 938e c73d
00000330: 05ad d3ba ab24 6ebb 4284 a13d 4cd5 a5bd
00000340: 49c7 a83d 5d72 973b 4345 a43c 019b bdbb
00000350: 240b 823d b90a 8e3d 65bd 373d 9b3f 783d
00000360: a3a9 45bd 5257 dbbb ef32 4dbd 4a31 c73d
00000370: a35f ac3d f4a3 833c 6747 66bd 5ab6 edbc
00000380: 81e5 f2bc 03e1 163d b70d 6fbd 6980 c73d
00000390: 7957 443d 606f a73d c2de b6bd 1234 8bbc
000003a0: 87f2 803d f161 57bc 5bda b6bd 1956 11bd
000003b0: 36fe 393d bd8a b83d 57d8 11bd f1ab 13bd
000003c0: 269b c7bb 83a1 b93d e77a 5d3d fb27 2a3d
000003d0: c6cf 9fbd 721f 453d 4b79 a13d 89cb 80bd
000003e0: ad0a afbd c73b 66bc 7872 68bd c754 c63d
000003f0: 81d8 b0bd c4f4 e33c e1d3 613d 7075 3f3d

residual_layers.1.conv1.bias f4 [32]
0.038662612 0.06283181 0.08794644 0.09481898 -0.084250234 0.08488068 -0.021005677 -0.0043064207
0.068362355 0.09376009 0.098531865 0.019486904 -0.034388423 -0.00937434 0.08370096 0.059464257
0.017028986 -0.06948729 0.07072422 -0.0031980206 0.040893227 -0.021397755 0.053316798 0.039412484
-0.010858948 0.010065782 0.058681913 -0.03128781 0.004817742 -1.2002901e-06 -0.06417405 -0.06262912
00000000: b05c 1e3d f7ad 803d 431d b43d 7430 c23d
00000010: 638b acbd ecd5 ad3d 1914 acbc e01c 8dbb
00000020: 9001 8c3d 4a05 c03d 13cb c93d 00a3 9f3c
00000030: e0da 0cbd d596 19bc 696b ab3d cb90 733d
00000040: 5f80 8b3c 5a4f 8ebd dcd7 903d e295 51bb
00000050: a87f 273d 584a afbc b762 5a3d fc6e 213d
00000060: bbe9 31bc f3ea 243c 725c 703d a627 00bd
00000070: 26de 9d3b a719 a1b5 af6d 83bd b243 80bd

residual_layers.1.bn1.weight f4 [32]
0.9931829 1.0040381 0.9836911 0.9983655 1.0088662 1.0155785 0.9926071 1.0134321
0.9971775 1.0049428 1.0112988 1.0139949 0.9967366 0.9884106 0.9992692 1.0005863
0.9994401 1.0056608 0.9972322 0.9995876 0.99342716 1.0049264 0.993765 1.0112768
1.0016502 0.98881274 0.98585707 1.0137794 0.9946754 0.9958832 0.99824613 0.99398077
00000000: 3c41 7e3f 5284 803f 2ed3 7b3f e294 7f3f
00000010: 8722 813f 7afe 813f 801b 7e3f 25b8 813f
00000020: 0647 7f3f f7a1 803f 3d72 813f 96ca 813f
00000030: 212a 7f3f 7a08 7d3f 1bd0 7f3f 3613 803f
00000040: 4edb 7f3f 7eb9 803f 9c4a 7f3f f9e4 7f3f
00000050: 3e51 7e3f 6ea1 803f 6267 7e3f 8571 813f
00000060: 1336 803f d522 7d3f 2161 7c3f 86c3 813f
00000070: 0ca3 7e3f 34f2 7e3f 0f8d 7f3f 8675 7e3f

residual_layers.1.bn1.bias f4 [32]
-0.013260013 -0.016624244 -0.008124963 0.011015918 -0.0140971625 -0.0007401093 0.0055127707 -0.0069818567
-0.0009788863 -0.008009019 0.018426202 0.0014959669 0.021512847 0.0037903285 0.009690951 -0.010641933
-0.0088249445 -0.029323101 -0.0076012914 -0.0013896269 0.023936376 0.009447937 0.005061823 0.004454926
0.0156197725 -0.015186859 0.0024318586 -0.012404488 0.0034019423 -0.024895204 0.00047045777 0.00060187955
00000000: 8740 59bc 912f 88bc 911e 05bc 1c7c 343c
00000010: c9f7 66bc e503 42ba 79a4 b43b 0fc8 e4bb
00000020: f94d 80ba 4338 03bc 8cf2 963c 5214 c43a
00000030: b63b b03c 2967 783b cbc6 1e3c 815b 2ebc
00000040: 8096 10bc 0037 f0bc 4114 f9bb 2424 b6ba
00000050: 3816 c43c 85cb 1a3c a6dd a53b a1fa 913b
00000060: 13ea 7f3c 4ed2 78bc d15f 1f3b 323c 4bbc
00000070: 1ff3 5e3b 07f1 cbbc c6a7 f639 74c7 1d3a

residual_layers.1.bn1.running_mean f4 [32]
-0.37154627 -0.044046503 0.8210031 0.068768874 -0.06435505 0.6327265 0.011154686 0.3994342
0.42011657 0.10282784 -0.14022186 0.3082948 0.40007943 0.3571418 -0.005488437 -0.30064958
-0.18343653 -0.08900547 0.20867673 0.1469431 -0.50782156 0.48041868 0.48617002 -0.6370395
-0.34952337 -0.17052187 -0.036676195 0.047719683 -0.23721272 -0.51353425 -0.3388034 -0.3277449
00000000: 503b bebe 1b6a 34bd 422d 523f b2d6 8c3d
00000010: 95cc 83bd 5dfa 213f 25c2 363c a482 cc3e
00000020: 8519 d73e 6797 d23d 5296 0fbe d1d8 9d3e
00000030: 36d7 cc3e 4adb b63e 59d8 b3bb beee 99be
00000040: c9d6 3bbe 8048 b6bd 5aaf 553e 4178 163e
00000050: 9800 02bf 70f9 f53e 47eb f83e 0515 23bf
00000060: baf4 b2be 499d 2ebe c739 16bd b775 433d
00000070: e4e7 72be fb76 03bf a477 adbe 2ece a7be

residual_layers.1.bn1.running_var f4 [32]
0.2556479 0.22259368 0.17054486 0.21869236 0.21251586 0.2625745 0.20371899 0.26443306
0.2668503 0.35523367 0.23806629 0.23965687 0.21154685 0.23830707 0.20952721 0.2956495
0.19982858 0.22273105 0.18913461 0.19236232 0.2179342 0.237222 0.15685746 0.157572
0.18731712 0.23448205 0.34007016 0.15826964 0.2332173 0.20981166 0.34663808 0.16163024
00000000: 48e4 823e 99ef 633e 50a3 2e3e e4f0 5f3e
00000010: c29d 593e 2a70 863e b69b 503e c563 873e
00000020: 9aa0 883e 30e1 b53e a6c7 733e 9c68 753e
00000030: bd9f 583e c506 743e 4d8e 563e 5f5f 973e
00000040: dd9f 4c3e 9c13 643e 81ac 413e a1fa 443e
00000050: 252a 5f3e 53ea 723e 3e9f 203e 8e5a 213e
00000060: 0fd0 3f3e 101c 703e ad1d ae3e 7011 223e
00000070: 84d0 6e3e ded8 563e 8c7a b13e 6682 253e

residual_layers.1.conv2.weight f4 [32, 32, 3]
0.01103846 -0.064892225 0.07839327 0.04012949 0.09503938 0.012719134 -0.06584417 0.05062834
0.05901014 -0.10921802 0.013285323 -0.015306996 0.0158103 0.023212621 0.049978912 -0.101821534
-0.038753342 0.031790983 -0.042301785 0.07249315 0.0914821 0.06858979 0.075726934 -0.060364366
-0.025120353 0.051662844 -0.078037366 -0.06695867 0.06076929 -0.088889405 -0.041519947 -0.031754345
0.051400058 -0.060774967 -0.04676751 0.0011761644 -0.006735626 0.07355324 0.0572264 0.021432228
0.057447955 0.0880404 -0.018760355 -0.07186156 -0.07205577 0.0848331 -0.0301924 0.022016695
-0.04889647 0.048420724 0.06880619 0.05158043 -0.05094336 0.060622543 -0.021143407 -0.021850778
-0.0632321 -0.07633079 -0.032748617 -0.09162224 -0.07609138 -0.06733956 -0.01905918 -0.0330441
0.014529176 -0.107843466 0.099755205 -0.056924 0.03787573 0.057363756 -0.09749488 -0.028195387
0.10307723 0.068733886 -0.031092336 0.05757515 -0.021360897 -0.009775198 -0.01596532 0.013590747
-0.060557097 -0.04480358 0.08444465 0.07900217 -0.017161159 -0.04751784 -0.007534343 0.022273118
0.07346434 -0.05320593 0.036506817 -0.106981084 0.031275503 -0.040938213 -0.011525889 0.08119639
0.029239392 0.061496142 0.051156197 -0.051563036 -0.032788355 0.082060106 0.05571632 -0.0021129514
0.07138752 -0.107303075 -0.017308036 0.055185243 0.011295403 0.103360616 -0.030152535 -0.08462321
0.015629934 0.06424961 0.068670236 -0.06779019 -0.03356942 0.0072590485 -0.11478883 -0.08490773
0.023563247 -0.06541405 0.00017518834 -0.09074084 0.09635709 0.055876285 -0.026493153 -0.09664644
0.033475716 0.06546261 0.07265097 -0.03448471 -0.06137018 -0.0452998 0.09185035 0.056745473
-0.0880668 0.061403424 -0.05596993 -4.0067116e-06 -0.0064522657 0.0017978435 0.01926888 -0.054866925
0.09738741 0.031805832 0.04548068 -0.07867613 -0.0038669088 -0.048621632 -0.09241391 -0.065593876
-0.038319733 -0.0040649213 0.016157072 0.061363254 0.0050327 -0.034432154 -0.08909296 -0.025339283
0.04393388 -0.024285862 -0.02064789 0.04172265 -0.02955567 0.06299354 -0.09014654 -0.0906166
0.044663973 -0.032037158 -0.03887244 0.044782113 -0.10609259 -0.07351741 0.002635022 -0.06245875
-0.02172638 0.049178105 0.08365985 0.011905821 -0.09605112 0.06678044 0.00843217 -0.054175958
0.033707898 -0.019136393 -0.059730984 -0.023347529 -0.033473678 -0.026439583 -0.0425294 -0.044646095
0.06167024 -0.1026006 -0.014154211 0.08410398 0.102077655 0.065942585 -0.003305661 -0.09028331
0.107900225 0.0015289016 -0.0029228772 0.065732084 -0.07757896 0.00088563917 -0.058126066 -0.0050819777
0.018069679 0.00910929 0.045408245 -0.041890383 -0.053998016 -0.085306235 0.044201355 0.1055172
-0.084361546 -0.016265167 0.08338465 0.014388168 -0.03970726 0.04575157 -0.03316708 0.062892154
0.048456505 -0.06401917 -0.0748131 0.043116234 -0.05725299 0.01369671 0.005374043 -0.05554489
-0.034699425 0.0883878 0.08173215 -0.075438574 -0.089261375 -0.073228054 0.053018156 -0.07910645
0.079542674 0.06477888 -0.024165079 -0.058962893 -0.05690896 0.018821402 -0.010121972 -0.08723575
0.07570567 -0.005410777 -0.044699978 0.102020375 0.027739221 0.03162639 0.04150018 0.03300018
00000000: a8da 343c 37e6 84bd a78c a03d d25e 243d
00000010: 02a4 c23d ea63 503c 4fd9 86bd aa5f 4f3d
00000020: 9eb4 713d b3ad dfbd afaa 593c 32ca 7abc
00000030: 9a84 813c 6528 be3c b0b6 4c3d cf87 d0bd
00000040: d3bb 1ebd 4337 023d a344 2dbd 4a77 943d
00000050: f85a bb3d ce78 8c3d b916 9b3d a040 77bd
00000060: 33c9 cdbc 6b9c 533d 0ed2 9fbd a121 89bd
00000070: 38e9 783d a60b b6bd d210 2abd d810 02bd
00000080: de88 523d 2cef 78bd 4a8f 3fbd 8729 9a3a
00000090: 87b6 dcbb 15a3 963d 3b66 6a3d a492 af3c
000000a0: 8c4e 6b3d 864e b43d 51af 99bc 272c 93bd
000000b0: fa91 93bd fabc ad3d 0d56 f7bc 5b5c b43c
000000c0: aa47 48bd cf54 463d 42ea 8c3d 0046 533d
000000d0: fca9 50bd 584f 783d f034 adbc 6700 b3bc
000000e0: d57f 81bd 5153 9cbd 6a23 06bd 71a4 bbbd
000000f0: ccd5 9bbd 53e9 89bd ff21 9cbc 4059 07bd
00000100: c80b 6e3c 09dd dcbd 754c cc3d 2429 69bd
00000110: 9523 1b3d 42f6 6a3d 65ab c7bd 03fa e6bc
00000120: 281a d33d 5ac4 8c3d 5bb5 febc ecd3 6b3d
00000130: 0cfd aebc 2728 20bc b4c9 82bc b9ab 5e3c
00000140: b80a 78bd f583 37bd 51f1 ac3d e4cb a13d
00000150: 8f95 8cbc 11a2 42bd a6e2 f6bb 1d76 b63c
00000160: 7974 963d 76ee 59bd 2c88 153d e618 dbbd
00000170: be1a 003d d4ae 27bd 15d7 3cbc 4b4a a63d
00000180: 7387 ef3c 61e3 7b3d 2989 513d c333 53bd
00000190: 154d 06bd 210f a83d cc36 643d 7179 0abb
000001a0: 9f33 923d b7c1 dbbd 95c9 8dbc ec09 623d
000001b0: 5b10 393c bbae d33d 7302 f7bc ef4e adbd
000001c0: 590a 803c 4d95 833d fba2 8c3d 95d5 8abd
000001d0: 1780 09bd 50dd ed3b 6816 ebbd 1be4 adbd
000001e0: b607 c13c cdf7 85bd c3b2 3739 55d6 b9bd
000001f0: de56 c53d 88de 643d 2b08 d9bc 92ee c5bd
00000200: d51d 093d 4311 863d 08ca 943d d73f 0dbd
00000210: 4c5f 7bbd 488c 39bd 091c bc3d f16d 683d
00000220: 5e5c b4bd 2882 7b3d ba40 65bd 6471 86b6
00000230: 876d d3bb 9ea5 eb3a c5d9 9d3c 24bc 60bd
00000240: 0d73 c73d d546 023d f349 3a3d f320 a1bd
00000250: f76b 7dbb 7a27 47bd 8143 bdbd 1556 86bd
00000260: 27f5 1cbd 0833 85bb d65b 843c 0958 7b3d
00000270: 59e9 a43b bb08 0dbd 5f76 b6bd 5494 cfbc
00000280: 03f4 333d 25f3 c6bc c425 a9bc 5fe5 2a3d
00000290: bc1e f2bc c202 813d c09e b8bd 3295 b9bd
000002a0: 92f1 363d 6539 03bd b538 1fbd 736d 373d
000002b0: 1247 d9bd 4c90 96bd 55b0 2c3b bfd4 7fbd
000002c0: 85fb b1bc fb6e 493d db55 ab3d a210 433c
000002d0: 73b6 c4bd 2fc4 883d 1627 0a3c 9ce7 5dbd
000002e0: 4b11 0a3d edc3 9cbc 7aa8 74bd 5143 bfbc
000002f0: b21b 09bd d397 d8bc 4f33 2ebd d3de 36bd
00000300: ef99 7c3d 4320 d2bd 10e7 67bc b53e ac3d
00000310: 170e d13d e80c 873d caa3 58bb 75e6 b8bd
00000320: cbfa dc3d 6d65 c83a be8d 3fbb 8b9e 863d
00000330: b8e1 9ebd 3d2a 683a 9915 6ebd b886 a6bb
00000340: dd06 943c 223f 153c fffd 393d 4095 2bbd
00000350: 062d 5dbd 09b5 aebd 7b0c 353d 6719 d83d
00000360: bfc5 acbd 873e 85bc 92c5 aa3d 5abc 6b3c
00000370: 14a4 22bd 0066 3b3d 34da 07bd 9acd 803d
00000380: 547a 463d 7c1c 83bd 9c37 99bd a69a 303d
00000390: 1c82 6abd 2a68 603c bd18 b03b 0a83 63bd
000003a0: fc20 0ebd aa04 b53d 2f63 a73d 8a7f 9abd
000003b0: abce b6bd 97f8 95bd 9129 593d 9002 a2bd
000003c0: 45e7 a23d caaa 843d d8f5 c5bc 1383 71bd
000003d0: 5f19 69bd 572f 9a3c a1d6 25bc a8a8 b2bd
000003e0: 930b 9b3d e34c b1bb 5317 37bd 0ff0 d03d
000003f0: 5d3d e33c ac8a 013d 18fc 293d 322b 073d

residual_layers.1.conv2.bias f4 [32]
0.034598265 -0.08467714 -0.08472476 0.090194836 -0.09737285 0.08147186 0.03945881 -0.07348583
-0.052966584 -0.08798187 0.0056245513 0.077512525 -0.04180981 -0.023347294 -0.01556511 0.041266676
0.01938979 0.07461075 -0.07949933 0.055923574 -0.014669296 0.10183378 0.04851545 -0.013757873
-0.09987534 -0.0661806 0.07876518 -0.058421016 0.09907838 -0.0029218881 -0.09229374 -0.09685946
00000000: e9b6 0d3d 356b adbd 2d84 adbd 12b8 b83d
00000010: 6b6b c7bd b8da a63d 909f 213d bd7f 96bd
00000020: 7df3 58bd d72f b4bd 284e b83b e3be 9e3d
00000030: c340 2bbd d342 bfbc ce04 7fbc 3f07 293d
00000040: 56d7 9e3c 85cd 983d 8bd0 a2bd 1e10 653d
00000050: 7d57 70bc 3b8e d03d 23b8 463d b468 61bc
00000060: 718b ccbd b289 87bd a44f a13d e04a 6fbd
00000070: 9be9 ca3d 267d 3fbb 8004 bdbd 415e c6bd

residual_layers.1.bn2.weight f4 [32]
0.980353 1.0161974 0.99223423 0.99759114 0.98004806 0.9867104 0.9913053 0.9911672
0.9678978 0.97379506 1.0108713 1.0069506 0.9771306 1.0023779 0.97004926 0.97157276
0.9975235 0.9909649 0.97803986 1.0017323 0.99961966 0.99816376 1.0074893 0.9858154
1.0037206 0.97367156 1.0088072 1.0178758 0.9873777 0.98755795 1.0153902 0.99632424
00000000: 6af8 7a3f c212 823f 1003 7e3f 2262 7f3f
00000010: 6ee4 7a3f 0e99 7c3f 2fc6 7d3f 22bd 7d3f
00000020: 26c8 773f a24a 793f 3b64 813f c2e3 803f
00000030: 3b25 7a3f eb4d 803f 2655 783f feb8 783f
00000040: b35d 7f3f e0af 7d3f d260 7a3f c438 803f
00000050: 13e7 7f3f a987 7f3f 69f5 803f 665e 7c3f
00000060: eb79 803f 8a42 793f 9820 813f c149 823f
00000070: c9c4 7c3f 99d0 7c3f 4ef8 813f 1b0f 7f3f

residual_layers.1.bn2.bias f4 [32]
-0.021149773 0.014127634 -0.04326941 0.018106079 0.01385808 -0.027533023 -0.00837321 0.013574733
0.01776464 -0.0034610564 0.0053993016 -0.015230199 -0.015099183 -0.019394334 -0.0065384107 0.0093381815
-0.01048709 -0.01753706 -0.0029023306 -0.00790537 -0.007700535 -0.020175437 -0.00010287365 -0.013080501
-0.021619584 -0.018282713 -0.022166604 0.0050152657 0.010989025 -0.02731675 -0.008581051 -0.011109331
00000000: 4a42 adbc 9777 673c 443b 31bd 3353 943c
00000010: 000d 633c ef8c e1bc ca2f 09bc 8f68 5e3c
00000020: 2687 913c e4d2 62bb a0ec b03b 1688 79bc
00000030: 9062 77bc dee0 9ebc 2a40 d6bb 2cff 183c
00000040: 0bd2 2bbc e1a9 8fbc 0735 3ebb 8685 01bc
00000050: c554 fcbb f546 a5bc dfbd d7b8 994f 56bc
00000060: 8e1b b1bc a1c5 95bc bd96 b5bc 1957 a43b
00000070: 500b 343c 60c7 dfbc 8997 0cbc e903 36bc

residual_layers.1.bn2.running_mean f4 [32]
0.008367088 -0.37628755 -0.1553458 0.12600423 0.10509895 -0.09235997 0.14301392 -0.17986332
-0.14659035 -0.56818366 -0.6000065 0.3690718 0.08365991 0.20105179 0.072216034 -0.119016446
0.112761095 -0.042693697 -0.38834485 -0.1323027 0.116623625 0.0740203 0.41958204 -0.27658084
-0.011977234 0.18053472 0.1145634 -0.39188373 0.7409804 -0.5767571 0.36550492 -0.049314648
00000000: 1c16 093c c3a8 c0be f812 1fbe 4107 013e
00000010: 1e3e d73d 3927 bdbd 3e72 123e 172e 38be
00000020: c81b 16be 7c74 11bf 079a 19bf fbf6 bc3e
00000030: e355 ab3d 85e0 4d3e 00e6 933d e5be f3bd
00000040: 4aef e63d 96df 2ebd 23d5 c6be 5c7a 07be
00000050: 5ed8 ee3d f497 973d 75d3 d63e 019c 8dbe
00000060: 293c 44bc 18de 383e 37a0 ea3d fca4 c8be
00000070: e4b0 3d3f 5aa6 13bf 7623 bb3e 28fe 49bd
