ckpts/SpliceAI_SSD/Theobroma_cacao.pth (torch, 557423 bytes, 223 tensors)

conv1.weight f4 [32, 4, 3]
000000 1b 9c ce bd 86 de ba 3d 48 e4 4e bd be ab 40 3e
       -0.100883685 0.09124474 -0.050510675 0.18815514
000010 b6 25 4c 3e 34 3f 25 be a8 14 e6 bd 3d f0 91 3b
       0.1993626 -0.16137391 -0.112344086 0.0044536875
000020 fc 93 b4 3d 4d d6 90 be ca a2 2f 3d 22 35 cf 3d
       0.08817288 -0.282885 0.042879857 0.10117556
000030 9b d5 66 3e bb 58 13 be 06 02 74 3e 8b 56 63 be
       0.22542422 -0.14389317 0.23828897 -0.22200982
000040 a9 f6 ac 3c a0 19 57 bd 33 c8 04 3e 37 e4 44 be
       0.02111371 -0.052514672 0.12966995 -0.19227682
000050 5f 39 5d 3c d4 d0 46 bd 8b 11 0d be 3b b4 80 be
       0.013502448 -0.048538998 -0.13776223 -0.25137505
000060 4a bf 19 3e e7 51 2a 3d 12 34 88 3d a5 ac 92 bd
       0.15014377 0.041582014 0.066505566 -0.071618356
000070 d6 c6 78 3b 70 2b 75 3e 2b 01 95 be 49 1e 89 3d
       0.0037960312 0.23942351 -0.29102454 0.066952296
000080 9b af ff 3d e1 2f 4a be eb 8c be bd c5 6d d6 bd
       0.12484666 -0.19744827 -0.09304222 -0.104701556
000090 80 c1 69 be d2 67 8b 3e 77 4c a5 3c e6 40 cb bd
       -0.2282772 0.27227646 0.020178063 -0.09924488
0000a0 e3 06 8d 3e 64 61 3c 3e 23 f0 b4 bd 34 e8 33 3e
       0.27544317 0.18396527 -0.08834865 0.17569047
0000b0 b8 92 4e 3e f8 cf 2e 3c 7f ac 26 3e e4 5a 14 3e
       0.20173156 0.010669701 0.1627674 0.14487797
0000c0 98 cc 83 be 5f d5 a1 3d 9b f7 e0 3d 11 15 ab 3d
       -0.2574203 0.079020254 0.10984727 0.083536275
0000d0 95 08 e6 bd 53 f4 e9 3d 91 f6 85 be 84 a1 4f 3e
       -0.11232106 0.11423554 -0.26164678 0.20276457
0000e0 1b ab be bc ad c1 4c be 0d ec 79 3e 90 e0 c8 3c
       -0.023274949 -0.19995756 0.24406452 0.024521142
0000f0 b2 0b 5d bd 31 da ed bc 85 33 23 3e 82 8f ca bc
       -0.05396623 -0.029034706 0.15937622 -0.024726633
000100 b2 f4 c5 3d 29 3b eb bd 48 cb 4b 3e d5 72 57 be
       0.096658126 -0.11485893 0.19901764 -0.21039899
000110 c4 ba b9 bd 56 0e 8f be c7 de 89 3e f4 fa 3e be
       -0.09068826 -0.27940625 0.26927778 -0.18650419
000120 64 23 04 be 6c 9f 84 bd ee 07 90 be 34 e0 27 3e
       -0.12904125 -0.0647572 -0.2813105 0.1639412
000130 52 bb 7b be e0 62 48 be ae 29 8d be 4f c6 77 be
       -0.24583176 -0.19568968 -0.27570862 -0.24196742
000140 95 c4 03 3d 63 8b 1d be 19 ab 4f 3e 08 59 aa bd
       0.032169897 -0.15385203 0.20280112 -0.083177626
000150 fd ef 7f 3e 0f b8 95 bd 30 b8 50 bc 84 3e 37 be
       0.24993892 -0.07310497 -0.012739226 -0.17894942
000160 08 af 82 3e 28 45 a9 bd 22 bf 66 be e4 fa dd bd
       0.25524163 -0.08265144 -0.22533849 -0.10838869
000170 ac cb 71 3e 9b a3 1b bd 2a 26 80 3e b2 b7 2c 3d
       0.23612851 -0.037997823 0.25029117 0.042167373
000180 ce fa 3e 3e 25 af d2 bc bc 21 3a 3e 3a 46 e5 3d
       0.18650362 -0.025718281 0.18176931 0.11195035
000190 fc 5a b4 3d 36 56 fa bc 1a f0 8c 3d e6 7a 8a be
       0.088064164 -0.030558687 0.06881733 -0.2704689
0001a0 82 e2 93 bd 84 b4 9d bc aa 86 e6 3d bb 4c 3f 3e
       -0.07220937 -0.019251116 0.11256154 0.18681614
0001b0 89 96 8f 3d 0e 33 83 be 6d d4 ae bc 6f 58 1e be
       0.07011134 -0.2562489 -0.021341527 -0.15463422
0001c0 d8 04 9b 3b fa 25 43 be ca 51 34 3d 1b 91 1d 3e
       0.004730802 -0.19057456 0.044023313 0.15387385
0001d0 dd fc c5 bb 92 90 3f be 5e ae 21 be 13 1d af bd
       -0.0060421065 -0.18707493 -0.15789172 -0.08550467
0001e0 6e c0 9d 3d 0d 54 e7 bd 83 09 47 3e d1 af 44 3e
       0.07702719 -0.11295328 0.19437222 0.19207694
0001f0 d1 bb ce bd 51 3c c3 bd 41 06 21 3d 35 15 1f be
       -0.10094417 -0.09532989 0.039312605 -0.15535434
000200 52 82 74 3e 1e 16 8d 3e 58 b7 86 be 34 59 72 3e
       0.23877838 0.27555937 -0.26311755 0.23666841
000210 d6 e0 94 3d ef cb 20 3e 00 d6 93 3e 4d 65 13 3c
       0.072694466 0.15702794 0.28874207 0.00899632
000220 45 3b 52 be c7 03 02 be a9 fc c2 bc 4f a9 bf bd
       -0.20530422 -0.12696753 -0.023802118 -0.09358465
000230 67 c3 50 be fb 8e 50 be 1a a9 8f be 71 bd 6f be
       -0.2038704 -0.20367043 -0.28058702 -0.2341211
000240 07 52 2d 3e 78 4c 9e bd 75 2e 24 3e c7 6c cd 3a
       0.16925822 -0.07729429 0.16033347 0.0015672677
000250 e6 a0 2c bb f0 e3 03 be 38 8d 85 3e 1c af b9 bc
       -0.002634102 -0.1287992 0.26084304 -0.022666506
000260 fa 02 32 bd 67 5d 7e bd 86 a6 d7 bd 68 df 8c 3e
       -0.04345987 -0.062100794 -0.10529809 0.27514195
000270 bd 15 f1 3d ab 19 74 3e e3 63 7f bd 7b e3 0e 3e
       0.117717244 0.23837917 -0.06235112 0.13953964
000280 f0 b7 1b be 10 12 0d be 0f 19 7b 3e d6 dc db bd
       -0.15206885 -0.13776422 0.24521278 -0.107354805
000290 4f dd 87 3d 6e dd 39 3e ad f6 52 3e 24 66 76 bc
       0.06634008 0.18150875 0.20601912 -0.015039001
0002a0 73 29 e9 3d f0 ea 28 be 61 82 85 3e 21 5a 5f 3c
       0.11384859 -0.16495872 0.26076034 0.013632328
0002b0 00 a9 03 3d ce 7c 01 3e 7a c5 9f bd 7a cb 86 3e
       0.032143593 0.12645265 -0.078013375 0.26327115
0002c0 49 67 89 3e cc b5 06 3e ce b8 f8 bd 27 c0 a4 3d
       0.26836613 0.13155288 -0.12144624 0.08044463
0002d0 43 8d 3b be b4 cf f2 bd a6 bb 52 be 15 3f 3b be
       -0.18315606 -0.118560225 -0.20579395 -0.18285783
0002e0 75 dd a3 3d a4 88 08 be 96 ef 6c 3e 00 dc 23 be
       0.08001224 -0.13333374 0.2313827 -0.16001892
0002f0 e2 ad 20 be 0b 16 38 be b8 4c 3e be 54 20 15 3e
       -0.15691331 -0.17977159 -0.18583953 0.14563113
000300 db 80 7c 3e 3a 19 40 be 25 f2 20 3d c8 99 68 be
       0.2465853 -0.18759623 0.039293427 -0.22714913
000310 7c cc 30 3e da 96 68 be c4 be 40 be ed 31 70 be
       0.17265505 -0.22713795 -0.18822771 -0.23456545
000320 7b 6b f8 3d 37 22 eb bd 38 2c 5f be 6e f6 db 3d
       0.12129875 -0.11481135 -0.21794212 0.10740362
000330 05 99 29 3e 23 c6 45 be 11 31 62 bc ba 7f 50 be
       0.16562279 -0.19313864 -0.013805644 -0.20361224
000340 b4 47 6c 3e 95 4b 32 3e 24 4f f1 3d b3 7e 7a be
       0.23074228 0.17411645 0.11782673 -0.24462394
000350 ee bc 97 bd 92 51 75 3a 1f 3c 4d bd 55 f1 72 be
       -0.07409082 0.0009358163 -0.050106164 -0.23724873
000360 7a a2 10 be 4a 3c 2d be 16 2c 27 3e bf 76 47 3e
       -0.1412448 -0.1691753 0.16325411 0.19478892
000370 f6 25 30 bc 6b fd 8b be 5a 92 6e 3b 9b 3a 49 3e
       -0.010751238 -0.2734178 0.003640315 0.19651262
000380 10 fd 80 be e6 ea 8d 3d b3 f7 d2 bd 47 77 97 bd
       -0.2519307 0.06929569 -0.10301151 -0.07395797
000390 f9 1f 13 be 41 a3 a0 bc d5 8e 80 be 02 51 1f 3d
       -0.14367665 -0.019609096 -0.25108972 0.038895614
0003a0 04 b4 83 3e 58 7c 5a 3e 4f 08 85 be b4 62 72 3e
       0.2572328 0.21336496 -0.259829 0.23670465
0003b0 93 d1 95 be d6 8c 09 be ee fe 8a bd 55 82 bb bd
       -0.29261455 -0.13432631 -0.06786905 -0.09155718
0003c0 dd 46 30 be 5a b4 18 3e d4 5d 0e bd 53 27 4d be
       -0.17214532 0.14912549 -0.03475745 -0.20034532
0003d0 18 60 b9 3d 6c ec f8 bc 65 63 b3 bd 91 00 13 bb
       0.090515316 -0.030386172 -0.087591924 -0.0022430758
0003e0 3e b7 06 be 98 5c 15 bd 7a 84 95 bc 8b 6b 5f be
       -0.13155839 -0.036465257 -0.018251646 -0.21818368
0003f0 e8 47 84 3d 32 c1 6e 3d 53 e3 1d 3e 3b 98 6c be
       0.064590275 0.058289714 0.15418749 -0.23104946

conv1.bias f4 [32]
000000 6a 1b c0 bd 60 1e 71 be 41 82 77 be 41 ba 41 3e
       -0.09380229 -0.23546743 -0.24170782 0.18918706
000010 5f 70 65 3e 75 0f e3 3d 63 df 9b 3c 63 1c 7e be
       0.22406147 0.110869326 0.019027418 -0.24815516
000020 37 fe 8d be 08 44 66 3c 09 57 31 3e e1 da dd 3d
       -0.27733013 0.014054306 0.17318358 0.108327635
000030 2e 35 a6 bd 21 c3 29 be ae c0 84 be 82 87 25 bc
       -0.08115612 -0.16578342 -0.25928253 -0.010103108
000040 75 0e 94 3d 49 df 8a be 4b 7f cc 3b 9e 4a 72 3e
       0.0722932 -0.27123478 0.0062407604 0.23661277
000050 f0 3b 0f be d8 fa eb 3c 32 b0 2b be 6b 61 52 be
       -0.13987708 0.028806135 -0.16766432 -0.20544975
000060 89 26 6e 3e 3e 64 7e be 49 3f 6b be 59 f5 ed 3d
       0.23256887 -0.24842927 -0.2297336 0.11619062
000070 02 99 94 3d 25 94 19 3b 89 a9 73 3e 2f e0 8f be
       0.072557464 0.0023434248 0.23795141 -0.28100726

bn.weight f4 [32]
000000 6c 37 80 3f ae 49 7e 3f 90 21 7f 3f 14 71 80 3f
       1.0016913 0.99331176 0.9966059 1.0034509
000010 06 64 7f 3f 97 98 80 3f 70 96 7d 3f 8b 8b 7e 3f
       0.99762 1.0046567 0.99057674 0.99431676
000020 2a d3 80 3f 78 7b 7e 3f dd 92 80 3f e9 87 7f 3f
       1.0064442 0.9940715 1.0044819 0.9981676
000030 7f a0 7f 3f 51 94 80 3f f5 76 7f 3f 1f 26 7e 3f
       0.9985427 1.0045263 0.9979089 0.9927692
000040 32 d6 7e 3f c5 c2 7f 3f 0e 31 80 3f 5b f8 7f 3f
       0.99545586 0.9990657 1.001497 0.99988335
000050 4d 4c 80 3f 4c 52 80 3f ef f5 7e 3f 47 1f 7e 3f
       1.0023285 1.0025115 0.99594015 0.99266475
000060 8e 3e 80 3f ea 3f 7f 3f 3e 4e 80 3f 9a a7 80 3f
       1.001909 0.997069 1.0023878 1.0051148
000070 11 18 7d 3f 9b c1 7f 3f d2 74 7e 3f 3e 5a 7e 3f
       0.9886485 0.99904794 0.99397004 0.9935645

bn.bias f4 [32]
000000 82 1e e2 bb d8 8c cc b9 77 ed f3 3a ef 88 4c bc
       -0.0069006095 -0.0003901485 0.0018610199 -0.012483819
000010 6e 6a f6 3a 6f 9c 31 3a 5b 76 b0 ba 2d 08 80 bb
       0.0018800029 0.00067753246 -0.0013463007 -0.0039072246
000020 99 61 4a b8 ff c8 29 b9 cf 29 44 3c d5 24 9a 3b
       -4.8251448e-05 -0.00016191973 0.011972859 0.0047040978
000030 28 bb 19 bc 57 08 06 3c 9c 71 ce 3b 79 ba 9e ba
       -0.009383 0.008180699 0.0063001644 -0.0012110017
000040 8d 12 57 b9 b5 95 ca 3a 4d 3f d2 39 23 52 3f 3b
       -0.00020510909 0.0015455993 0.00040101484 0.0029193244
000050 d0 fb 62 3c 0e 58 78 3a 36 f4 82 bb c5 6a 37 bc
       0.013853982 0.00094735704 -0.0039963974 -0.011194889
000060 a2 f3 da 3a b0 4e c9 39 cc 55 4c 3a 9b ae 34 3b
       0.0016704688 0.00038396334 0.0007794767 0.0027569893
000070 63 92 42 bc 34 81 99 3b bd 5a a4 3b ba 2b 17 bc
       -0.011875722 0.0046845917 0.0050156997 -0.009226734

bn.running_mean f4 [32]
000000 f8 29 ef bd 6f 54 a7 be 12 cb 89 be 54 76 d9 3e
       -0.11677927 -0.32681605 -0.26912743 0.4247309
000010 09 c3 66 3e 2b 97 44 3d 89 17 8d be e2 92 0c be
       0.22535338 0.047995728 -0.27557018 -0.13727906
000020 81 50 d0 bd 4a 39 59 be cc b9 a3 3e b7 b5 8c bd
       -0.10171605 -0.2121326 0.3197769 -0.06870597
000030 01 88 25 3d 12 ee 44 3d 77 48 60 bd b3 79 96 be
       0.040412907 0.048078604 -0.054756608 -0.29389724
000040 cf 27 93 bd 70 a0 bd be 60 06 c9 bd c1 3d 67 3d
       -0.07185327 -0.37036467 -0.09815669 0.056455377
000050 ba 0f 9d be 82 19 4c 3e 4f eb 17 bd c9 9b 9b bd
       -0.3067606 0.19931605 -0.037089642 -0.07598073
000060 28 e4 74 3e cb 9d af be 25 55 e4 3c b7 b7 aa bb
       0.2391516 -0.34300074 0.027872631 -0.005209889
000070 3d 5f 9a 3e ec d5 f1 3b e3 5a 1c 3e 34 ae dc be
       0.30150786 0.007380238 0.15269046 -0.43101656

bn.running_var f4 [32]
000000 81 99 24 3d 37 19 90 3d 1d 26 4b 3d 99 d3 89 3c
       0.040185455 0.07036059 0.049596895 0.01682453
000010 b0 ad 02 3d 17 a5 8f 3d 32 6d 97 3d 7d df 8c 3d
       0.031903923 0.0701391 0.07393874 0.068785645
000020 6b 8d 21 3d 0b c2 25 3d c4 62 e3 3c 0c 42 e3 3d
       0.039441507 0.040468257 0.027757056 0.11096582
000030 a8 87 29 3d 01 dc 15 3d 61 52 1e 3d f1 65 69 3d
       0.041389138 0.036586765 0.03865278 0.056981985
000040 07 fe 8f 3d 7a 01 7e 3d de f6 6f 3d 6c 64 79 3d
       0.07030874 0.062013127 0.05858504 0.060886785
000050 fb 92 83 3c d7 87 4f 3d e2 53 10 3d 18 a4 8d 3d
       0.016061297 0.050666656 0.035236247 0.06916064
000060 53 78 76 3d 60 1c 25 3d a0 3b 7a 3d 58 ed 8a 3d
       0.060173344 0.040310264 0.06109202 0.06783551
000070 d0 6d 7b 3d b6 ba 3d 3d c2 1d b8 3d 85 4c 79 3d
       0.061384022 0.04632064 0.08990051 0.06086399

residual_layers.0.conv1.weight f4 [32, 32, 3]
000000 a0 48 09 3d 4b 61 da bc 9a 30 88 3d 2b 3b a5 bd
       0.033516526 -0.026657721 0.06649895 -0.08067926
000010 0a 4d 08 bc 72 6a d9 3c 93 e0 98 bd 0c 01 33 3d
       -0.008319149 0.026540015 -0.07464709 0.04370217
000020 4f 6d 6c 3d 3a 30 14 3d 70 95 93 3d 7a d2 3e 3c
       0.057721432 0.036178805 0.07206237 0.011646861
000030 86 b0 83 bc 5b ab b3 3c 61 d0 88 bd d6 e3 22 bd
       -0.016075384 0.021932295 -0.0668037 -0.039768063
000040 c5 46 90 3d 24 74 20 bd 16 9b 89 3d 47 9a c1 3d
       0.07044748 -0.03917326 0.067190334 0.09453254
000050 ca af 91 3d 68 d2 36 bd 63 2f ab 3b 6c 6d dd bd
       0.07113607 -0.044634253 0.005224155 -0.10811886
000060 b4 94 1a bd fc 04 c2 bc 21 3c ad bd ea a6 a0 bc
       -0.03773947 -0.023684017 -0.08458734 -0.01961084
000070 3a f7 f5 3c 0d 57 89 3d 5f 7f 6d 3d 23 99 40 bc
       0.030025113 0.06706057 0.0579828 -0.011755261
000080 41 6b d8 bd 1c f0 89 3d b7 73 0b bd 2f d2 9f bc
       -0.10567332 0.0673525 -0.0340459 -0.019509403
000090 52 7a 9b bd 44 06 00 bd 29 46 fd bc 7d 01 66 3c
       -0.0759169 -0.031255975 -0.030917244 0.014038441
0000a0 a7 c2 5d 3d 3c b0 98 bd dd 7a 48 bc 74 79 7b 3d
       0.054140713 -0.07455489 -0.012236324 0.061395124
0000b0 c8 85 6f bc 19 14 c7 3d 4f 19 fb bc f8 4c 96 3c
       -0.014619298 0.0972063 -0.030651717 0.018347248
0000c0 7e fc e4 bc db c8 87 bd 69 44 8c bd 64 c8 76 bd
       -0.027952429 -0.06630107 -0.06848986 -0.0602497
0000d0 e6 70 cd bd f6 c9 e0 bc 23 99 27 3c 6b 13 d5 3d
       -0.10031299 -0.027440052 0.010229382 0.10404094
0000e0 c9 56 7b 3d 31 68 af 3b 20 70 15 bd b0 32 80 bd
       0.06136206 0.0053529968 -0.036483884 -0.06259668
0000f0 25 66 62 3d e0 e2 5d 3d 75 39 5c 3d 4e f9 a5 bd
       0.055273194 0.054171443 0.053765733 -0.08104192
000100 63 85 b0 3d fa 5c 4a bb 6d 55 0c bd 85 cb 21 3c
       0.086191915 -0.0030878172 -0.034261156 0.009875183
000110 c9 d4 3d 3d 5b d8 9f 3d b6 b5 30 3d 52 d4 bf 3d
       0.046345506 0.078049384 0.043142043 0.09366669
000120 75 e6 94 3c bc d5 88 3d 18 ba 3b 3d cf 3c a6 bc
       0.018176297 0.066813916 0.04583177 -0.020292668
000130 76 99 52 3c 4a 79 8c 3d 7f 8f b6 bd 66 3c 4a 3d
       0.012853971 0.068590716 -0.089140885 0.049374007
000140 6d d0 df 3d cd 25 21 bc de 5a 81 bd 16 ee 35 3d
       0.10928426 -0.009835673 -0.0631616 0.04441651
000150 17 e4 de 3c c8 e4 22 3d 1e 21 c7 bc b1 7e 7a bd
       0.027208371 0.039768964 -0.024307784 -0.06115598
000160 8b f6 80 3d b8 7c be bd 32 c5 87 bd 64 18 76 bd
       0.06297024 -0.09301132 -0.06629409 -0.060081854
000170 8d e9 99 bb fd 71 80 bd 08 8a be 3d 03 05 81 bd
       -0.004697031 -0.062717415 0.09303671 -0.06299784
000180 85 92 b8 3b a6 5b f2 3c 37 a8 bb 3c 11 7f 65 3d
       0.005632701 0.029584717 0.02290736 0.056029383
000190 78 07 70 3b 74 93 72 bc 5d 51 8f 3d 17 d1 dd 3c
       0.0036625545 -0.014805663 0.06997941 0.02707724
0001a0 bd 0c 8a bd ef af 46 3c e8 c5 4d bd 18 aa 82 bc
       -0.06740711 0.012126907 -0.050237566 -0.015950248
0001b0 10 40 c4 bd a7 10 10 3d 04 94 a4 3d 91 47 fd 3c
       -0.095825315 0.03517213 0.08036044 0.030917915
0001c0 59 ef 0d 3d 3b cb a2 bc 61 98 b8 ba 77 9d c9 bd
       0.034652088 -0.019872298 -0.0014083498 -0.09844487
0001d0 8d 40 bb bd cc 6d cd 3d 4a a8 74 3d d9 93 e0 bc
       -0.091431715 0.10030708 0.059730805 -0.02741425
0001e0 19 9b 8b 3d 58 c3 81 bc cc f9 41 bd 92 4d a0 3c
       0.06816692 -0.015840217 -0.047357365 0.019568238
0001f0 18 af a0 3d 05 ba 87 3d f7 84 c9 3d 27 a4 89 3d
       0.078458965 0.06627277 0.09839814 0.06720763
000200 23 40 b4 bc ef ab 99 3d 84 bc b3 3d 64 af 8b 3d
       -0.022003239 0.07503497 0.08776191 0.068205625
000210 db 28 53 bc 3e 94 82 3d 0f b8 b9 bc 4b d2 5a bd
       -0.012888159 0.06375931 -0.022670774 -0.053423207
000220 b9 e7 86 bd b3 24 af 3d 2b 63 b6 bd a2 c1 bb 3d
       -0.06587166 0.08551922 -0.089056335 0.09167792
000230 e9 f7 36 3d d5 25 8d bd 4b 1d 3d bd f7 27 2d 3d
       0.04467002 -0.068919815 -0.046170514 0.04227444
000240 c7 c7 1d 3d 48 dc 91 3d 48 7d 3e 3d 38 b2 2b bd
       0.0385206 0.071220934 0.046506196 -0.04191801
000250 b4 6c 2e bd dd 9d 21 bd 8f db 07 bc f2 93 3a bd
       -0.042584136 -0.03945719 -0.008292093 -0.045551248
000260 a7 41 65 3d c6 7a 05 3d fe 15 a8 3d c5 27 b9 3d
       0.055970814 0.03258779 0.0820732 0.090407886
000270 6d b3 f6 bc c7 8f a9 bd cb e6 0b bd 75 7d ff bc
       -0.030114854 -0.082793765 -0.03415565 -0.031187752
000280 b0 35 ca bc 62 08 3d bd 1f a2 90 bc 83 09 93 3b
       -0.024683803 -0.046150573 -0.01765543 0.004487218
000290 2b c4 f4 bc 36 b0 87 3c cc 4a ad bc 42 b8 84 3d
       -0.029878696 0.016563516 -0.02115383 0.06480457
0002a0 50 b1 b2 bd 11 57 14 bd 7c 61 13 bb f1 7f 00 3d
       -0.08725226 -0.036215845 -0.0022488525 0.031372014
0002b0 80 39 35 3d a4 9d 89 bd c7 ea d2 bc 4f 33 5f bd
       0.04424429 -0.06719521 -0.025746716 -0.05449229
0002c0 28 1b b6 bd 7f 23 e7 bb 75 af 12 bd 2c 12 98 bd
       -0.088918984 -0.007053792 -0.03581186 -0.07425341
0002d0 4d 2a ca 3d 91 e9 16 bd a6 c6 e9 bc 41 90 2e bd
       0.098713495 -0.03684384 -0.028537106 -0.04261804
0002e0 92 2a 48 bd 5d 06 18 3d df 60 e2 3b 2f e2 76 bd
       -0.048868723 0.037115443 0.0069085206 -0.0602743
0002f0 1c a2 2a bd c3 49 a6 bd 95 0d 02 bb a6 15 0b 3d
       -0.041658506 -0.08119538 -0.0019844521 0.033956192
000300 14 d2 a3 bd cf 29 63 bb fa 95 9e bd 07 c2 79 bd
       -0.079990536 -0.003466237 -0.077434495 -0.060976055
000310 66 83 92 bd 76 1b 96 3c 92 37 9a bd a9 53 24 3c
       -0.071539685 0.018323641 -0.075301304 0.010029712
000320 ed e3 20 3d bf 20 9b bd 0f f6 1a bd fe 60 a8 3d
       0.039279867 -0.07574605 -0.037832316 0.08221625
000330 08 c7 88 bd 82 81 5b 3d 7b 28 c3 bd 2b e4 9b bb
       -0.06678587 0.053590305 -0.095292054 -0.0047574244
000340 54 5d 53 3d c6 50 43 3d c1 b6 8c 3d de 30 cb 3d
       0.051602677 0.047684453 0.06870795 0.0992143
000350 b3 2d cf bd 51 aa ca 3c 4e 58 87 bd 91 ad 8a bd
       -0.10116138 0.024739416 -0.0660864 -0.067713864
000360 d2 11 7f 3a 99 44 c6 bd e0 65 56 bd fc 25 a1 bb
       0.00097301335 -0.09681053 -0.05234325 -0.004917858
000370 74 68 b0 bd 36 9c 96 bc ba a2 fa 3c ef 6b 2c 3d
       -0.08613673 -0.018385034 0.030595172 0.04209512
000380 4b 36 7a 3d bf 31 5e 3c 07 7a 61 3d b6 90 44 3d
       0.061086934 0.013561665 0.055048015 0.04798957
000390 c6 bd 52 3d 01 a3 ce 3b 09 20 90 3b ae d5 50 bc
       0.051450513 0.0063060527 0.00439835 -0.012746258
0003a0 68 30 18 3c db c9 d3 bb e6 c3 18 3d 9f 52 3e 3d
       0.009288885 -0.006463272 0.0372962 0.046465512
0003b0 ab 07 83 3d d9 89 c1 3c a3 1f 89 3d 3b eb ad 3d
       0.06397947 0.023625301 0.06695487 0.08492132
0003c0 f3 da f3 bc 53 a0 a1 bd 5d a7 82 bd 0b c2 2a 3d
       -0.029767489 -0.078919075 -0.06379578 0.04168896
0003d0 31 97 a4 3d fd e5 cf 3d eb 9f 8b 3d f5 bf a1 3d
       0.0803665 0.10151289 0.06817611 0.07897941
0003e0 80 48 fd 3c bb 13 98 3d 04 19 ca bc 5a ce ac bd
       0.03091836 0.07425638 -0.024670132 -0.08437796
0003f0 82 22 95 3d c8 78 fb 3c 8f b7 2d bd a0 1c 48 bd
       0.072819725 0.030697241 -0.042411383 -0.048855424

residual_layers.0.conv1.bias f4 [32]
000000 aa 2e b5 bd fc 0e 3d bd 2a 47 30 bd 36 38 cd bc
       -0.08846791 -0.04615687 -0.043036617 -0.025051218
000010 ce 84 1a 3d 5c c2 a1 3d 6a 13 a4 3d f4 94 80 bd
       0.03772431 0.07898399 0.080115154 -0.062784106
000020 33 6d 99 3c da 27 c2 bd b9 ac 66 bd 48 46 1e bd
       0.018728828 -0.09480257 -0.056317065 -0.038641244
000030 d5 3c 96 bd 36 ee bb 3d ee 09 0b 3d 36 b8 08 bd
       -0.073358215 0.091762945 0.033945017 -0.033378802
000040 7e d3 45 3d 68 92 68 bd e7 99 21 3d 2f a1 09 bd
       0.048297398 -0.05678025 0.039453413 -0.033600982
000050 90 f1 fe bc 57 ae 90 3d 21 61 b6 3d ac 22 a2 bc
       -0.031121045 0.07064503 0.089052446 -0.019791923
000060 a3 dc 81 bc f3 a5 52 bd 08 5f c2 bc 0b 13 77 bd
       -0.015852278 -0.051427793 -0.023726955 -0.060320895
000070 c7 d1 ee bc e6 ca a6 3d 35 25 b6 bc 2b 67 97 3d
       -0.029152764 0.081441686 -0.022234539 0.073927246

residual_layers.0.bn1.weight f4 [32]
000000 dc 94 80 3f 2d ba 7e 3f ea 6c 7e 3f 16 24 81 3f
       1.0045428 0.9950283 0.9938494 1.0089138
000010 3a c1 80 3f 2e 57 7f 3f 41 cb 80 3f 9f d0 80 3f
       1.0058968 0.997424 1.0062028 1.0063666
000020 a0 ae 7f 3f ee 0f 80 3f a7 b5 7e 3f 74 37 80 3f
       0.9987583 1.0004861 0.9949593 1.0016923
000030 4d 7e 80 3f 75 fd 7d 3f e7 fc 7f 3f fc dd 7f 3f
       1.0038544 0.9921487 0.99995273 0.99948096
000040 c0 7a 7f 3f ca df 7f 3f cb 48 7e 3f 81 5a 80 3f
       0.99796677 0.9995085 0.99329823 1.002762
000050 57 cc 7e 3f 8b 35 7f 3f e8 f4 7f 3f a0 2f 7f 3f
       0.9953055 0.99691075 0.9998307 0.99682045
000060 68 6b 7f 3f 33 b2 80 3f 39 21 7f 3f d7 e8 7d 3f
       0.99773264 1.0054382 0.9966007 0.9918341
000070 f9 22 80 3f c1 0d 80 3f d7 db 80 3f bf 74 80 3f
       1.0010673 1.0004197 1.006709 1.0035628

residual_layers.0.bn1.bias f4 [32]
000000 be df a5 3b 4e 16 45 bc 4c 90 dc 3a 9c 20 52 bb
       0.0050620725 -0.012029244 0.0016827672 -0.0032062894
000010 d9 96 bd 37 a5 db 0f 3c 2c ba 39 3c bb 7c 12 bc
       2.26008e-05 0.008780395 0.011335891 -0.008940871
000020 f3 c7 12 bb 47 fb f8 bb a3 02 34 bb 50 06 33 bc
       -0.002239701 -0.007598314 -0.0027467392 -0.010926798
000030 55 c3 02 bc 21 1f 5b bc 8c 6a 09 3c 93 04 75 bb
       -0.007981141 -0.013374121 0.008387219 -0.003738676
000040 ac 7c 0b bc 73 29 93 3b 09 c8 b1 ba 1c 7d 8f 3c
       -0.008513611 0.004491025 -0.0013563643 0.017515711
000050 91 18 81 bb 15 14 45 3a 0f b0 1f bc e0 67 26 3c
       -0.003939696 0.0007517946 -0.0097465655 0.010156602
000060 a0 ec 17 3c 63 24 45 3c 06 0f 8a 39 a6 89 c5 bb
       0.009272724 0.012032601 0.00026332604 -0.006028372
000070 15 de 12 bc 99 d9 9e 3b 64 8d 79 3b 87 72 38 3c
       -0.008964081 0.004847717 0.003807866 0.011257774

residual_layers.0.bn1.running_mean f4 [32]
000000 2b c3 be bb 70 3e 1a bd 3a 18 23 3e 1c 22 8c 3d
       -0.0058216057 -0.0376572 0.1592721 0.06842443
000010 24 c5 ab bd 30 94 08 3e b3 0f 14 3c 5a 82 7e 3e
       -0.08387211 0.13337779 0.009036946 0.24854413
000020 ff 3d ca 3e 55 41 9a 3d 50 36 72 bd 6a 60 47 be
       0.39500424 0.07531992 -0.059133828 -0.19470373
000030 b1 49 80 3e 98 53 81 3e b9 5a 90 3e 5a 74 3e 3e
       0.25056222 0.2525909 0.28194216 0.18599072
000040 b1 63 99 3e b1 2e 21 3e f3 b4 36 3d b7 54 17 be
       0.2995887 0.15740468 0.04460616 -0.1477841
000050 17 03 8d 3d c9 63 88 bd 26 99 c6 3d 09 45 46 3e
       0.06885355 -0.066596575 0.096971795 0.19362272
000060 14 4e ea 3d c4 69 8b 3e 87 a7 b4 be fa 0c 09 be
       0.114406735 0.2722913 -0.35284063 -0.13383856
000070 85 65 30 be a7 43 24 bd 32 6c c1 bd 58 60 62 3e
       -0.17226227 -0.04010358 -0.09444465 0.22107065

residual_layers.0.bn1.running_var f4 [32]
000000 c9 36 1b 3e 4f 65 e0 3d c7 7c 29 3e b4 ac 04 3e
       0.15157618 0.10956823 0.16551505 0.12956506
000010 ef ae b4 3d 11 9a 08 3e 25 5b b6 3d 1b bf 06 3e
       0.088224284 0.13340022 0.08904103 0.13158838
000020 51 34 f6 3d 2d ae c5 3d 67 8b c8 3d 4f 0b d4 3d
       0.12021697 0.09652362 0.09792214 0.103537194
000030 48 ad 3c 3e d5 d6 d8 3d 0c e3 ad 3d 2e a6 db 3d
       0.18425477 0.10587851 0.084905714 0.10725056
000040 8a 9a c9 3d f9 86 a7 3d cd 3e ad 3d 31 55 0c 3e
       0.09843929 0.08180041 0.08459244 0.13704373
000050 ac 7b a9 3d 8a 9c ec 3d 22 ea 95 3d 0e d8 63 3d
       0.08275542 0.11553295 0.07320048 0.055625968
000060 a0 ce 06 3e bf f2 07 3e 49 d5 3e 3e 93 f2 c0 3d
       0.13164759 0.13276194 0.1863605 0.09421267
000070 c3 70 c2 3d e4 cd c8 3d d9 6b c6 3d 19 d6 00 3e
       0.09494164 0.098048955 0.09688539 0.12581672

residual_layers.0.conv2.weight f4 [32, 32, 3]
000000 2c bb a5 bd 03 a6 ca bd f9 1e 8c 3c 9f 52 d5 bb
       -0.08092341 -0.098949455 0.017104613 -0.0065100933
000010 35 1d dd 3c b8 a0 8b bc 6c 7c b7 3d c2 bd bb bd
       0.026991466 -0.01704441 0.089592785 -0.09167053
000020 3e cd 7e bd fa 86 c5 bc 45 4c 2b bd 2f 9e c0 bd
       -0.062207453 -0.024112213 -0.041820783 -0.09405171
000030 6a b0 e8 3c 63 37 75 bb 98 a5 44 3d 69 52 35 bd
       0.028404433 -0.0037417046 0.048009485 -0.044268046
000040 2c a4 c2 bd 15 9f 8c 3c b4 8a 7d bd 00 a4 b7 3d
       -0.095039696 0.0171657 -0.061899856 0.089668274
000050 40 b2 2d 3d 3b cd bf 3d 03 62 fb ba 41 c9 7e bd
       0.04240632 0.093653165 -0.001917899 -0.06220365
000060 ea 7e 9c bd 18 97 aa bd 14 d5 ae bd 0b 05 d3 bd
       -0.076413944 -0.083296 -0.08536735 -0.10303696
000070 35 34 9c 3c 4b 42 ee 3b f5 8a 9a bd 04 09 b3 bd
       0.019067863 0.0072710863 -0.07546035 -0.08741954
000080 9f 18 83 3d a7 7e 88 bd 61 c0 9d bd aa e9 c1 bd
       0.064011805 -0.06664782 -0.07702709 -0.09468396
000090 40 c0 84 3d cb 4f 9e bc 0d 86 b3 bd 54 46 05 3d
       0.06481981 -0.019325158 -0.087658025 0.032537773
0000a0 4e 0a 91 3c a3 a8 70 bd eb 93 19 bd 8c 4c 11 3d
       0.017705109 -0.058754575 -0.03749458 0.03547339
0000b0 a5 1a bf 3d ed 07 89 bd 5c 39 ba bd 42 50 b8 bd
       0.09331254 -0.06690965 -0.09092972 -0.08999683
0000c0 18 32 80 3d 46 1f 74 bd b5 54 16 bd 50 07 12 bd
       0.062595546 -0.059600137 -0.036701877 -0.035651505
0000d0 2f e3 b0 bd ba 1c 98 bc 65 5f 0d 3b ab a2 c4 3d
       -0.08637082 -0.018568385 0.0021571752 0.09601339
0000e0 43 dc 4c 3d 32 48 2e bd 1e 46 b7 bd 1b 3d 49 bd
       0.050014745 -0.04254932 -0.08948921 -0.04913054
0000f0 1d de 5d bb a7 be 84 3d 9a 17 cf 3c 27 b4 ab 3d
       -0.0033854314 0.064816765 0.025279809 0.08383971
000100 99 b4 94 3c fd 4e 89 3c 90 35 2f 3d 14 ab 99 3d
       0.018152522 0.016761297 0.04277569 0.07503334
000110 de 66 44 3c e0 39 c8 3d 07 1e 58 bd f7 51 68 bd
       0.011987416 0.09776664 -0.05276301 -0.056718793
000120 c9 ee 5c 3d 4f 90 0d bc 25 37 fc bc 18 be 81 3b
       0.05393866 -0.008640363 -0.030788014 0.0039594285
000130 38 d2 98 3d 7e 3f 0b 3d 6a 08 a5 bd d6 2e 43 3d
       0.07461971 0.033996098 -0.080582455 0.047652088
000140 92 0f 39 3d 46 9d c6 bd 98 3b c7 3c 5e 1b 8b bd
       0.045180865 -0.09697966 0.024320409 -0.06792329
000150 82 04 1c 3d c3 b7 7b 3d 8e 00 b4 3d 18 a8 bc 3d
       0.038090236 0.061454546 0.08789168 0.09211749
000160 b0 3c 9e 3d f2 2a 22 3d 5a e4 33 3d 72 64 52 3d
       0.07726419 0.039591737 0.043918945 0.051365323
000170 0f b7 d6 3c a5 73 84 bd 73 be e5 3c 7e cb 30 3d
       0.026210336 -0.0646737 0.028044915 0.043162815
000180 2e ef b7 bd 40 9e a5 3d bb 13 a7 bd a6 12 67 3d
       -0.08981167 0.080868244 -0.0815806 0.05641427
000190 43 61 46 3c 0a 43 9d bd f0 ae 70 3d 42 d1 c9 bc
       0.01210815 -0.07678802 0.058760583 -0.024635915
0001a0 23 55 97 3d aa a0 58 bc 3e 2d 37 bd 4d f6 43 ba
       0.073892854 -0.013221899 -0.04472088 -0.00074753613
0001b0 12 52 ac bc 20 38 a3 3a 3b 5d 8c 3d 72 47 b6 3d
       -0.021035228 0.001245264 0.0685372 0.08900346
0001c0 e4 8a 89 3d 77 32 b0 3d a4 2f a7 bd 4f b3 7c bd
       0.067159444 0.086033754 -0.081633836 -0.06169444
0001d0 d9 a9 81 3c 1e c7 57 3d 28 19 05 bc e8 23 be bd
       0.01582806 0.052680127 -0.0081236735 -0.09284192
0001e0 8e 9c 5c 3d c4 40 06 bb 3b e8 6b bd 11 69 81 3d
       0.05386024 -0.002048538 -0.05759452 0.06318868
0001f0 33 be 95 bb 5e 60 a1 3d 59 d8 a1 bd 9d 25 fc 3c
       -0.0045697927 0.07879709 -0.07902593 0.030779654
000200 e6 97 a3 bd de 5c d6 bd a4 84 d6 3c 42 8b 96 bd
       -0.07987957 -0.10466932 0.026186295 -0.0735078
000210 21 d5 7c bd 8f 4e 31 3d 42 ff 9c bd ad e1 9e bd
       -0.061726693 0.04328781 -0.07665874 -0.07757888
000220 7b f1 b0 3d 59 64 d2 bb 1d c8 c1 3d e9 76 3b bd
       0.08639809 -0.006420654 0.09461997 -0.0457677
000230 cd 6d 74 3c 65 f2 85 3c 05 37 16 bd 83 0f 05 bd
       0.014918757 0.016350934 -0.036673564 -0.032485496
000240 c7 2a 91 bd aa b8 bb bd 5a ca 83 3d 35 3b b5 3d
       -0.07088237 -0.09166081 0.0643508 0.088491835
000250 18 e1 36 bc 38 fd bc bd 01 1f 59 3c 9a 88 c7 3d
       -0.011162065 -0.09227985 0.013252021 0.097428516
000260 58 94 3e bc 1b db 30 bd 44 eb 97 3d 09 07 57 bd
       -0.011632048 -0.043177705 0.0741792 -0.052496944
000270 2f 9f c3 3c 47 f6 c2 3d 82 95 01 3d 13 21 bb 3c
       0.023879616 0.0951963 0.031636722 0.02284292
000280 8e c6 88 3d 25 b6 64 bd e5 c7 89 bd fc 8d 8d 3d
       0.06678496 -0.05583777 -0.0672758 0.06911847
000290 eb a9 92 3d 65 1f 83 bd db 6e 6b 3d 68 0f d0 bc
       0.071613155 -0.064024724 0.057478767 -0.025397971
0002a0 4d 73 29 bd a3 e1 03 bd fe 8b 8f bb 64 c8 da 3b
       -0.041369725 -0.032197606 -0.004380702 0.0066767205
0002b0 09 c7 9e 3c c8 95 3c 3c 20 cc e7 3c 05 c9 ca bc
       0.019382017 0.01151032 0.028295577 -0.024754057
0002c0 3e 61 b2 3d 98 c0 17 bd 2c 52 60 bc 68 c1 cc 3b
       0.08709954 -0.037048906 -0.013691466 0.0062486418
0002d0 88 89 5f 3d fa ea 99 bd c9 39 9a bd c3 d8 ba bd
       0.05457452 -0.07515521 -0.07530553 -0.09123375
0002e0 10 11 30 bc f7 33 71 3d b5 a5 7a bc be 04 ca 3d
       -0.0107462555 0.05888745 -0.015298297 0.09864186
0002f0 9e 84 89 3d 5b f2 ba bd 95 c4 9f bd 9e 86 ce bc
       0.06714748 -0.09128257 -0.07801167 -0.025210675
000300 4d 7f 9a 3d 43 59 49 3d 56 7c 4f 3b 35 14 1f bd
       0.07543812 0.049157392 0.0031659803 -0.03883763
000310 b9 fa a7 3d 7f f6 01 3d dd 66 f3 bb b2 d0 8f 3b
       0.082021184 0.031729218 -0.0074280337 0.004388892
000320 d1 26 8a 3d e4 eb 31 3d 84 9b d6 bc b3 d5 c0 bc
       0.06745685 0.043437853 -0.026197203 -0.0235394
000330 b2 49 97 3d 55 cb fa 3c b5 b5 1d 3c 30 af 80 3d
       0.07387103 0.030614534 0.009625842 0.06283414
000340 62 00 c5 bd 40 20 77 bc 5e b7 97 3d 64 ec a0 bd
       -0.09619214 -0.015083373 0.074080214 -0.07857588
000350 11 55 80 3c ce 43 e3 3c b5 a7 9a bd 74 88 4d bd
       0.015665563 0.027742293 -0.07551519 -0.05017896
000360 46 96 bf 3b 8a b1 5a bd 1b 32 74 bc 5a 5b e8 bc
       0.0058467714 -0.05339197 -0.014904524 -0.028363872
000370 e7 30 35 bd 85 34 e0 3d 66 18 9f bd 87 fb 90 bd
       -0.04423609 0.10947517 -0.077683255 -0.07079225
000380 09 5b 86 3d 75 20 17 bd b1 c8 c5 3c 03 16 9b bd
       0.06560332 -0.036896188 0.024143549 -0.07572558
000390 54 23 0d bd 1d 1e 93 bc 3f 5c fc 3c e4 21 9d bd
       -0.03445752 -0.017958695 0.030805705 -0.0767248
0003a0 cc 5b 16 bd 77 d3 32 3d 00 3f 81 3c 3e 46 4f 3d
       -0.036708638 0.0436587 0.015777111 0.050604098
0003b0 78 bf 40 bd 91 f5 64 bc 91 c3 7b 3d ef 04 87 bd
       -0.0470576 -0.013974563 0.061465804 -0.06592738
0003c0 5a 13 c1 3c 52 5d fc bc ff 77 5d 3d 03 4f 3e bc
       0.023568798 -0.030806217 0.054069515 -0.011615518
0003d0 da 87 bf bd fc 79 4f 3d 43 18 0b bd 59 16 75 bd
       -0.093520835 0.050653443 -0.033958685 -0.059835766
0003e0 2d bd cb 3d fb a3 7b bd 84 75 19 bd a7 d4 59 bb
       0.09948192 -0.06143568 -0.037465587 -0.0033238323
0003f0 16 f3 b5 3d e1 12 83 bd 93 c2 6e 3d c2 ae eb bc
       0.088842556 -0.06400085 0.05829103 -0.028769854

residual_layers.0.conv2.bias f4 [32]
000000 a2 fd 2f bd 36 f7 70 3d ed 62 9f 3a ca 77 16 3d
       -0.042966492 0.05882951 0.001216022 0.036735334
000010 e7 19 5d 3d 6b a1 c2 3d bd 0c 9c 3d a9 5b 7c 3d
       0.05397978 0.09503444 0.07619617 0.06161085
000020 8d 39 cc bd c5 01 ef bb 1e 27 99 3d ad 8a 92 bd
       -0.099719144 -0.007293912 0.07478164 -0.071553566
000030 34 16 b0 bd 1f 59 cf 3b 2b 2a af 3d 48 fa 95 3d
       -0.08597985 0.0063277627 0.08552965 0.07323128
000040 93 c6 7c 3d a9 fb 24 3d 3c 03 d6 ba 8c c3 ba 3d
       0.061712813 0.040279064 -0.0016327868 0.09119329
000050 6d a8 f9 3c f8 78 c5 bd 19 d6 fd 3c bf 51 24 3d
       0.03047582 -0.096422136 0.030985879 0.04011702
000060 25 c2 c3 3d 5c e1 8d 3d dd 62 ba bd 04 26 c3 3d
       0.095585145 0.069277495 -0.09100888 0.09528735
000070 bd 63 9c 3d 3b 55 be 3c 24 78 86 3d 8f 5e bc bd
       0.07636211 0.023234 0.06565884 -0.09197723

residual_layers.0.bn2.weight f4 [32]
000000 b3 21 7f 3f 86 4e 7f 3f 7d 69 7c 3f 84 c0 7e 3f
       0.99660796 0.9972919 0.9859846 0.99512506
000010 ef 87 80 3f 34 6e 80 3f f4 ad 80 3f 06 17 80 3f
       1.0041484 1.0033631 1.0053086 1.0007026
000020 d8 40 7e 3f 9a f2 7f 3f 80 0a 80 3f 8f d8 7e 3f
       0.99317694 0.99979556 1.0003204 0.9954919
000030 31 fb 7b 3f 7f 9f 80 3f b5 ee 7e 3f 00 c6 7c 3f
       0.9843016 1.0048674 0.9958299 0.98739624
000040 52 47 7f 3f 35 23 80 3f bb 24 7f 3f 17 84 80 3f
       0.997182 1.0010744 0.9966542 1.0040311
000050 6e 11 80 3f 4d 2a 80 3f 66 c8 7d 3f 8f c3 7d 3f
       1.0005319 1.0012909 0.9913391 0.99126524
000060 05 9f 7e 3f 34 4b 7e 3f 56 a2 7e 3f 13 71 80 3f
       0.99461395 0.993335 0.99466455 1.0034508
000070 c8 6f 7e 3f 02 c5 7b 3f 93 5a 7e 3f 12 d7 7d 3f
       0.99389315 0.98347485 0.99356955 0.99156296

residual_layers.0.bn2.bias f4 [32]
000000 06 51 39 bc ad 2e c3 bb 33 5f d9 bb b4 62 c4 bb
       -0.011310821 -0.005956492 -0.006633663 -0.0059932116
000010 1c b7 23 3b 19 65 11 3c 84 5b 20 3b 63 3e 08 bd
       0.0024980968 0.008874201 0.002446861 -0.03326262
000020 e4 9d fc bb 07 41 0d bc 61 b9 9f b8 f9 c1 e6 ba
       -0.0077092517 -0.008621461 -7.61624e-05 -0.0017605416
000030 65 5e e1 bb 3f 57 a2 3c 41 be 3f bb d2 f0 f9 bb
       -0.006877708 0.019816993 -0.0029257687 -0.007627585
000040 11 7f b7 bc ba a1 2a 3c 92 a4 8c bc ff ac 40 3a
       -0.022399457 0.010414535 -0.017168317 0.0007349997
000050 f7 d1 02 3c ee 0e 1b 3c 2d fd 01 bc 09 13 60 3c
       0.00798463 0.009464009 -0.007933897 0.013676413
000060 6a 12 9a 3b f3 bb 98 bc a4 5c e5 3b 7d 41 c8 3b
       0.004701902 -0.018644309 0.006999569 0.0061113224
000070 46 31 c9 bc e9 b2 c7 3b 4d bb d0 bc 08 74 38 3b
       -0.024559628 0.006094326 -0.025479937 0.0028145332

residual_layers.0.bn2.running_mean f4 [32]
000000 cf d0 89 be 8a 8d 1b bb 08 87 38 bb b8 5c dd ba
       -0.2691712 -0.0023735487 -0.0028156657 -0.0016888594
000010 ca 9e 39 3e ad b8 94 3e 73 65 2e 3e 62 19 88 3e
       0.1812698 0.29047146 0.17030887 0.26581866
000020 37 b1 e5 3d a6 13 d2 3e 40 86 29 be d7 0f a1 be
       0.11215442 0.41030616 -0.16555119 -0.31457397
000030 47 ab c0 be d8 93 92 3e 7a 7c 06 be af 81 60 3e
       -0.37630674 0.2862842 -0.13133422 0.2192447
000040 e8 5e b3 bd 5c 30 6a 3d 53 fd d6 3d 5c 0c 8c be
       -0.08758336 0.057175025 0.104975365 -0.2735318
000050 e8 51 fc 3d 6c 48 4f 3b 31 5d 97 3e 43 c1 75 be
       0.1232031 0.003162886 0.29563287 -0.23999505
000060 4b 19 06 3d 2e 52 7a 3e 1d 83 a2 3e 3f a3 80 3d
       0.032738965 0.24445412 0.31740656 0.06281137
000070 c1 04 db 3e 19 1d 91 3c d4 28 a5 3e 0f 20 13 bd
       0.42777064 0.01771407 0.32257712 -0.035919245

residual_layers.0.bn2.running_var f4 [32]
000000 33 5b f2 3d 74 85 d2 3d 4a 50 a7 3d f6 79 f1 3d
       0.11833801 0.102793604 0.08169611 0.1179084
000010 e6 62 0f 3e 14 93 bb 3d 1e 1b c6 3d 2e f3 de 3d
       0.1400257 0.09158912 0.09673141 0.108862266
000020 82 5a 29 3e bd 33 07 3e 3b 18 a9 3d 6f d7 bb 3d
       0.16538432 0.1320333 0.08256575 0.0917195
000030 b1 27 e0 3d de 26 05 3e 1f d7 1f 3e 6e 6d 0d 3e
       0.109450705 0.13003108 0.15609406 0.13811275
000040 41 ca b0 3d 43 b4 e0 3d a1 23 b2 3d 15 a6 09 3e
       0.08632327 0.10971882 0.08698202 0.13442262
000050 06 eb c3 3d 6c 58 02 3e d4 23 35 3e ad 8f c5 3d
       0.095663115 0.12729043 0.17689449 0.096465446
000060 0f 52 bf 3d 51 c4 a9 3d 02 c7 a5 3d 38 45 d2 3d
       0.09341823 0.082893975 0.08094598 0.10267109
000070 ff 07 00 3e 38 97 ed 3d b4 6e 0b 3e 06 07 b8 3d
       0.1250305 0.11601108 0.13616449 0.089857146

residual_layers.1.conv1.weight f4 [32, 32, 3]
000000 ae 3f cb bd ef ff a2 bb 15 f0 90 3c 3e c3 9f 3c
       -0.09924255 -0.0049743573 0.017692605 0.019502278
000010 17 7d 61 bd 28 6f 4f bc fb 7e c3 3d d2 c3 8a 3d
       -0.055050936 -0.012660779 0.09545704 0.06775631
000020 4c 8e 8f bd f2 62 cf 3d 5e dc cf 3b e6 cd c0 bd
       -0.07009563 0.10126294 0.0063434085 -0.09414272
000030 4e 2c a0 bd c9 91 b3 bd f1 8b a6 bc 96 f0 1f 3d
       -0.078209504 -0.08768041 -0.020330401 0.0390478
000040 c5 87 b5 bd b2 b6 91 bc ee ac 96 3d bf 6d 8f 3b
       -0.088637866 -0.017787311 0.073572025 0.0043770964
000050 d2 2c 41 bc 0f 5e 1a bd 2e 6d b0 3d c7 a5 dd 3c
       -0.011790471 -0.037687358 0.086145744 0.027056588
000060 5a ce 02 3b 0c 0c 34 3d 05 83 b1 bd 90 a2 1e bd
       0.001995942 0.0439568 -0.08667568 -0.03872925
000070 10 18 30 3d c0 5a 95 bd fe 4a a6 3c 17 de 9f bd
       0.042991698 -0.072927 0.020299431 -0.07806032
000080 0f 33 4d bc ef 17 bf bd 70 42 b4 bd 79 e1 35 bd
       -0.01252438 -0.09330737 -0.088017344 -0.04440448
000090 7d fd a9 bd 96 e4 9e bd a7 fb 70 3d 5c b5 16 bd
       -0.08300302 -0.07758443 0.058833744 -0.03679405
0000a0 99 07 e5 3b e3 d5 30 bd 87 80 32 bd 62 0c b7 3c
       0.006989431 -0.04317273 -0.043579604 0.022344772
0000b0 6f 23 d2 3d ee ef d9 bd b7 66 8b 3d 2f 5f ad 3d
       0.10260665 -0.10641466 0.06806701 0.084654205
0000c0 30 4d 27 3c c0 c4 59 bb 06 34 79 bd 6d 42 31 3d
       0.010211274 -0.0033228844 -0.06084063 0.04327624
0000d0 da a3 91 3b c8 aa 15 3d 7f 3e 94 3d 45 69 d3 3d
       0.0044445815 0.036539823 0.07238483 0.10322813
0000e0 54 c8 11 3d 67 4d 62 3d a7 84 2e 3d 3f 9f 87 bc
       0.03559144 0.055249598 0.042606976 -0.016555427
0000f0 60 bd b2 bd a8 9a c3 bd 6d a7 a4 bd 33 6c 9c bd
       -0.08727527 -0.09550983 -0.080397464 -0.07637825
000100 5d 67 c8 bd 5d 0e bd bd 98 3a 70 3d c4 52 dc bb
       -0.0978534 -0.09231255 0.05864963 -0.0067237336
000110 48 bc 13 3d ce b1 dd bb 3e 1b 67 3b ce 2e 93 bd
       0.03606823 -0.0067655807 0.003526404 -0.07186662
000120 6c 4a 4d 3d f8 73 96 bc 75 db 99 3d f5 d9 bd bd
       0.050119802 -0.018365845 0.07512561 -0.09270088
000130 af a2 9d bd 32 ab 5b bd b6 d7 20 3d 4a de 53 bc
       -0.07697045 -0.05363006 0.039268218 -0.012931416
000140 e9 d8 a0 bd c9 04 2f ba 83 44 3c 3d 83 7a c3 3d
       -0.07853872 -0.0006676433 0.045963775 0.09544852
000150 81 cb 49 3c 57 b3 a5 bd 06 ee 71 bd af 2f ad 3d
       0.0123165855 -0.08090847 -0.059064887 0.084563605
000160 cc ab 96 3d cd 83 a2 bc aa bb 0a bc 60 ee af bd
       0.073569864 -0.019838238 -0.008467594 -0.08590388
000170 de 30 ad bd ee a7 2b 3d 90 15 8c 3d 15 c0 2d bd
       -0.08456586 0.041908197 0.0684005 -0.04241951
000180 50 11 95 bc 78 5e 5f bd 89 c2 ae 3d f8 05 ad bd
       -0.018196732 -0.05453345 0.085331984 -0.08448404
000190 86 16 5f 3d e7 9e 6b bd 17 40 5f bd 25 6d c1 3c
       0.05446484 -0.057524588 -0.05450448 0.023611614
0001a0 7f f3 c1 3d 67 7e 6a bd fc d0 b3 3d b0 d7 61 bd
       0.09470271 -0.057249453 0.08780095 -0.055137336
0001b0 c1 76 aa 3d cd f6 03 3c 80 f3 f6 bc 03 78 9a 3d
       0.08323432 0.008054447 -0.030145407 0.07542422
0001c0 39 67 c8 bd 56 e2 af 3c 0b 2e 9a 3d 21 32 1b bc
       -0.09785313 0.02147023 0.07528313 -0.009472401
0001d0 a2 91 32 3d e3 bc 0a 3d 57 25 c1 3d 4a 9f 86 3c
       0.043595918 0.033871543 0.0943095 0.016433377
0001e0 67 ef ad 3c 46 11 ee 3c 08 b2 0f bd 61 73 8f bd
       0.02123232 0.029060971 -0.035081893 -0.07004429
0001f0 c6 1d d5 3d 16 21 a7 3d b6 94 cf bd d6 7b 88 bb
       0.104060695 0.081606075 -0.10135786 -0.004165153
000200 ca 58 b2 bc 6b 61 97 bc 9d 97 7a 3d fe 4d 24 bd
       -0.021770854 -0.01847907 0.061179746 -0.04011344
000210 27 32 bd 3d b2 3b 72 3d 22 ed 76 3d 7d f4 92 3d
       0.092380814 0.05913896 0.06028474 0.07175539
000220 dc a0 81 bd 71 38 da 3d 4f 63 0b 3d fb fe 8b bc
       -0.063295096 0.106552966 0.034030255 -0.017089358
000230 27 53 ca 3c 3b 17 c5 3d db b6 32 3d bb 75 20 bd
       0.024697853 0.096235715 0.043631416 -0.039174777
000240 25 18 86 3c 61 54 8f 3b 56 44 9b bd 94 33 91 3c
       0.016368935 0.0043740724 -0.075813934 0.01772479
000250 d6 76 9d b9 18 a4 1f bd 7b 87 89 3d ba bf b9 3d
       -0.00030033913 -0.03897485 0.06715294 0.09069772
000260 37 35 c2 bb e0 8e c4 bd c7 e9 84 bb 42 88 02 3d
       -0.005926754 -0.09597564 -0.0040561887 0.031868227
000270 b1 bb e7 3d 71 f5 92 3d 0d 64 86 3d 57 76 d2 3d
       0.11315096 0.071757205 0.06562052 0.10276478
000280 5f 25 c0 bd 84 73 8b bc 21 b4 fa 3b e7 3f 3d bd
       -0.09382128 -0.017022856 0.0076508676 -0.04620352
000290 5c db 7a bd f3 67 b9 bd fe e4 7f 3d a1 f1 09 bd
       -0.061244354 -0.0905303 0.062474243 -0.0336777
0002a0 56 d7 f4 3c 49 eb cb 3c 10 bf 70 3d 46 a7 93 3c
       0.029887836 0.024892466 0.05877596 0.018024098
0002b0 2a 16 32 bd 37 fb 45 3d 3b 66 af bd 51 e2 8e bc
       -0.04347817 0.04833528 -0.08564421 -0.0174419
0002c0 42 fc 24 39 1d eb 6d bc 15 c9 b0 bd b3 62 92 3d
       0.00015734232 -0.014521387 -0.08632103 0.07147732
0002d0 69 2b b5 3d 2d b5 f0 3c 33 c8 05 bd f1 78 75 bd
       0.088461705 0.029383266 -0.032661628 -0.05992979
0002e0 b9 f4 05 bd 76 bb 78 bd 74 0c 50 3d 43 96 6d 3d
       -0.03270409 -0.06072565 0.050793126 0.05800463
0002f0 7a 7d 16 3d 4a 4e ca 3d 55 84 cc bd ed 7f 87 3d
       0.036740758 0.09878214 -0.09986178 0.06616197
000300 f8 2f 17 3d ac 7b 56 3d a6 4f 8e bd a7 93 a0 bd
       0.03691098 0.052364036 -0.069487855 -0.078406624
000310 38 2b 5d bd 11 ea 48 bd 48 c6 c0 bd 2a 88 a5 3c
       -0.053996295 -0.049051348 -0.09412819 0.02020653
000320 35 87 c6 bc d9 4f e0 bc 54 2f a2 3d 37 b6 f9 bb
       -0.024234394 -0.027381824 0.079191834 -0.0076205987
000330 80 b3 65 bd ff 6b 8a 3d 60 3e 72 3d 76 ad fe bc
       -0.056079388 0.0675888 0.059141517 -0.031088572
000340 fb 50 66 bd aa 6d ca bd 75 da b3 3c a9 27 29 3a
       -0.056229573 -0.09884198 0.021954754 0.0006452748
000350 70 d9 70 3d 58 c2 97 3d fd 40 58 3d 23 fd 11 3d
       0.058801115 0.07410115 0.052796353 0.0356418
000360 59 e0 bc 3d 1a e1 ca bc 03 bc 6d bd a3 ec 97 bd
       0.092224784 -0.02476554 -0.05804063 -0.07418182
000370 04 1d bf bd 6e c3 3c bd 6a 9a 13 3d 9b e1 57 3c
       -0.09331706 -0.046084814 0.036035933 0.013176347
000380 44 65 4f 3d 6b db 90 3c 29 1d 5c bd f7 93 32 bd
       0.050633684 0.017682752 -0.053738747 -0.04359814
000390 b6 95 3a bc 37 e1 cc bd dc d1 87 3d 6e e7 a4 bd
       -0.011388233 -0.10003894 0.066318244 -0.08051954
0003a0 be e4 b8 bd bb b8 72 3c d4 e8 93 3d 6f 65 6c bc
       -0.09028004 0.014814551 0.07222143 -0.0144284805
0003b0 7b 6f 15 bd 83 4c 54 bd 79 17 96 3d 86 e5 8d bd
       -0.03648327 -0.05183078 0.07328696 -0.06928544
0003c0 56 66 b5 3b 08 f9 73 bd 41 b4 53 3c 54 73 4b bd
       0.005535881 -0.059563667 0.012921394 -0.049670532
0003d0 1e 11 78 3d 17 3f 48 bd 1d 2a 92 3d a3 13 e7 bb
       0.0605632 -0.048888292 0.07136939 -0.0070519014
0003e0 44 49 ec bc f1 5d 5d 3d 2d e5 21 3d 2f d0 c0 bd
       -0.02884353 0.054044668 0.0395252 -0.09414708
0003f0 11 f9 8f bc 7c 76 ac bd c4 78 31 3c c2 e6 8b 3d
       -0.017574819 -0.084210366 0.010832015 0.06831123

residual_layers.1.conv1.bias f4 [32]
000000 58 1a b8 3b 98 53 88 3d d3 78 8a 3d d2 86 7b bd
       0.005618375 0.06656569 0.06761327 -0.06140787
000010 dc 60 5a bd e6 41 c9 3d 52 de d0 bc 19 0b 8c 3b
       -0.05331503 0.09827022 -0.025496636 0.004273784
000020 6e bf 09 3d 21 39 cd 3c f8 b1 81 bc 67 ad 1f 3d
       0.033629827 0.025051655 -0.015831932 0.03898373
000030 be a2 27 3c 1e 07 55 3d 5a 29 9a bd 8f 37 99 bd
       0.010231672 0.05200874 -0.075274184 -0.074813
000040 90 50 bc 3d bf eb 0a 3d 27 5a 33 3d 14 b6 d6 3c
       0.091950536 0.03391623 0.043787148 0.026209868
000050 2c 26 3a bc 23 56 2d 3d c5 c4 6f bd bb de c6 bc
       -0.01136164 0.042318475 -0.058537263 -0.024276128
000060 f3 db a1 3d ff 8e 19 bd 4a 79 9b bc 36 42 bb bd
       0.0790328 -0.037489887 -0.018978734 -0.09143488
000070 70 20 21 3d 41 38 ae 3c fd b2 03 3d d8 39 a8 3d
       0.039337575 0.021267058 0.03215312 0.08214158

residual_layers.1.bn1.weight f4 [32]
000000 ba c5 80 3f 36 53 7e 3f 40 b1 7f 3f a5 a3 7f 3f
       1.0060341 0.9934572 0.9987984 0.99859077
000010 c7 a9 81 3f 77 ec 7c 3f 45 16 80 3f b6 70 7c 3f
       1.0129937 0.98798317 1.0006796 0.98609483
000020 02 9a 80 3f 9c 98 7e 3f 7d 2a 7e 3f 2f 4b 80 3f
       1.0047 0.99451613 0.9928358 1.0022944
000030 45 c7 80 3f 9e 09 81 3f 23 64 80 3f 9b 0d 7f 3f
       1.0060812 1.008106 1.0030559 0.99630135
000040 9a 13 7d 3f 78 fd 7e 3f 47 c3 7e 3f cc b0 80 3f
       0.98858035 0.9960551 0.9951672 1.0053954
000050 fe 1f 80 3f d7 af 7e 3f e8 da 80 3f 76 c8 7f 3f
       1.0009763 0.9948706 1.0066805 0.99915254
000060 4f e8 7e 3f ea 41 80 3f 1a c3 80 3f 87 be 80 3f
       0.99573225 1.0020115 1.005954 1.0058144
000070 c0 e2 80 3f 9e 57 7d 3f e0 7a 80 3f 8d f1 80 3f
       1.0069199 0.9896182 1.0037498 1.0073715

residual_layers.1.bn1.bias f4 [32]
000000 c6 fc 1a 3c f2 00 de ba 43 20 19 bc 7b fb be 39
       0.00945968 -0.0016937538 -0.009346071 0.00036426992
000010 75 af 42 3c 89 76 5c bc fe 6b 28 3c ef d0 0a bc
       0.0118826525 -0.013455995 0.010279654 -0.008472665
000020 57 74 dc ba dc 2a 28 bc be 41 a8 b9 67 34 5f bc
       -0.001681934 -0.010264125 -0.0003209244 -0.013623334
000030 6a 1f 2d 3a 43 4c 95 bb 1b ac 0a 3c 05 95 4d bb
       0.00066041073 -0.0045562102 0.008463885 -0.003136934
000040 17 4f a4 3b ba 7b 69 ba 7b c1 ae 3a be f0 50 3a
       0.005014311 -0.00089066813 0.0013332808 0.00079704437
000050 9b 9a 7d bb 64 c5 7b 3c cf 17 64 3c 6e 26 4e 3b
       -0.0038696888 0.015366886 0.013921692 0.0031456011
000060 d4 ac 04 bc 10 72 a4 3b 61 c2 0d 3c d8 b9 70 bc
       -0.008097846 0.00501848 0.008652301 -0.014692746
000070 15 0d 9f 3c a4 50 89 bb 0a 03 45 3a 5f 9e 52 bc
       0.019415418 -0.0041905213 0.00075154065 -0.012855141

residual_layers.1.bn1.running_mean f4 [32]
000000 a3 b4 14 bf 6d 0d 3a 3f 9d e9 b2 be 45 9f 99 bd
       -0.5808813 0.72676736 -0.34943858 -0.075010814
000010 ab 27 b1 be c7 0d e6 3e 4a a6 03 3e af c2 22 bc
       -0.34600577 0.44932386 0.12856403 -0.0099341115
000020 ad b5 f8 3d ed a7 82 3e f3 41 92 3e 93 6c fb 3d
       0.12144027 0.25518742 0.2856594 0.12276568
000030 33 36 b8 be d8 8e 96 3e cd 2d e0 3e 74 13 f4 3d
       -0.3597885 0.29405856 0.43784943 0.11917773
000040 9c a7 09 3f e4 b3 95 be 32 1f ca 3e f8 9f 82 be
       0.53771377 -0.29238808 0.39476925 -0.2551267
000050 63 32 99 bd 2a 91 97 be 75 7f 91 be f8 6b 03 bf
       -0.07480314 -0.2960294 -0.28417554 -0.5133662
000060 9e 1e 12 be 8e 49 1a bf eb 44 bb be 64 17 37 bf
       -0.14269492 -0.60268486 -0.36576018 -0.71520066
000070 87 00 90 be ca 6c 8f bd 08 1e a6 3e 30 c1 54 3f
       -0.28125402 -0.07003172 0.32444787 0.8310728

residual_layers.1.bn1.running_var f4 [32]
000000 74 f9 09 3e 14 be 77 3e ec 57 36 3e 38 d2 7e 3e
       0.13474065 0.24193603 0.17806977 0.2488488
000010 33 e2 58 3e 05 58 a1 3e 9d 2d 53 3e 4a 69 3f 3e
       0.21180038 0.31512466 0.20622869 0.18692508
000020 00 bf 78 3e fb 1b 44 3e 9a 8f 91 3e 37 74 5d 3e
       0.2429161 0.19151299 0.28429872 0.21626364
000030 4e f6 43 3e a5 40 70 3e 4c 81 8f 3e 4e ca 7f 3e
       0.19136927 0.2346216 0.28028333 0.24979517
000040 63 cf 6b 3e d5 24 3a 3e 5c d1 0f 3e b9 61 59 3e
       0.2302833 0.18178113 0.14044708 0.21228684
000050 a7 69 5c 3e 97 0f 88 3e cd 74 73 3e 36 e3 4f 3e
       0.21524678 0.26574394 0.23775025 0.20301518
000060 a3 ae 52 3e dd 47 35 3e 1d 37 6a 3e eb 5b 45 3e
       0.20574431 0.17703195 0.22872587 0.19273345
000070 b8 cc 03 3e 3e 85 93 3e 6e b1 5e 3e 9f fb 8a 3e
       0.12871063 0.28812593 0.21747372 0.27145097
